experiments/rotation/checkpoints/checkpoints_weight_decay_mse/checkpoint_dim-2_ntrain-14_weightdecay-0.1_seed-1683best.pkl (torch_old, 13838 bytes, 36 tensors)

ffs.0.0.weight f4 [50, 1]
0.69989055 0.030002777 -0.52784854 -0.19647503 -0.4404428 0.51900685 0.33429042 0.6793387
0.267042 -0.74394226 0.32102302 -0.77586 -0.042726807 -0.57103443 0.497883 -0.25325266
-0.7300631 0.03523175 0.00038534633 -0.24896215 -0.45262623 -0.0056295963 -0.06100391 -0.59693384
-0.577769 -0.5701128 -0.28358284 -0.037898675 0.7927197 0.49264333 0.005288624 0.69705963
0.46896744 0.37084275 0.13983019 0.18202204 0.80475676 0.2215293 0.43600017 0.002476269
0.4963739 0.021161009 0.6944806 0.63235813 -0.0023267178 0.388156 0.7081972 0.346553
-0.044071246 -0.37672636
00000000: 072c 333f 62c8 f53c 1521 07bf c030 49be
00000010: b881 e1be a2dd 043f 1d28 ab3e 24e9 2d3f
00000020: bbb9 883e 0073 3ebf 215d a43e c39e 46bf
00000030: 4e02 2fbd 502f 12bf 85ea fe3e 55aa 81be
00000040: 6ae5 3abf 2b4f 103d 4f08 ca39 efef 7ebe
00000050: a0be e7be 7a78 b8bb 3cdf 79bd a8d0 18bf
00000060: abe8 13bf eaf2 11bf c531 91be a43b 1bbd
00000070: aeef 4a3f bf3b fc3e 324c ad3b 8072 323f
00000080: 801c f03e 1adf bd3e a52f 0f3e fc63 3a3e
00000090: 8a04 4e3f 94d8 623e 6a3b df3e e648 223b
000000a0: b824 fe3e da59 ad3c 7bc9 313f 39e2 213f
000000b0: d97b 18bb 62bc c63e 694c 353f 656f b13e
000000c0: 0d84 34bd 47e2 c0be

ffs.0.0.bias f4 [50]
-0.22295447 0.48210305 0.07442513 0.46767247 0.8024042 -0.1246309 0.3564822 -0.5810872
0.22683099 -0.013947086 0.048490368 0.02460804 -0.70520085 -0.011094671 0.5489495 -0.20501561
0.41666344 0.15976752 0.1758009 0.5859276 0.022237888 0.30665278 -0.77720326 0.0032357837
-0.7405276 0.7233631 -0.1227492 -0.6280975 0.23256415 -0.6525432 0.64400506 -0.39192674
0.2005768 -0.76517975 -0.3629203 0.022315683 -0.37102696 0.59589297 0.007899647 0.7440075
-0.093378186 -0.69040066 -0.443654 0.22663943 0.30932167 0.55343825 -0.77247065 -0.058620106
0.7924681 0.34160247
00000000: 2d4e 64be 36d6 f63e 346c 983d c472 ef3e
00000010: 5d6a 4d3f 7c3e ffbd d684 b63e 21c2 14bf
00000020: 6246 683e 5282 64bc d69d 463d cd96 c93c
00000030: 0b88 34bf 6cc6 35bc f487 0c3f 9def 51be
00000040: e954 d53e 199a 233e 2705 343e 5aff 153f
00000050: 3b2c b63c 9801 9d3e cbf6 46bf 710f 543b
00000060: 3793 3dbf 532e 393f ef63 fbbd ffca 20bf
00000070: 4c25 6e3e 120d 27bf 84dd 243f 9faa c8be
00000080: 0164 4d3e d2e2 43bf b1d0 b9be 61cf b63c
00000090: 3ff7 bdbe 718c 183f 856d 013c 4777 3e3f
000000a0: 103d bfbd 19be 30bf 9e26 e3be 2b14 683e
000000b0: 695f 9e3e 21ae 0d3f a3c0 45bf a31b 70bd
000000c0: 30df 4a3f 85e6 ae3e

ffs.0.2.weight f4 [1, 50]
1.2385281e-06 0.043741014 -6.486778e-05 -0.052922882 -0.004291681 0.020819997 0.043566123 -0.02496358
0.050965328 -0.055710915 0.042069778 -0.064193144 -0.009804894 -0.059866637 0.09301745 -0.03817731
0.032173827 0.04373182 0.0019138254 0.00058476924 -0.08201894 0.016027287 -0.023399653 0.014538199
-0.17482972 0.08380242 -0.048516355 -0.04084632 0.08437922 -0.050575282 -0.0036387783 -0.030382333
0.09942817 0.004761802 0.032582957 0.041367948 -0.020600215 0.060648035 0.063124634 0.024511714
0.015538409 0.0067565194 -0.032698587 0.075825244 -0.005700989 -0.0025924733 -0.07239277 0.03822905
0.04994312 -0.025459398
00000000: 803b a635 c729 333d a009 88b8 aac5 58bd
00000010: 3ba1 8cbb b38e aa3c 6472 323d 6c80 ccbc
00000020: 05c1 503d 2131 64bd 5c51 2c3d b277 83bd
00000030: b5a4 20bc b836 75bd ef7f be3d d05f 1cbd
00000040: b4c8 033d 2320 333d 53d9 fa3a 334b 193a
00000050: 8cf9 a7bd a84b 833c a1b0 bfbc a031 6e3c
00000060: 9006 33be 9aa0 ab3d 16b9 46bd 794e 27bd
00000070: 03cf ac3d 0728 4fbd 9278 6ebb 5fe4 f8bc
00000080: ffa0 cb3d e408 9c3b b575 053d 7071 293d
00000090: c8c1 a8bc 136a 783d 7d47 813d cacc c83c
000000a0: d094 7e3c cb65 dd3b f4ee 05bd 444a 9b3d
000000b0: 5dcf babb 7ce6 29bb a942 94bd 1096 1c3d
000000c0: 2891 4c3d 3a90 d0bc

ffs.1.0.weight f4 [50, 1]
0.20210446 -0.39556664 -0.6412135 0.027698843 -0.7692333 0.33304113 0.42303434 0.28669432
-0.66451496 0.0014664653 -0.37680855 -0.06396368 -0.5665085 0.15555331 0.44201732 0.07062003
-0.4801652 -0.2794353 -0.60224724 -0.07383617 -0.13869134 -0.009848927 0.4067445 -0.5985917
-0.3220251 0.3878368 0.008280899 -0.659858 0.16325483 -0.09100731 0.4408793 0.008329532
0.29201055 -0.7403291 0.037075255 0.79644436 -0.36498955 -0.074627094 -0.05383628 0.13613412
0.20675367 -0.024131095 0.004206608 -0.56823486 0.43819517 -0.4881074 -0.37797782 -0.55436397
0.21703981 0.8061271
00000000: 79f4 4e3e b687 cabe 9126 24bf afe8 e23c
00000010: 79ec 44bf 5e84 aa3e f597 d83e 99c9 923e
00000020: a71d 2abf 6936 c03a 0ded c0be 64ff 82bd
00000030: b306 11bf 5e49 1f3e 1850 e23e 3ca1 903d
00000040: 37d8 f5be 2512 8fbe e02c 1abf 6b37 97bd
00000050: 1a05 0ebe 655d 21bc d140 d03e 4e3d 19bf
00000060: 79e0 a4be 8c92 c63e 9cac 073c 74ec 28bf
00000070: 462c 273e 0a62 babd eeba e13e 9778 083c
00000080: 6882 953e 3586 3dbf 39dc 173d c7e3 4b3f
00000090: e9df babe 17d6 98bd 6e83 5cbd be66 0b3e
000000a0: 3cb7 533e 93ae c5bc 96d7 893b d777 11bf
000000b0: 1e5b e03e 37e9 f9be 4f86 c1be ccea 0dbf
000000c0: af3f 5e3e 585e 4e3f

ffs.1.0.bias f4 [50]
-0.45082423 0.028582511 0.7774955 -0.29985806 -0.24567576 -0.13012043 -0.0072444743 -0.2940246
-0.5504482 -0.13021864 0.7050312 -0.78213817 -0.3823421 -0.42689398 0.69032013 0.006180232
-0.14217044 -0.0014318465 0.32581824 0.5170319 -0.00072628574 0.19607696 0.6120498 -0.6056201
-0.001738521 -0.29833478 0.56425416 -0.053762823 -0.43117052 -0.27935356 0.49614817 0.50884044
-0.5568509 -0.69436485 -0.2285042 -0.6239123 -0.6988464 -0.00031503633 0.19010365 0.0005365708
-0.060618408 0.6941656 0.21994445 0.30931622 0.0006839064 0.014638056 -0.7169329 -0.5856804
0.0042427755 0.37991384
00000000: 6fd2 e6be df25 ea3c f209 473f ff86 99be
00000010: 6d92 7bbe 4a3e 05be 0e63 edbb 648a 96be
00000020: 2cea 0cbf 0958 05be ed7c 343f 353a 48bf
00000030: 58c2 c3be d991 dabe d2b8 303f 8b83 ca3b
00000040: 2195 11be ccac bbba a6d1 a63e 345c 043f
00000050: 3664 3eba 66c8 483e 4caf 1c3f eb09 1bbf
00000060: 16df e3ba 56bf 98be f672 103f 6836 5cbd
00000070: 62c2 dcbe 6e07 8fbe 2207 fe3e 5e43 023f
00000080: c88d 0ebf e5c1 31bf 01fd 69be b7b8 1fbf
00000090: 99e7 32bf 762b a5b9 88aa 423e a8a8 0c3a
000000a0: 024b 78bd d6b4 313f 1e39 613e b25e 9e3e
000000b0: 2e48 333a 75d4 6f3c ea88 37bf 27ef 15bf
000000c0: fb06 8b3b 1184 c23e

ffs.1.2.weight f4 [1, 50]
-0.11303984 0.16159472 0.07819621 -0.034983072 0.1510071 -0.107598834 -0.14431322 -0.15192793
0.09008714 -0.029679852 0.05319895 0.032542557 0.044493735 -0.06948645 -0.11038139 -0.06715842
0.115540415 0.112366125 0.07260737 0.053074375 0.07402499 0.013165648 -0.13351545 0.111915305
0.1339525 -0.1839052 -0.022698823 0.13416278 -0.032452464 0.011257938 -0.041799728 -0.021145392
-0.06039057 0.21774039 -0.013993075 -0.07666882 0.05543203 0.054415647 0.04714673 -0.07788847
-0.118141435 -0.03893185 -0.012828045 0.15221713 -0.03536423 0.1822305 0.1630509 0.018692238
-0.016944708 -0.14191708
00000000: 6e81 e7bd 1679 253e 5625 a03d 694a 0fbd
00000010: 9ba1 1a3e c75c dcbd d8c6 13be ff92 1bbe
00000020: 9b7f b83d 2923 f3bc 24e7 593d 584b 053d
00000030: 103f 363d e94e 8ebd a30f e2bd 5b8a 89bd
00000040: 74a0 ec3d 3620 e63d 2cb3 943d 8464 593d
00000050: 6a9a 973d bbb4 573c 46b8 08be da33 e53d
00000060: d82a 093e a551 3cbe e2f2 b9bc f861 093e
00000070: e0ec 04bd 3773 383c 3136 2bbd 1a39 adbc
00000080: 1a5c 77bd 56f7 5e3e 3643 65bc 8b04 9dbd
00000090: b20c 633d f1e2 5e3d ee1c 413d fd83 9fbd
000000a0: 23f4 f1bd 0177 1fbd b82c 52bc cfde 1b3e
000000b0: 15da 10bd a29a 3a3e d1f6 263e 7720 993c
000000c0: a1cf 8abc b652 11be

ffs.2.0.weight f4 [50, 1]
0.0869372 -0.26123098 0.0015865851 0.09330302 0.125325 -0.19986957 0.03529738 0.36036518
0.7318084 -0.15082823 0.24918252 0.00849135 -0.00083067344 0.06568131 -0.18931909 0.05651523
-0.41046914 -0.0010500863 0.0035909312 -0.3844341 -0.65103227 -0.4535264 0.75618356 0.6510314
0.2905596 -0.35202435 -0.64264596 -0.6278187 -0.23455298 0.5644584 -0.7408289 -0.7778228
-0.80345964 0.5651233 -0.39000145 0.060469598 -0.21567607 -0.22476943 -0.538727 -0.5572917
0.39804503 -0.0017094293 0.10129342 0.46084154 -0.11915868 -0.41319528 0.5541163 0.62670183
0.45990244 -0.45025644
00000000: 210c b23d 11c0 85be f6f4 cf3a a715 bf3d
00000010: 3255 003e 9caa 4cbe fc93 103d c981 b83e
00000020: cc57 3b3f b772 1abe b429 7f3e 4e1f 0b3c
00000030: 8dc1 59ba ec83 863d dddc 41be 847c 673d
00000040: 0329 d2be 0da3 89ba d455 6b3b 8cd4 c4be
00000050: 0daa 26bf 9d34 e8be 3f95 413f fea9 263f
00000060: 3ac4 943e 893c b4be 7284 24bf bab8 20bf
00000070: a82e 70be 5880 103f f6a6 3dbf 651f 47bf
00000080: 88af 4dbf ecab 103f 45ae c7be f8ae 773d
00000090: 30da 5cbe f529 66be 03ea 09bf abaa 0ebf
000000a0: 8fcc cb3e ee0e e0ba ed72 cf3d 6cf3 eb3e
000000b0: 7709 f4bd 558e d3be 91da 0d3f 886f 203f
000000c0: 5578 eb3e 0388 e6be

ffs.2.0.bias f4 [50]
-0.7000144 0.5767503 0.10830397 -0.58452255 0.59185076 0.1206957 -0.58024263 0.6753136
-0.33700582 0.10809057 -0.45626 -0.5469869 -0.6336571 -0.06391269 0.00073614693 -0.11208696
-0.29778287 -0.3046807 0.36440668 -0.41704485 0.43382204 0.7760258 -0.7103583 -0.001865867
-0.16915077 0.13399392 0.013015918 -0.7573968 -0.5591117 0.06666654 0.36319435 -0.566793
0.05946798 -0.11313317 0.16799924 -9.2812625e-05 -0.4685667 -0.67420036 0.52539605 0.29273185
0.6716493 -0.01065781 0.5154213 0.21261723 -0.7432519 0.531464 -0.51281077 -0.5238176
0.78848475 0.66207737
00000000: 2534 33bf e8a5 133f 79ce dd3d 45a3 15bf
00000010: 8883 173f 4f2f f73d c88a 14bf 5ae1 2c3f
00000020: 078c acbe 975e dd3d e99a e9be 5507 0cbf
00000030: 5a37 22bf a8e4 82bd fcf9 403a d98d e5bd
00000040: ff76 98be 1cff 9bbe 8393 ba3e e786 d5be
00000050: ec1d de3e a0a9 463f 0bda 35bf 1b90 f4ba
00000060: dc35 2dbe b435 093e b840 553c c2e4 41bf
00000070: f221 0fbf 7888 883d 9cf4 b93e 5919 11bf
00000080: b294 733d 5db2 e7bd fe07 2c3e 66a4 c2b8
00000090: f9e7 efbe 6598 2cbf 5b80 063f f3e0 953e
000000a0: 35f1 2b3f 189e 2ebc a6f2 033f 55b8 593e
000000b0: c245 3ebf 060e 083f 9147 03bf e918 06bf
000000c0: 23da 493f e77d 293f

ffs.2.2.weight f4 [1, 50]
-0.0038458467 -0.008442861 -0.047252063 -0.022775106 0.041809108 0.048389 0.028484818 -0.002783373
0.07777736 -0.059562664 -0.0069539207 -0.035280965 0.026035657 0.0474603 -0.032784607 -0.052059267
0.0023141422 0.030568045 -0.09957479 -0.027388938 -0.094418995 0.011707766 0.05043859 0.015690362
-0.041932408 -0.082607806 0.060662467 -0.03490802 -0.0068293996 -0.05402756 0.016389482 0.0112289395
0.002217501 -0.016923668 0.009335437 0.010080315 9.948115e-06 0.012095031 0.0063045723 -0.108539745
0.006823289 0.038722906 0.063279025 -0.018988594 0.053459316 -0.045549337 -0.022539565 0.044544674
0.016905839 -0.02058252
00000000: 9a0a 7cbb ed53 0abc 618b 41bd dc92 babc
00000010: 0740 2b3d 8b33 463d fe58 e93c 4069 36bb
00000020: bd49 9f3d fbf7 73bd b7dd e3bb c682 10bd
00000030: bb48 d53c bb65 423d 2749 06bd 193c 55bd
00000040: dda8 173b d669 fa3c deed cbbd c45e e0bc
00000050: bf5e c1bd eed1 3f3c b298 4e3d 1389 803c
00000060: 51c1 2bbd 482e a9bd 3579 783d b6fb 0ebd
00000070: 28c9 dfbb 014c 5dbd 3c43 863c 96f9 373c
00000080: 7e53 113b 81a3 8abc a9f3 183c e827 253c
00000090: d4e6 2637 3d2a 463c 9696 ce3b 164a debd
000000a0: e695 df3b e99b 1e3d 6f98 813d f88d 9bbc
000000b0: 28f8 5a3d f191 3abd e5a4 b8bc 7a74 363d
000000c0: 1d7e 8a3c ac9c a8bc

ffs.3.0.weight f4 [50, 1]
-0.5403156 -0.2135896 0.38637242 0.24466811 -0.0003341216 -0.00039672715 0.08682766 -0.00068742246
0.10022821 0.7607871 -0.67129844 -0.00031508878 -0.77285594 0.35915464 0.36445612 -0.2935791
0.4655356 0.36214596 0.24501456 0.17391543 0.6017386 -0.65258855 0.00014299115 -0.65537053
0.38776326 -0.44380528 -0.0001578241 -0.24041796 -0.13619769 0.55786383 -0.30481645 -0.27214536
-0.003535421 -0.28927308 -0.5360316 -0.56948555 -0.00026517067 -0.65896016 -0.35073745 -0.4310884
-0.17605144 -0.25513044 0.0031070982 -0.0003209407 -0.18463771 0.1692279 0.24866031 0.61165404
-0.6793174 -0.35431466
00000000: 2052 0abf 3bb7 5abe 9bd2 c53e 478a 7a3e
00000010: 0b2d afb9 d1ff cfb9 b3d2 b13d 2434 34ba
00000020: 7344 cd3d f2c2 423f 37da 2bbf 8032 a5b9
00000030: e3d9 45bf 1ee3 b73e fe99 ba3e 0050 96be
00000040: af5a ee3e 326b b93e 19e5 7a3e e316 323e
00000050: 8a0b 1a3f 0b10 27bf e5ef 1539 5dc6 27bf
00000060: e888 c63e 723a e3be 967d 25b9 2030 76be
00000070: 6877 0bbe 2ad0 0e3f e710 9cbe a356 8bbe
00000080: 86b2 67bb 9a1b 94be 5e39 09bf cec9 11bf
00000090: 9b06 8bb9 9db1 28bf dc93 b3be 9eb7 dcbe
000000a0: d446 34be 75a0 82be 75a0 4b3b ee43 a8b9
000000b0: ab11 3dbe 144a 2d3e cfa0 7e3e 5c95 1c3f
000000c0: bfe7 2dbf bb68 b5be

ffs.3.0.bias f4 [50]
0.0015347324 -0.49995086 -0.22581522 -0.62968475 -0.042112455 0.6127782 0.09938184 0.6951331
0.7506996 0.66004825 0.43549526 4.090021e-05 0.0022392955 0.6802907 0.28180474 0.26237953
-0.0012105457 -0.57806665 0.5150422 -0.0001549402 0.12569036 0.7212534 -0.5022007 0.5747634
0.32015842 -0.789629 0.23216735 -0.27224466 -0.029459206 0.43511376 0.050146885 -0.61683863
0.21938379 -0.080275916 -0.35567158 0.07827433 0.52439946 0.13954434 -0.38171858 -0.0015773271
0.33529946 -0.12866767 -0.49192974 3.6733785e-05 -0.2544316 -0.037353564 0.17963322 -0.27491653
0.36203465 0.5285761
00000000: 1329 c93a 8ff9 ffbe 1b3c 67be 0533 21bf
00000010: 1c7e 2cbd 08df 1c3f b588 cb3d 3ef4 313f
00000020: d92d 403f ecf8 283f 3cf9 de3e 448c 2b38
00000030: 25c1 123b 8827 2e3f b648 903e 9c56 863e
00000040: 2cab 9eba 2dfc 13bf ced9 033f 7177 22b9
00000050: f9b4 003e 10a4 383f 3a90 00bf b223 133f
00000060: ceeb a33e 2025 4abf 47bd 6d3e a763 8bbe
00000070: 6f54 f1bc 3bc7 de3e d266 4d3d 23e9 1dbf
00000080: 25a6 603e b367 a4bd 961a b6be 4b4e a03d
00000090: 0b3f 063f b6e4 0e3e 9e70 c3be 51be ceba
000000a0: 5fac ab3e 75c1 03be 37de fbbe 9a12 1a38
000000b0: dc44 82be 0d00 19bd c5f1 373e dcc1 8cbe
000000c0: 9b5c b93e c350 073f

ffs.3.2.weight f4 [1, 50]
0.017166728 -0.028715065 -0.01694526 -0.014945219 -0.009699885 -0.012769819 -0.008219374 -0.013137824
-0.007759405 0.06723226 0.054105 -0.009093366 0.008439491 0.008610619 0.013192604 0.016446576
-0.0059975167 0.00013529722 0.0098856045 -0.013565281 0.006629767 0.047447447 -0.006635884 0.066547275
0.0013347836 -0.067874566 -0.0050745863 0.0120808175 -0.007887075 0.03426417 -0.022639481 -0.03462753
-0.0078778 -0.013871417 -0.046289485 0.020521566 -0.008407208 0.027672583 -0.034881253 -0.017755156
-0.011702883 -0.010656539 0.00019121847 -0.009159814 0.012902795 -0.0036676377 0.0028250124 -0.04331106
0.0023999668 0.00632371
00000000: 3da1 8c3c db3b ebbc c9d0 8abc cbdc 74bc
00000010: 44ec 1ebc 8138 51bc 8eaa 06bc 0740 57bc
00000020: 9b42 febb 11b1 893d 349d 5d3d 57fc 14bc
00000030: ca45 0a3c 8e13 0d3c cb25 583c f8ba 863c
00000040: d186 c4bb 92de 0d39 3bf7 213c ea40 5ebc
00000050: 843e d93b 4158 423d d471 d9bb f049 883d
00000060: e8f3 ae3a d201 8bbd b748 a6bb 9fee 453c
00000070: ca38 01bc 9658 0c3d 6f76 b9bc 99d5 0dbd
00000080: e311 01bc f144 63bc 0b9a 3dbd d81c a83c
00000090: 63be 09bc 9db1 e23c a5df 0ebd 4373 91bc
000000a0: 73bd 3fbc c498 2ebc d181 4839 0b13 16bc
000000b0: 3f66 533c c05c 70bb d823 393b f066 31bd
000000c0: c348 1d3b 2037 cf3b

exp_avg_sq f4 [50, 1]
0.0011511995 1.0567821e-05 0.0006956976 0.00015256868 0.00054027804 0.0006757732 0.0003262608 0.001104425
0.00021809293 0.0012785955 0.00030226845 0.0013888221 2.2788128e-05 0.0007976184 0.0006004488 0.00020632675
0.0012290588 1.3242279e-05 1.0865641e-06 0.00020533332 0.00053658395 7.2106996e-06 2.6763668e-05 0.0008653554
0.00068397116 0.00073839567 0.00024213638 1.2453017e-05 0.0014218529 0.00059048214 5.98277e-06 0.0011369005
0.00053166714 0.00041118448 9.0900976e-05 0.00012045088 0.0014819932 0.00014976523 0.00049574266 3.2868309e-06
0.00062456814 1.225977e-05 0.0011319577 0.0009474698 3.0918616e-06 0.00046023415 0.0011486233 0.00034497448
2.4203955e-05 0.00040635458
00000000: d8e3 963a 724c 3137 7a5f 363a d8fa 1f39
00000010: 72a1 0d3a 5f26 313a fc0d ab39 5bc2 903a
00000020: e0af 6439 8c96 a73a c979 9e39 2309 b63a
00000030: 2229 bf37 4417 513a 7067 1d3a 6a59 5839
00000040: 5f18 a13a 282b 5e37 0fd6 9135 be4e 5739
00000050: 8aa9 0c3a 70f3 f136 8a82 e037 05d9 623a
00000060: 874c 333a e590 413a fde5 7d39 4ded 5037
00000070: 775d ba3a 96ca 1a3a 9abf c836 0d04 953a
00000080: 945f 0b3a 3f94 d739 17a2 be38 939a fc38
00000090: 713f c23a 4c0a 1d39 baf4 013a 5393 5c36
000000a0: 0fba 233a 50af 4d37 335e 943a 9f5f 783a
000000b0: c77d 4f36 954b f139 678d 963a b1dd b439
000000c0: 9909 cb37 fd0b d539

exp_avg f4 [50, 1]
0.070878305 0.002608192 -0.053662438 -0.020400602 -0.04505085 0.052789234 0.033226646 0.06835669
0.026479542 -0.07526412 0.032406066 -0.07858898 -0.0045275604 -0.05773064 0.047890898 -0.025384605
-0.07342652 0.0031896553 1.2848419e-05 -0.025664063 -0.04564676 -0.0009952624 -0.006134505 -0.06063367
-0.052337807 -0.05574033 -0.028381892 -0.0034710958 0.07953723 0.04898604 0.00074041716 0.07016724
0.04615628 0.038038924 0.014453726 0.018336102 0.08112675 0.02111073 0.043967273 -0.00014978716
0.050493263 0.0023485152 0.06982695 0.06321169 -0.00021116926 0.03986157 0.06981964 0.035219442
-0.005298005 -0.0386596
00000000: a528 913d 33ee 2a3b 25cd 5bbd 2a1f a7bc
00000010: 3d87 38bd 8639 583d aa18 083d 98fe 8b3d
00000020: a0eb d83c 1324 9abd 39bc 043d 42f3 a0bd
00000030: ee5b 94bb f776 6cbd 3f29 443d 60f3 cfbc
00000040: a560 96bd 8909 513b 8a8f 5737 713d d2bc
00000050: 19f8 3abd 7773 82ba f503 c9bb 035b 78bd
00000060: 2b60 56bd f94f 64bd 2481 e8bc 537b 63bb
00000070: 6ae4 a23d 96a5 483d 8e18 423a d8b3 8f3d
00000080: 5e0e 3d3d b4ce 1b3d 52cf 6c3c 9835 963c
00000090: c825 a63d 69f0 ac3c 0717 343d 2f10 1db9
000000a0: 06d2 4e3d 8ce9 193b 6f01 8f3d 2175 813d
000000b0: 516d 5db9 e345 233d 99fd 8e3d 4342 103d
000000c0: e39a adbb 8759 1ebd

exp_avg_sq f4 [50]
0.00017873531 0.00059944834 3.7625417e-05 0.0005778183 0.0014755167 7.486335e-05 0.0003625861 0.00083890324
0.00017576238 1.4668916e-06 2.4999612e-05 2.5800337e-05 0.0011603968 1.16403406e-07 0.00073373725 0.00015260796
0.00046344957 0.00010767363 0.00012334455 0.0008374726 2.1884045e-05 0.00028466064 0.001381257 4.5048743e-08
0.0012033851 0.0011771072 7.310141e-05 0.0009469386 0.00017324426 0.0009920087 0.0009884306 0.00042247222
0.0001294961 0.0013554652 0.00037729583 1.21154035e-05 0.00039687916 0.0008584509 6.55143e-08 0.001277256
4.9843344e-05 0.0011178753 0.0005217022 0.00017040966 0.0002885706 0.0007739592 0.0013519025 3.427781e-05
0.0014278569 0.0003468894
00000000: e56a 3b39 4c24 1d3a fccf 1d38 bb78 173a
00000010: 2066 c13a f4ff 9c38 7c19 be39 d8e9 5b3a
00000020: db4c 3839 03e2 c435 42b6 d137 cd6d d837
00000030: 7518 983a 73f9 f933 4658 403a 6305 2039
00000040: 26fb f239 d7ce e138 0d56 0139 d689 5b3a
00000050: a193 b737 813e 9539 4b0b b53a 9e7b 4133
00000060: e7ba 9d3a 2a49 9a3a 054e 9938 f93b 783a
00000070: e7a8 3539 4a06 823a 3a8e 813a 437f dd39
00000080: 58c9 0739 dda9 b13a cacf c539 4343 4b37
00000090: 3814 d039 aa09 613a deb0 8c33 9969 a73a
000000a0: e20e 5138 ac85 923a d8c2 083a ffaf 3239
000000b0: 4a4b 9739 86e3 4a3a 5232 b13a 85c5 0f38
000000c0: ed26 bb3a b5de b539

exp_avg f4 [50]
-0.023021204 0.049074713 0.007964907 0.04779429 0.08120442 -0.013427842 0.03619585 -0.058568828
0.023195554 4.0570478e-05 0.004995362 0.004634239 -0.071421266 -1.4612082e-05 0.054728385 -0.021077309
0.041794877 0.016675174 0.018298732 0.059471235 0.0037191636 0.03147141 -0.07863156 4.538327e-05
-0.07286333 0.072131485 -0.012643807 -0.06370248 0.021787954 -0.06554243 0.06529257 -0.039365392
0.01944242 -0.077468276 -0.03718134 0.0024447741 -0.037435785 0.06035305 2.5529129e-05 0.075305164
-0.010147443 -0.06993939 -0.044541534 0.0218955 0.03174021 0.05626922 -0.07699268 -0.00670303
0.080138884 0.03522599
00000000: f796 bcbc 9102 493d 3e7f 023c f2c3 433d
00000010: 814e a63d 7400 5cbc 1a42 143d dee5 6fbd
00000020: 9a04 be3c 382a 2a38 22b0 a33b d0da 973b
00000030: 5045 92bd 6a26 75b7 df2a 603d 52aa acbc
00000040: 1b31 2b3d 609a 883c 39e7 953c 1c98 733d
00000050: 36bd 733b 2ae8 003d 9509 a1bd ea59 3e38
00000060: 5f39 95bd acb9 933d f827 4fbc 7276 82bd
00000070: a77c b23c 1c3b 86bd 1cb8 853d 9b3d 21bd
00000080: b645 9f3c b0a7 9ebd 764b 18bd 8138 203b
00000090: 4456 19bd c234 773d 6327 d637 9839 9a3d
000000a0: 7641 26bc 623c 8fbd 2f71 36bd 315e b33c
000000b0: 0602 023d 8e7a 663d 57ae 9dbd 17a5 dbbb
000000c0: db1f a43d 2149 103d

exp_avg_sq f4 [50, 1]
4.923342e-05 0.00022118136 7.846288e-08 5.4597e-05 8.314622e-05 0.00015024122 1.9310428e-05 0.0003716423
0.0011998927 9.9130804e-05 0.00020729487 6.347977e-06 9.4263505e-08 3.6806807e-05 0.00013748957 2.9645344e-05
0.00045763882 1.223772e-07 4.1910872e-07 0.0004168017 0.00096820574 0.00055045995 0.00131115 0.0010009214
0.0002671819 0.0003432951 0.0010058291 0.00095968996 0.00019137544 0.00079376844 0.0012839194 0.0013821161
0.0014717111 0.0007956287 0.00042291428 3.3194592e-05 0.00016690938 0.00017535179 0.00073307264 0.00073003006
0.0004398918 1.5005133e-06 6.5445696e-05 0.0005543153 6.552414e-05 0.00045011687 0.0007890899 0.00092697464
0.00056358665 0.00053002604
00000000: fb7f 4e38 ebec 6739 6d7f a833 15ff 6438
00000010: c95e ae38 128a 1d39 d4fc a137 fcd8 c239
00000020: b845 9d3a 72e4 cf38 4b5d 5939 b500 d536
00000030: e96d ca33 0261 1a38 132b 1039 e4ae f837
00000040: 3eef ef39 ca66 0334 dd01 e134 2d86 da39
00000050: 30cf 7d3a be4c 103a e5da ab3a 5931 833a
00000060: 8c14 8c39 4afc b339 06d6 833a b493 7b3a
00000070: f4ab 4839 e614 503a 3049 a83a 1f28 b53a
00000080: 6ee6 c03a bd91 503a 98ba dd39 6c3a 0b38
00000090: 6504 2f39 a3de 3739 ac2b 403a 7d5f 3f3a
000000a0: 47a1 e639 3f65 c935 e43f 8938 784f 113a
000000b0: 016a 8938 aafd eb39 edda 4e3a 3700 733a
000000c0: a9bd 133a 72f1 0a3a

exp_avg f4 [50, 1]
0.009286483 -0.026837092 9.246168e-06 0.009958208 0.013522155 -0.020749247 0.0039896043 0.036848076
0.07305847 -0.015827902 0.025742447 0.00093047967 -8.067534e-06 0.007238342 -0.019714007 0.006006206
-0.041885916 -1.0182829e-05 4.6157613e-05 -0.03945815 -0.064663075 -0.04642319 0.07572655 0.06587221
0.030013314 -0.035639253 -0.06563908 -0.06396323 -0.024293384 0.05760339 -0.07523185 -0.07869433
-0.08129052 0.05754782 -0.039899595 0.0065958174 -0.022322865 -0.02310667 -0.054861106 -0.055355817
0.040738378 -6.006209e-05 0.011172888 0.046939507 -0.01209679 -0.041591022 0.056671776 0.062893085
0.047083423 -0.045583803
00000000: 5526 183c 76d9 dbbc fd1f 1b37 c027 233c
00000010: 078c 5d3c 53fa a9bc 3abb 823b 02ee 163d
00000020: ae9f 953d 84a9 81bc d3e1 d23c 6feb 733a
00000030: cb59 07b7 9d2f ed3b 457f a1bc b5cf c43b
00000040: 9190 2bbd ebd6 2ab7 5c99 4138 de9e 21bd
00000050: 136e 84bd 3e26 3ebd 8516 9b3d 02e8 863d
00000060: 7bde f53c 77fa 11bd c86d 86bd 27ff 82bd
00000070: eb02 c7bc 88f1 6b3d 2813 9abd 7e2a a1bd
00000080: a57b a6bd 43b7 6b3d c26d 23bd ba21 d83b
00000090: 71de b6bc 334a bdbc 0ab6 60bd c8bc 62bd
000000a0: 49dd 263d 2eeb 7bb8 7d0e 373c a443 403d
000000b0: 9d31 46bc 595b 2abd aa20 683d 17ce 803d
000000c0: 8cda 403d 15b6 3abd

exp_avg_sq f4 [1, 50]
1.1816725e-05 3.3090582e-05 4.1459003e-05 4.1191677e-05 5.8461632e-05 7.3003275e-06 3.3536042e-05 4.612276e-05
1.6015929e-05 3.18993e-05 1.4337912e-05 3.2853386e-05 1.0484057e-05 3.065265e-05 4.853394e-05 2.9895238e-05
4.1750725e-05 2.8219078e-05 2.422814e-05 3.5203524e-05 3.39449e-05 3.3430686e-05 8.08169e-06 6.4613916e-05
4.6529138e-05 3.8516933e-05 2.6835733e-05 1.6585687e-05 4.206276e-05 6.8939644e-06 2.7136408e-05 1.8829562e-05
1.0909564e-05 2.813172e-05 1.493135e-05 1.3022321e-05 3.185274e-05 2.0492384e-05 9.6511985e-06 4.2683107e-05
1.1880689e-05 5.9009612e-06 2.4313493e-05 3.6338883e-05 2.6645575e-05 9.283058e-05 4.4230062e-05 7.2732214e-06
5.9339603e-05 3.4660367e-05
00000000: 7340 4637 beca 0a38 44e4 2d38 3ac5 2c38
00000010: b334 7538 56f5 f436 0da9 0c38 f073 4138
00000020: f259 8637 9dcb 0538 dd8c 7037 0ecc 0938
00000030: afe4 2f37 0891 0038 ec90 4b38 89c7 fa37
00000040: 801d 2f38 02b8 ec37 893d cb37 7fa7 1338
00000050: 0f60 0e38 ed37 0c38 9896 0737 5581 8738
00000060: 4828 4338 3e8d 2138 4c1d e137 7e21 8b37
00000070: 8b6c 3038 b452 e736 fea2 e337 2df4 9d37
00000080: 3808 3737 69fc eb37 a981 7a37 717a 5a37
00000090: 9f99 0538 0fe7 ab37 95eb 2137 a306 3338
000000a0: 2c53 4737 df00 c636 d4f4 cb37 946a 1838
000000b0: f084 df37 0aae c238 ab83 3938 7f0c f436
000000c0: 6ae3 7838 4960 1138

exp_avg f4 [1, 50]
-0.00093346776 0.00416034 0.0048032124 -0.0042567607 -0.004487309 -0.0019183552 -0.0031014907 0.0042794896
0.00012254622 0.0012076944 -0.00060923886 -0.00096211844 -0.0003056357 0.00025999994 -0.0044984315 0.0008247445
-0.0008979526 0.004100399 0.00018279614 0.0008055911 -0.0034124854 0.0018322422 -0.0015294607 0.007901262
0.0010185582 0.0022987865 -0.00018669637 -0.003882615 -0.004855713 -0.001840094 -0.00052762975 -5.5232395e-05
0.001754495 0.0026456267 0.0020261998 0.0015531847 0.0020995627 0.0010721019 0.0010403446 0.002576583
-0.0030206817 0.00046530945 0.0008623094 -0.0038943328 -0.00059846573 -0.010854188 0.0035793446 -0.0002444925
0.0057943217 -0.0012657541
00000000: f6b3 74ba 7653 883b 4464 9d3b 4c7c 8bbb
00000010: 470a 93bb 5271 fbba 6142 4bbb f63a 8c3b
00000020: c07f 0039 804b 9e3a 54b5 1fba ad36 7cba
00000030: bb3d a0b9 9a50 8839 9467 93bb ab33 583a
00000040: 9464 6bba a45c 863b f7ac 3f39 4e2e 533a
00000050: 01a4 5fbb d927 f03a 2f78 c8ba 4b74 013c
00000060: 2481 853a 3da7 163b edc3 43b9 7873 7ebb
00000070: ac1c 9fbb 4f2f f1ba a250 0aba 55a9 67b8
00000080: 15f7 e53a 4062 2d3b fec9 043b 3b94 cb3a
00000090: d198 093b c585 8c3a 2c5c 883a e4db 283b
000000a0: a1f6 45bb c7f4 f339 9b0c 623a 1038 7fbb
000000b0: 5be2 1cba c4d5 31bc 7093 6a3b 3a2f 80b9
000000c0: 4bde bd3b a9e7 a5ba

exp_avg_sq f4 [50]
0.00054622476 1.842108e-05 0.0013912709 0.00027782575 0.00019910987 8.383059e-05 7.902314e-06 0.0002770529
0.00075260125 8.193726e-05 0.0011621816 0.0013999074 0.00040530262 0.000490768 0.0011242304 5.5521778e-06
9.107312e-05 7.898036e-07 0.00031598244 0.0006824972 1.7450554e-06 0.00014446501 0.00091253815 0.0008917667
2.3472714e-06 0.0002875534 0.0007843844 2.7298936e-05 0.00049445167 0.00024524998 0.00062658254 0.00065593503
0.00076811755 0.0011468629 0.00018021092 0.0009397522 0.0011415778 1.3396554e-07 0.00013987756 2.6144005e-07
3.437353e-05 0.0011228684 0.00017058065 0.00030109953 1.2380183e-08 1.2369393e-05 0.0012186015 0.0008322432
4.925981e-06 0.0004007629
00000000: 8630 0f3a f886 9a37 4e5b b63a 24a9 9139
00000010: 26c8 5039 35ce af38 2e94 0437 6941 9139
00000020: 374a 453a bbd5 ab38 5854 983a 197d b73a
00000030: cc7e d439 e2a6 003a ea5a 933a d84c ba36
00000040: 82fe be38 e402 5435 72aa a539 9de9 323a
00000050: a637 ea35 887b 1739 6637 6f3a 73c5 693a
00000060: d185 1d36 c4c2 9639 259f 4d3a 0500 e537
00000070: 179e 013a e594 8039 3e41 243a 0ef3 2b3a
00000080: 7f5b 493a 5552 963a 00f7 3c39 b459 763a
00000090: ffa0 953a 2bd8 0f34 19ac 1239 0c5c 8c34
000000a0: 4c2c 1038 362d 933a e5dd 3239 e5dc 9d39
000000b0: 9fb0 5432 2386 4f37 7bb9 9f3a e52a 5a3a
000000c0: db49 a536 7c1d d239

exp_avg f4 [50]
-0.046214018 0.003566506 0.079173125 -0.030812204 -0.025016088 -0.01390977 -0.0012268639 -0.030602839
-0.05599065 -0.013701933 0.07164798 -0.07913636 -0.03907101 -0.043670446 0.07018923 0.0007385896
-0.01474647 -1.5664331e-05 0.033744298 0.052641485 -3.930679e-05 0.020353071 0.06234912 -0.061611336
3.6909132e-05 -0.03126517 0.057296246 -0.005462729 -0.044029403 -0.028729185 0.05052917 0.051744964
-0.05677227 -0.07066481 -0.023623222 -0.06380118 -0.07090942 -2.8314341e-06 0.019777123 3.07693e-06
-0.0067149396 0.07028545 0.022745088 0.03244622 -1.6579451e-06 0.002208125 -0.073002495 -0.0594754
0.0005391609 0.038639616
00000000: e94a 3dbd 0bbc 693b 8525 a23d e069 fcbc
00000010: 8aee ccbc cee5 63bc b9ce a0ba ceb2 fabc
00000020: 7456 65bd 137e 60bc 2dbc 923d 3e12 a2bd
00000030: ec08 20bd c8df 32bd 5fbf 8f3d e99d 413a
00000040: 2e9b 71bc e566 83b7 7637 0a3d 999e 573d
00000050: 58dd 24b8 7cbb a63c ca61 7f3d 2b5c 7cbd
00000060: e1ce 1a38 e80f 00bd 78af 6a3d b100 b3bb
00000070: 2d58 34bd 7859 ebbc adf7 4e3d 87f2 533d
00000080: 0a8a 68bd b6b8 90bd 7d85 c1bc 31aa 82bd
00000090: f538 91bd ab03 3eb6 a203 a23c 417d 4e36
000000a0: ff08 dcbb d1f1 8f3d e853 ba3c 54e6 043d
000000b0: 8f86 deb5 31b6 103b 5582 95bd 7a9c 73bd
000000c0: 7a56 0d3a 9344 1e3d

exp_avg_sq f4 [50]
0.0011445315 0.00081543776 6.365824e-05 0.00083722884 0.00085903704 7.6868e-05 0.00081852544 0.0010795307
0.0003118788 6.216289e-05 0.00054640195 0.0007474924 0.0009562208 3.3577388e-05 1.2330373e-06 6.902845e-05
0.00027246846 0.00027916557 0.00037065597 0.00047860597 0.00048164552 0.0013834253 0.0011759367 9.07083e-07
0.00012107656 7.856273e-05 1.3491209e-05 0.0013515598 0.0007751738 3.1620268e-05 0.0003823669 0.00079511834
3.362685e-05 7.125774e-05 0.00011735752 9.39119e-07 0.00057133235 0.0010706626 0.00069924205 0.00024643922
0.0010724899 7.639854e-06 0.0006788513 0.00016161104 0.0012659103 0.00070102257 0.00068221474 0.0006822239
0.0014304828 0.0010369282
00000000: 1b04 963a 1ac3 553a 4280 8538 7a79 5b3a
00000010: 0031 613a 3134 a138 5092 563a 0a7f 8d3a
00000020: aa83 a339 735d 8238 6a3c 0f3a 5ef3 433a
00000030: e4aa 7a3a 72d5 0c38 d77e a535 5ec3 9038
00000040: 19da 8e39 f85c 9239 9a54 c239 68ed fa39
00000050: 5e85 fc39 0d54 b53a e321 9a3a 457e 7335
00000060: 7cea fd38 0bc2 a438 4d58 6237 d226 b13a
00000070: 0835 4b3a 01a0 0438 6b78 c839 7d6f 503a
00000080: 8e0a 0d38 3570 9538 d71d f638 c417 7c35
00000090: 77c5 153a 7a55 8c3a 574d 373a 8334 8139
000000a0: ca92 8c3a ec2c 0037 f1f4 313a 2276 2939
000000b0: e7ec a53a d4c4 373a a8d6 323a 45d7 323a
000000c0: 0a7f bb3a 89e9 873a

exp_avg f4 [50]
-0.07090363 0.058538597 0.011442491 -0.059351526 0.060099583 0.012811394 -0.058894973 0.06842135
-0.03374857 0.011360563 -0.046499755 -0.055588193 -0.06424769 -0.006893438 2.1747961e-05 -0.011869376
-0.030570026 -0.031264104 0.037234005 -0.04269244 0.043468084 0.07855547 -0.07160289 -3.110647e-05
-0.017769292 0.013694473 0.0022289674 -0.07697609 -0.05680405 0.0066959597 0.037325244 -0.057439696
0.00649516 -0.012104056 0.017559621 -5.409519e-06 -0.047717236 -0.06829762 0.0534574 0.029241014
0.06809583 -0.0012747988 0.052451525 0.021882607 -0.075198695 0.05382652 -0.05231239 -0.05293989
0.07985034 0.06702158
00000000: ec35 91bd 2bc6 6f3d 4979 3b3c 961a 73bd
00000010: fb2a 763d e2e6 513c db3b 71bd 7e20 8c3d
00000020: f13b 0abd a821 3a3c 8776 3ebd 72b0 63bd
00000030: 4b94 83bd 59e2 e1bb 646f b637 c577 42bc
00000040: fe6d fabc ca0e 00bd af82 183d 45de 2ebd
00000050: 970b 323d b1e1 a03d 89a4 92bd 5178 02b8
00000060: e890 91bc c85e 603c de13 123b a4a5 9dbd
00000070: 5dab 68bd c869 db3b 5be2 183d e345 6bbd
00000080: 5ad5 d43b 1750 46bc 32d9 8f3c 6a83 b5b6
00000090: 2673 43bd 9fdf 8bbd 26f6 5a3d da8a ef3c
000000a0: d475 8b3d 2617 a7ba 69d7 563d 2743 b33c
000000b0: c601 9abd 3279 5c3d 8445 56bd 80d7 58bd
000000c0: 9388 a33d 9c42 893d

exp_avg_sq f4 [1, 50]
1.6841472e-05 5.3131163e-05 0.00014579979 3.950564e-06 0.00019175446 7.634401e-05 8.5448315e-05 2.4998579e-05
0.00021661237 2.0618518e-05 9.0840134e-05 7.087282e-06 0.00023352093 2.9425591e-05 0.000114540875 8.79665e-06
0.000119441815 4.7002373e-05 0.00018367857 1.6568087e-05 2.1712354e-05 1.8730578e-05 8.345167e-05 0.00015994189
4.8104295e-05 3.4334877e-05 8.118244e-06 0.00016861748 5.6767658e-05 3.5556975e-05 0.00019689476 1.1311922e-05
7.801183e-05 0.00010623178 2.294758e-05 0.00023351198 0.00010721655 1.3906916e-05 1.4575269e-05 2.746445e-05
2.6407803e-05 3.499777e-05 9.166863e-06 9.7268006e-05 0.00020629416 6.704681e-05 3.378377e-05 0.0002518873
0.000109676745 0.0002428004
00000000: c946 8d37 27d9 5e38 d5e1 1839 168f 8436
00000010: b211 4939 e11a a038 b732 b338 0ab4 d137
00000020: 7122 6339 eef5 ac37 6d81 be38 4acf ed36
00000030: 4cdd 7439 fad6 f637 aa35 f038 5395 1337
00000040: d67c fa38 6a24 4538 d799 4039 b2fb 8a37
00000050: ed22 b637 9c1f 9d37 c602 af38 13b6 2739
00000060: 98c3 4938 cb02 1038 9833 0837 e9ce 3039
00000070: cf19 6e38 0323 1538 8975 4e39 56c8 3d37
00000080: 489a a338 c1c8 de38 8e7f c037 e5da 7439
00000090: 72d9 e038 c051 6937 4e88 7437 7563 e637
000000a0: 5386 dd37 92ca 1238 60cb 1937 5dfc cb38
000000b0: ab50 5839 7b9b 8c38 0cb3 0d38 be0f 8439
000000c0: 4102 e638 3c98 7e39

exp_avg f4 [1, 50]
-0.0035560746 0.002868698 -0.0085247625 -0.0019344625 -0.008980497 0.0025797056 0.0019616322 -0.0042424034
-0.012882948 -0.0022921695 -0.0053890054 0.0018532597 -0.014906317 -0.0003981299 0.0059527694 -0.0032974603
-0.0049496754 0.0016412761 -0.011030665 0.004151053 0.0031095108 0.0022327208 0.0025545647 -0.008779891
0.0023955868 -0.004265551 -0.00084068865 -0.007687913 0.0038069393 -0.0018316624 0.0132876625 -0.0006803394
0.004852569 -0.0015725677 0.0011108173 0.014567182 -0.006999454 0.0037671954 0.004005553 -0.0014786574
-0.0030706374 -0.0038132716 -5.5178403e-05 -0.002105508 0.0136379115 0.0021028826 0.0039441213 -0.01702557
0.008066026 0.012952752
00000000: 080d 69bb c400 3c3b 72ab 0bbc ca8d fdba
00000010: ef22 13bc 4710 293b ba8e 003b dc03 8bbb
00000020: 0013 53bc 3938 16bb 4196 b0bb 14e9 f23a
00000030: a039 74bc 17bc d0b9 730f c33b 341a 58bb
00000040: e330 a2bb 1620 d73a f6b9 34bc 8e05 883b
00000050: efc8 4b3b d752 123b 7c6a 273b 88d9 0fbc
00000060: 47ff 1c3b 09c6 8bbb a961 5cba e3ea fbbb
00000070: d87d 793b 6414 f0ba 7fb4 593c ce58 32ba
00000080: 4d02 9f3b 9e1e ceba d898 913a 31ab 6e3c
00000090: ad5b e5bb 0de3 763b 0441 833b 82cf c1ba
000000a0: bf3c 49bb 15e8 79bb 5c6f 67b8 90fc 09bb
000000b0: 8c71 5f3c 84d0 093b b03d 813b 3579 8bbc
000000c0: 5d27 043c c837 543c

exp_avg_sq f4 [1, 50]
2.4086918e-05 0.00017656863 9.758191e-05 2.4194786e-05 0.0001729417 0.00015183183 4.606619e-05 0.00015435788
4.0546212e-05 0.000113981565 2.7252236e-05 2.895916e-05 4.454434e-05 8.7654946e-05 0.00010010825 4.850945e-05
7.193425e-05 6.3845255e-05 0.00012629741 6.7198045e-05 0.00015878538 0.00022998326 2.3074981e-05 5.2688694e-05
3.720226e-05 0.00012746213 0.00017845965 8.960243e-05 4.6886402e-05 5.8206766e-05 0.00021748348 7.5374155e-05
0.00016284587 3.4239732e-05 0.00014991417 8.5604006e-05 5.1026338e-05 4.101714e-05 0.0002077477 0.00014486368
0.00016199418 9.576809e-05 0.00018169661 8.741886e-05 5.4295197e-05 0.00016859832 3.679076e-05 2.189134e-05
0.00018801968 0.00019618549
00000000: 430e ca37 4825 3939 e4a4 cc38 e8f5 ca37
00000010: af57 3539 0c35 1f39 3237 4138 21db 2139
00000020: 2a10 2a38 6309 ef38 bb9b e437 53ed f237
00000030: 1fd5 3a38 64d3 b738 35f1 d138 a076 4b38
00000040: 68db 9638 a9e4 8538 b46e 0439 adec 8c38
00000050: a07f 2639 a927 7139 2591 c137 0efe 5c38
00000060: 9f09 1c38 5ba7 0539 e620 3b39 f0e8 bb38
00000070: e4a7 4438 0a23 7438 470c 6439 3112 9e38
00000080: 9bc1 2a39 a29c 0f38 4732 1d39 4d86 b338
00000090: 1d05 5638 d209 2c38 d9d6 5939 8ce6 1739
000000a0: fbdc 2939 1ad7 c838 d085 3e39 a554 b738
000000b0: 06bb 6338 c4c9 3039 c74f 1a38 4ba3 b737
000000c0: 2627 4539 24b7 4d39

exp_avg f4 [1, 50]
0.00026035038 0.0010098295 -0.004006673 -0.0017470309 0.0062005967 0.0055796625 0.0037832276 0.004238521
0.0035274765 -0.0056512826 -0.0005210404 -0.0031469667 0.0034049118 0.0060565025 -0.0031041186 -0.004515786
-0.0011146617 0.003980025 -0.009307311 -0.0047980933 -0.0036152427 0.006180986 -0.003272407 0.0014846616
-0.0036421297 -0.007568516 0.0082641505 -0.00977663 -0.0018634554 -0.0045792465 0.008423138 -0.0033882293
0.0042546396 -0.0024732742 0.0023664362 0.0021656975 -0.00077211106 4.90752e-05 0.0057866112 -0.007473325
0.0056481943 0.004917389 0.008176827 0.00064312835 0.0054791737 -0.0012926083 -0.006161825 -0.00016777132
0.007972742 0.00237215
00000000: a37f 8839 415c 843a 694a 83bb a1fc e4ba
00000010: 602e cb3b 9ad5 b63b 07f0 773b 4be3 8a3b
00000020: 3c2d 673b 652e b9bb 6e96 08ba 573d 4ebb
00000030: f124 5f3b a075 c63b 786e 4bbb 29f9 93bb
00000040: d719 92ba df6a 823b b17d 18bc 5339 9dbb
00000050: b5ed 6cbb de89 ca3b e175 56bb fa98 c23a
00000060: ccb0 6ebb 5001 f8bb 5c66 073c 292e 20bc
00000070: 303f f4ba 810d 96bb 3401 0a3c 0e0d 5ebb
00000080: 816a 8b3b a816 22bb 3616 1b3b 60ee 0d3b
00000090: 7f67 4aba 18d6 4d38 9d9d bd3b cbe2 f4bb
000000a0: 7d14 b93b 0c22 a13b 19f8 053c 9d97 283a
000000b0: a48a b33b bd6c a9ba 22e9 c9bb c5eb 2fb9
000000c0: 1ba0 023c 1376 1b3b

exp_avg_sq f4 [50, 1]
0.0007203078 0.00015227562 0.00041315096 0.00019555066 7.499463e-09 3.79075e-09 5.0919753e-05 1.9525692e-06
6.1872786e-05 0.0013221725 0.0010304027 2.5516774e-08 0.0013677644 0.00037782366 0.0003747074 0.00025885293
0.0005650611 0.00038541591 0.0001982978 0.0001230735 0.00087880273 0.0010123686 2.2810495e-06 0.0009724884
0.00042244795 0.000500964 5.5363124e-08 0.00020267707 8.798493e-05 0.00075952354 0.0002848605 0.00022655833
4.5558236e-06 0.00026091601 0.00070745224 0.0007835826 3.3932315e-09 0.0010104806 0.00034277598 0.0004993846
0.00012413814 0.00021582023 3.998356e-06 5.6210386e-08 0.00013840589 0.000116878866 0.00020513183 0.00088574074
0.0011107535 0.0003625106
00000000: 0ad3 3c3a 2dac 1f39 2f9c d839 bb0c 4d39
00000010: fdd6 0032 ca3f 8231 ab92 5538 e208 0336
00000020: b3c1 8138 bf4c ad3a 940e 873a fb2f db32
00000030: 8f46 b33a a216 c639 6074 c439 a7b6 8739
00000040: 9c20 143a a611 ca39 29ee 4f39 4b0d 0139
00000050: 745f 663a 74b1 843a 2214 1936 97ee 7e3a
00000060: 017c dd39 2053 033a 66c8 6d33 b685 5439
00000070: 8d84 b838 c31a 473a 5459 9539 4a90 6d39
00000080: 3ade 9836 8ecb 8839 5174 393a 5769 4d3a
00000090: 5c2e 6931 1a72 843a 9db6 b339 22e9 023a
000000a0: 142b 0239 cd4d 6239 9e29 8636 f96b 7133
000000b0: 0c21 1139 dd1c f538 a818 5739 0e31 683a
000000c0: b496 913a 590f be39

exp_avg f4 [50, 1]
-0.054800093 -0.02182834 0.03934108 0.025098024 -5.5140845e-07 -4.371974e-07 0.009296139 -4.981368e-05
0.010694129 0.07660452 -0.067122385 -4.4900415e-07 -0.07811943 0.03664203 0.037201345 -0.030057693
0.047387704 0.037074678 0.025164442 0.018136812 0.06108785 -0.06522059 6.523923e-05 -0.06516713
0.039611705 -0.044120114 1.6183263e-06 -0.024894208 -0.014266748 0.056469504 -0.03132241 -0.027559934
-0.0004382435 -0.029700335 -0.05428915 -0.057649136 1.6858627e-07 -0.06647863 -0.035621013 -0.044016715
-0.018356435 -0.02625788 0.0004151914 -1.1726961e-06 -0.01927147 0.017640855 0.025627246 0.06147644
-0.06884523 -0.036178257
00000000: 1076 60bd 59d1 b2bc 1d24 213d 5f9a cd3c
00000010: 8004 14b5 f4b7 eab4 d54e 183c 08ef 50b8
00000020: 6e36 2f3c d5e2 9c3d 7677 89bd a90e f1b4
00000030: 14fd 9fbd f415 163d 7060 183d 8d3b f6bc
00000040: 9c19 423d 9edb 173d a925 ce3c a793 943c
00000050: 4137 7a3d 5f92 85bd 0bd1 8838 5876 85bd
00000060: e23f 223d 4bb7 34bd 4535 d935 f0ee cbbc
00000070: 14bf 69bc 914c 673d ed4b 00bd 5fc5 e1bc
00000080: 0cc4 e5b9 1e4e f3bc 4d5e 5ebd 8021 6cbd
00000090: a404 3534 f325 88bd 57e7 11bd df4a 34bd
000000a0: 3c60 96bc c41a d7bc 0cae d939 8865 9db5
000000b0: 34df 9dbc 8e83 903c 3bf0 d13c b8ce 7b3d
000000c0: bafe 8cbd a72f 14bd

exp_avg_sq f4 [50]
6.367694e-09 0.0006341848 0.00017747682 0.00094826525 2.2916414e-05 0.0009054604 5.8060992e-05 0.0011311417
0.0012971191 0.0010175307 0.00049061934 2.02363e-07 3.289599e-06 0.00109288 0.00024826438 0.00021961365
2.7418416e-06 0.00082368875 0.00066963927 3.886887e-07 7.380621e-05 0.0012088204 0.00064228306 0.00079128705
0.00030872898 0.0014116443 0.00018536497 0.0002386752 1.666806e-05 0.0004921864 2.8572884e-05 0.0009135825
0.00017017788 4.5323777e-05 0.00034763943 3.985062e-05 0.00069181714 8.366862e-05 0.0003997425 1.4538657e-06
0.0003285726 8.11677e-05 0.0006193952 1.5032549e-06 0.00021425013 2.036342e-05 0.00012696546 0.0002329851
0.0003820246 0.0007026002
00000000: d4ca da31 6c3f 263a 1219 3a39 0195 783a
00000010: a03c c037 6b5c 6d3a 8486 7338 d142 943a
00000020: 1804 aa3a aa5e 853a e89c 003a 1e49 5934
00000030: e1c2 5c36 f83e 8f3a 7b29 8239 1748 6639
00000040: 7b00 3836 d1ec 573a bb8a 2f3a f8ac d034
00000050: 68c8 9a38 4871 9e3a e35e 283a 606e 4f3a
00000060: e7dc a139 ec06 b93a 885e 4239 e344 7a39
00000070: 63d2 8b37 1206 013a cdaf ef37 7c7d 6f3a
00000080: c771 3239 091a 3e38 6043 b639 4725 2738
00000090: 105b 353a 4077 af38 8894 d139 7222 c335
000000a0: 4544 ac39 9438 aa38 e95e 223a 72c3 c935
000000b0: 55a8 6039 1dd2 aa37 0822 0539 764d 7439
000000c0: 794a c839 b42e 383a

exp_avg f4 [50]
5.332234e-06 -0.050829858 -0.023255212 -0.06383778 -0.004658641 0.06216025 0.010549314 0.07040695
0.07597347 0.06604137 0.043887973 1.4255475e-07 0.00016454599 0.068905205 0.02891163 0.02697119
-0.000119091426 -0.058696315 0.052357975 -5.2078667e-06 0.013151724 0.07274129 -0.051090337 0.057827346
0.032826994 -0.07958083 0.023979701 -0.02803924 -0.0033190902 0.044046614 0.0055671087 -0.06250925
0.022691123 -0.008554256 -0.035979666 0.008185145 0.0533088 0.0143094715 -0.038865734 -5.8772202e-05
0.03435922 -0.013504141 -0.05005793 -6.8809436e-06 -0.026235776 -0.0041532316 0.018678866 -0.027861139
0.037039075 0.053710155
00000000: 8beb b236 f832 50bd b781 bebc 62bd 82bd
00000010: 83a7 98bb bf9b 7e3d 08d7 2c3c 8531 903d
00000020: fb97 9b3d b340 873d e0c3 333d 2711 1934
00000030: fa89 2c39 2c1e 8d3d 15d8 ec3c aff2 dc3c
00000040: b9c0 f9b8 8c6b 70bd 5175 563d 3cbf aeb6
00000050: 547a 573c 63f9 943d 1a44 51bd 5edc 6c3d
00000060: 9975 063d 46fb a2bd 1471 c43c 8cb2 e5bc
00000070: 1885 59bb 396a 343d 4b6c b63b da04 80bd
00000080: bce2 b93c 2627 0cbc 6a5f 13bd fd1a 063c
00000090: 545a 5a3d 4672 6a3c ad31 1fbd 2c82 76b8
000000a0: 41bc 0c3d 7940 5dbc 8b09 4dbd dbe2 e6b6
000000b0: 69ec d6bc d517 88bb 6c04 993c 0b3d e4bc
000000c0: 49b6 173d 2eff 5b3d

exp_avg_sq f4 [1, 50]
1.8626037e-05 3.2064686e-06 2.3459363e-06 9.4697566e-07 2.2823508e-06 2.2096513e-06 4.450658e-06 2.3771831e-06
4.9951514e-06 1.05474965e-05 4.1866324e-06 2.8153613e-06 2.5382374e-06 1.680296e-05 2.236397e-06 1.5467062e-05
1.5461577e-06 1.9118464e-05 1.7246738e-06 8.387844e-06 3.5133176e-06 1.554101e-05 8.0201926e-07 5.724685e-06
1.3043077e-05 6.955331e-06 6.737764e-06 2.5492238e-05 8.891374e-06 1.3362626e-06 6.3596103e-06 2.1602664e-06
5.7640364e-06 9.5270425e-06 2.07215e-06 1.2599835e-05 5.907351e-06 8.151661e-06 1.5643968e-06 3.8071014e-06
2.3762414e-06 1.1553938e-05 6.4635697e-06 1.1995501e-06 2.2981876e-05 7.2055116e-07 1.396737e-06 7.8024334e-07
2.4741976e-05 3.8499497e-06
00000000: 1c3f 9c37 b62e 5736 e16e 1d36 ac33 7e35
00000010: 7d2a 1936 8549 1436 dc56 9536 b287 1f36
00000020: 069c a736 27f5 3037 e67a 8c36 8aef 3c36
00000030: 9656 2a36 15f4 8c37 0215 1636 43bf 8137
00000040: 9385 cf35 9760 a037 577b e735 84b9 0c37
00000050: 56c6 6b36 115e 8237 584a 5735 ab16 c036
00000060: 97d3 5a37 d761 e936 f414 e236 2ad8 d537
00000070: 292c 1537 a259 b335 a364 d536 18f9 1036
00000080: b268 c136 56d6 1f37 440f 0b36 e163 5337
00000090: c237 c636 1ec3 0837 44f8 d135 817d 7f36
000000a0: 8477 1f36 c9d7 4137 a4e1 d836 3a00 a135
000000b0: 34c9 c037 e66b 4135 8577 bb35 ea71 5135
000000c0: fd8c cf37 d12e 8136

exp_avg f4 [1, 50]
0.002840707 -0.00095453404 -0.00031788112 -0.00022519473 -0.0002027218 -0.00024025526 -0.00036166527 -0.00023654249
-0.0002982457 -0.00011209673 0.00076963427 -5.9603237e-05 -9.2979644e-05 -0.0019246584 0.0003357528 0.0026772895
-8.545768e-05 0.0029232558 0.00030281095 -0.0012563707 0.00070131087 -0.002222079 -4.5778965e-05 0.0011540013
-0.0014567106 -0.0009891328 0.0005661843 0.003585777 0.00065173313 0.00043475872 -0.0011481049 -0.00070559647
0.00024050575 0.00047984763 -0.0008161993 0.0022136457 0.000312404 0.0013991444 -0.000579071 -0.00062153203
-0.00012145493 0.0008916186 0.00081403996 -0.00010128491 0.0033004496 -2.083398e-05 0.00014115892 -0.00037923973
-0.0043869107 -2.196015e-05
00000000: 282b 3a3b b239 7aba 48a9 a6b9 4022 6cb9
00000010: b891 54b9 08ed 7bb9 e49d bdb9 6408 78b9
00000020: dc5d 9cb9 7915 ebb8 48c1 493a 7dfe 79b8
00000030: 11fe c2b8 d244 fcba fa07 b039 7775 2f3b
00000040: be37 b3b8 1894 3f3b 99c2 9e39 ceac a4ba
00000050: 2dd8 373a 4da0 11bb ca02 40b8 dc41 973a
00000060: 19ef beba caa5 81ba fc6b 143a 5bff 6a3b
00000070: 12d9 2a3a 54f0 e339 027c 96ba c7f7 38ba
00000080: 4530 7c39 0f94 fb39 35f6 55ba d012 113b
00000090: 28ca a339 7f63 b73a cccc 17ba 4fee 22ba
000000a0: 9eb5 feb8 83bb 693a 4c65 553a ec68 d4b8
000000b0: 5b4c 583b a2c4 aeb7 0f04 1439 b2d4 c6b9
000000c0: 13c0 8fbb 1037 b8b7

exp_avg_sq f4 [50, 1]
9.923909e-05 0.00032834828 0.00096013973 3.6388155e-06 0.0012683686 0.00028205922 0.0004054345 0.0001728963
0.0010128993 1.6940958e-05 0.0003902641 2.2713992e-05 0.0008018421 8.666023e-05 0.00046901096 1.4872985e-05
0.0005371016 0.00018907567 0.0008633599 1.9864841e-05 5.7493933e-05 7.652374e-06 0.00038106547 0.00081414776
0.00023175433 0.0003037088 3.76303e-08 0.0009604824 0.00011741734 6.006569e-05 0.00053059834 3.7085476e-06
0.00025687268 0.0010953269 2.5142801e-05 0.0014315781 0.00037207647 1.8942983e-05 1.1191402e-05 6.328341e-05
0.00010337781 3.1337335e-05 2.96442e-06 0.00070734613 0.0005288988 0.00049117935 0.00028671554 0.00079912983
0.00018981093 0.0014001529
00000000: 951e d038 2926 ac39 e3b1 7b3a 6032 7436
00000010: 633f a63a 59e1 9339 7f90 d439 7f4b 3539
00000020: 43c3 843a 6e1c 8e37 5c9c cc39 ed89 be37
00000030: b632 523a 5bbd b538 96e5 f539 fc86 7937
00000040: 47cc 0c3a 9d42 4639 1a53 623a 6ca3 a637
00000050: a425 7138 b262 0037 bec9 c739 886c 553a
00000060: 1403 7339 1b3b 9f39 f49e 2133 e2c8 7b3a
00000070: f43d f638 0bef 7b38 da17 0b3a 5de0 7836
00000080: deac 8639 1291 8f3a c1e9 d237 caa3 bb3a
00000090: 4213 c339 bfe7 9e37 b5c2 3b37 06b7 8438
000000a0: 8acc d838 3570 0338 59f0 4636 326d 393a
000000b0: cca5 0a3a 7dc2 003a 4f52 9639 b27c 513a
000000c0: fc07 4739 5685 b73a

exp_avg f4 [50, 1]
0.017090099 -0.03535714 -0.06356142 0.0017182924 -0.07463362 0.030678863 0.038809445 0.02444957
-0.06508818 -0.0012309792 -0.03716123 -0.0057304134 -0.05638441 0.013810143 0.04159231 0.0048715295
-0.045540344 -0.024829142 -0.059526693 -0.005969232 -0.011672476 -0.00045452823 0.03718985 -0.057684507
-0.028513607 0.03414497 1.9682902e-05 -0.063798115 0.015938828 -0.009261881 0.04371217 3.2657146e-05
0.028234286 -0.069564775 0.0035487702 0.07936456 -0.035551745 -0.0058135516 -0.0039669774 0.011281679
0.017083287 -0.004169481 -0.00010862898 -0.054099903 0.04370847 -0.044526536 -0.033168633 -0.05587857
0.021910133 0.078554526
00000000: 8900 8c3c a6d2 10bd 7d2c 82bd 5338 e13a
00000010: 83d9 98bd 3d52 fb3c a7f6 1e3d 774a c83c
00000020: f44c 85bd cf58 a1ba 6036 18bd 31c6 bbbb
00000030: 57f3 66bd f043 623c b35c 2a3d 5aa1 9f3b
00000040: 8388 3abd 7c66 cbbc 43d2 73bd 8c99 c3bb
00000050: ea3d 3fbc bf4d eeb9 6254 183d 9746 6cbd
00000060: 5e95 e9bc 99db 0b3d b61c a537 96a8 82bd
00000070: 2592 823c 25bf 17bc 880b 333d 58f9 0838
00000080: 974b e73c fa77 8ebd 7c92 683b e389 a23d
00000090: b59e 11bd 9b7f bebb 6bfd 81bb cbd6 383c
000000a0: 40f2 8b3c 24a0 88bb bdcf e3b8 dc97 5dbd
000000b0: a707 333d 7561 36bd d5db 07bd ede0 64bd
000000c0: e17c b33c 32e1 a03d
