experiments/rotation/checkpoints/checkpoints_weight_decay_mse/checkpoint_dim-2_ntrain-17_weightdecay-0.1_seed-1683final.pkl (torch_old, 26267 bytes, 36 tensors)

ffs.0.0.weight f4 [50, 1]
000000 34 ef 8e 39 88 f0 8e 39 9b f0 8e 39 31 ef 8e 39
       0.0002726257 0.0002726356 0.00027263616 0.00027262562
000010 a4 f0 8e 39 a2 f0 8e 39 60 f2 8e 39 49 ef 8e 39
       0.00027263642 0.00027263636 0.00027264934 0.00027262632
000020 a0 ee 8e 39 78 f1 8e 39 c6 f0 8e 39 ec f0 8e 39
       0.0002726214 0.0002726426 0.0002726374 0.0002726385
000030 ca ee 8e 39 c6 f0 8e 39 82 f0 8e 39 7f f0 8e 39
       0.00027262262 0.0002726374 0.00027263543 0.00027263534
000040 71 ef 8e 39 00 f1 8e 39 9c f0 8e 39 66 f1 8e 39
       0.00027262748 0.0002726391 0.00027263619 0.00027264206
000050 98 ee 8e 39 d1 ed 8e 39 99 f0 8e 39 60 ef 8e 39
       0.00027262117 0.00027261538 0.0002726361 0.000272627
000060 a3 ef 8e 39 6c ef 8e 39 6b ef 8e 39 f5 ee 8e 39
       0.00027262894 0.00027262734 0.0002726273 0.00027262387
000070 32 ee 8e 39 78 ef 8e 39 d4 f0 8e 39 53 ef 8e 39
       0.0002726182 0.0002726277 0.00027263782 0.0002726266
000080 65 f0 8e 39 0e f0 8e 39 39 f1 8e 39 57 ef 8e 39
       0.00027263458 0.00027263205 0.00027264075 0.00027262673
000090 b8 f0 8e 39 9d f1 8e 39 ca f0 8e 39 fd ef 8e 39
       0.000272637 0.00027264367 0.00027263752 0.00027263156
0000a0 69 ef 8e 39 fe ef 8e 39 98 ee 8e 39 04 f0 8e 39
       0.00027262725 0.0002726316 0.00027262117 0.00027263176
0000b0 66 f0 8e 39 de ef 8e 39 6a ef 8e 39 99 ee 8e 39
       0.0002726346 0.00027263066 0.00027262728 0.0002726212
0000c0 51 f1 8e 39 4d ef 8e 39
       0.00027264145 0.00027262644

ffs.0.0.bias f4 [50]
000000 10 82 52 34 c9 b9 ce 33 92 b9 53 34 de 4d 53 34
       1.960509e-07 9.6264166e-08 1.9718416e-07 1.9679234e-07
000010 cc e8 6e 34 a4 dc 53 34 78 c4 79 b4 1a 8e 53 34
       2.2250168e-07 1.9731175e-07 -2.3261407e-07 1.9702603e-07
000020 46 32 52 34 3a 8e ee 34 72 da 53 34 3e f6 54 34
       1.9576063e-07 4.4434438e-07 1.9730376e-07 1.9833621e-07
000030 08 77 83 b4 1c da 53 34 44 80 53 34 76 81 53 34
       -2.4487258e-07 1.9730254e-07 1.9697569e-07 1.9698004e-07
000040 8a ac 53 34 12 c5 69 34 ec a5 53 34 e2 2f 5a 34
       1.9713676e-07 2.177151e-07 1.9711268e-07 2.0320252e-07
000050 f0 79 52 34 f0 aa 17 b3 a2 d7 53 34 2a 70 53 34
       1.9602135e-07 -3.5312894e-08 1.9729353e-07 1.9691711e-07
000060 5a 97 53 34 40 51 52 34 ce a4 53 34 66 44 52 34
       1.9705968e-07 1.9587333e-07 1.9710862e-07 1.9582657e-07
000070 24 0b 53 34 2c a3 53 34 52 8d 53 34 f0 c5 ee b2
       1.9654959e-07 1.9710268e-07 1.9702318e-07 -2.7796858e-08
000080 94 82 53 34 dd 6b c8 33 70 03 5c 34 d0 4d 53 34
       1.969841e-07 9.332846e-08 2.0490347e-07 1.9679214e-07
000090 be 2d 54 34 02 70 57 34 60 af 53 34 b0 42 4f b3
       1.976068e-07 2.0064184e-07 1.9714707e-07 -4.8256595e-08
0000a0 f0 b0 53 34 7f ab c5 33 b0 a5 52 34 c4 70 b2 33
       1.9715276e-07 9.204722e-08 1.9618051e-07 8.309283e-08
0000b0 6e 0e 73 34 1c 1c 85 34 60 b7 53 34 c0 46 52 34
       2.2636388e-07 2.4793633e-07 1.9717618e-07 1.9583513e-07
0000c0 56 af 91 b4 ba b8 53 34
       -2.7135928e-07 1.971811e-07

ffs.0.2.weight f4 [1, 50]
000000 db 6c 0c 3a 25 6d 0c 3a 22 6d 0c 3a 07 6c 0c 3a
       0.0005356797 0.000535684 0.0005356838 0.00053566735
000010 f0 6c 0c 3a 25 6d 0c 3a 8e 6e 0c 3a 30 6c 0c 3a
       0.0005356809 0.000535684 0.000535705 0.00053566974
000020 77 6c 0c 3a 70 6d 0c 3a 47 6d 0c 3a 6d 6d 0c 3a
       0.00053567387 0.00053568836 0.000535686 0.0005356882
000030 35 6b 0c 3a 47 6d 0c 3a 2c 6d 0c 3a 25 6d 0c 3a
       0.0005356551 0.000535686 0.0005356844 0.000535684
000040 3a 6c 0c 3a 2a 6d 0c 3a 27 6d 0c 3a a7 6d 0c 3a
       0.0005356703 0.0005356843 0.0005356841 0.00053569156
000050 74 6c 0c 3a 48 6a 0c 3a 23 6d 0c 3a 3a 6c 0c 3a
       0.0005356737 0.00053564133 0.0005356839 0.0005356703
000060 62 6c 0c 3a ee 6c 0c 3a 39 6c 0c 3a bc 6c 0c 3a
       0.00053567265 0.0005356808 0.00053567026 0.0005356779
000070 d1 6b 0c 3a 37 6c 0c 3a 5e 6d 0c 3a cd 6b 0c 3a
       0.0005356642 0.00053567014 0.0005356873 0.000535664
000080 0d 6d 0c 3a 3c 6c 0c 3a 0d 6e 0c 3a 55 6c 0c 3a
       0.0005356826 0.00053567044 0.0005356975 0.0005356719
000090 3a 6d 0c 3a 10 6e 0c 3a 48 6d 0c 3a a3 6c 0c 3a
       0.0005356852 0.0005356977 0.00053568603 0.00053567643
0000a0 39 6c 0c 3a 59 6c 0c 3a 5a 6c 0c 3a 72 6c 0c 3a
       0.00053567026 0.0005356721 0.0005356722 0.0005356736
0000b0 a0 6c 0c 3a 12 6c 0c 3a 3b 6c 0c 3a 73 6c 0c 3a
       0.00053567626 0.000535668 0.0005356704 0.00053567364
0000c0 68 6d 0c 3a 24 6c 0c 3a
       0.0005356879 0.00053566904

ffs.1.0.weight f4 [50, 1]
000000 6d 75 a9 bd 51 e9 df 3d 5d e9 df 3d 56 75 a9 bd
       -0.0827435 0.109331734 0.109331824 -0.08274333
000010 65 e9 df 3d 50 e9 df 3d 5b 75 a9 bd 5b 75 a9 bd
       0.10933188 0.10933173 -0.08274337 -0.08274337
000020 4e e9 df 3d 70 75 a9 bd 71 75 a9 bd 51 e9 df 3d
       0.10933171 -0.082743526 -0.08274353 0.109331734
000030 75 75 a9 bd 58 75 a9 bd 73 75 a9 bd 56 e9 df 3d
       -0.08274356 -0.08274335 -0.08274355 0.10933177
000040 7e 75 a9 bd 56 75 a9 bd 65 e9 df 3d 7f 75 a9 bd
       -0.08274363 -0.08274333 0.10933188 -0.08274364
000050 71 75 a9 bd 56 75 a9 bd 6b 75 a9 bd 7d 75 a9 bd
       -0.08274353 -0.08274333 -0.08274349 -0.08274362
000060 6c 75 a9 bd 60 e9 df 3d 77 75 a9 bd 6f 75 a9 bd
       -0.082743496 0.109331846 -0.08274358 -0.08274352
000070 70 75 a9 bd 5b e9 df 3d 6e e9 df 3d 6b 75 a9 bd
       -0.082743526 0.10933181 0.10933195 -0.08274349
000080 6c 75 a9 bd 71 75 a9 bd 57 75 a9 bd 56 75 a9 bd
       -0.082743496 -0.08274353 -0.08274334 -0.08274333
000090 5c e9 df 3d 59 75 a9 bd 73 75 a9 bd 72 75 a9 bd
       0.10933182 -0.082743354 -0.08274355 -0.08274354
0000a0 61 e9 df 3d 6a 75 a9 bd 52 e9 df 3d 6d 75 a9 bd
       0.10933185 -0.08274348 0.10933174 -0.0827435
0000b0 6f 75 a9 bd 6c 75 a9 bd 6d 75 a9 bd 5f e9 df 3d
       -0.08274352 -0.082743496 -0.0827435 0.10933184
0000c0 5c e9 df 3d 4e e9 df 3d
       0.10933182 0.10933171

ffs.1.0.bias f4 [50]
000000 84 47 dd b8 50 b3 6b 39 70 b2 6b 39 38 46 dd b8
       -0.00010551422 0.00022478146 0.0002247782 -0.000105511805
000010 bd b3 6b 39 00 b2 6b 39 05 46 dd b8 56 45 dd b8
       0.00022478304 0.00022477657 -0.00010551143 -0.00010551016
000020 d0 b1 6b 39 c8 47 dd b8 8e 47 dd b8 5b b2 6b 39
       0.00022477587 -0.000105514715 -0.00010551429 0.00022477789
000030 d3 47 dd b8 5a 47 dd b8 0b 48 dd b8 ee b1 6b 39
       -0.000105514795 -0.000105513915 -0.0001055152 0.0002247763
000040 89 46 dd b8 5a 47 dd b8 af b2 6b 39 5f 48 dd b8
       -0.000105512394 -0.000105513915 0.00022477911 -0.00010551581
000050 a1 47 dd b8 90 47 dd b8 35 46 dd b8 39 48 dd b8
       -0.00010551443 -0.00010551431 -0.00010551178 -0.00010551554
000060 be 46 dd b8 43 b2 6b 39 11 4a dd b8 86 47 dd b8
       -0.00010551278 0.00022477754 -0.00010551897 -0.000105514235
000070 fa 46 dd b8 3c b2 6b 39 af b2 6b 39 d7 46 dd b8
       -0.000105513216 0.00022477744 0.00022477911 -0.00010551296
000080 a1 46 dd b8 0a 48 dd b8 8a 47 dd b8 fa 45 dd b8
       -0.00010551257 -0.000105515195 -0.000105514264 -0.00010551135
000090 da b2 6b 39 14 47 dd b8 d9 46 dd b8 b6 48 dd b8
       0.00022477974 -0.000105513405 -0.000105512976 -0.00010551645
0000a0 53 b2 6b 39 80 46 dd b8 d5 b1 6b 39 6c 4a dd b8
       0.00022477777 -0.00010551233 0.00022477594 -0.00010551963
0000b0 af 48 dd b8 65 4a dd b8 85 47 dd b8 54 b2 6b 39
       -0.000105516396 -0.00010551958 -0.00010551423 0.00022477779
0000c0 6c b2 6b 39 ef b1 6b 39
       0.00022477814 0.00022477632

ffs.1.2.weight f4 [1, 50]
000000 1d 8b a9 3d ae a3 e1 bd b6 a3 e1 bd 02 8b a9 3d
       0.08278487 -0.110175475 -0.110175535 0.08278467
000010 c0 a3 e1 bd aa a3 e1 bd 0c 8b a9 3d 0c 8b a9 3d
       -0.11017561 -0.110175446 0.08278474 0.08278474
000020 a6 a3 e1 bd 1e 8b a9 3d 1f 8b a9 3d aa a3 e1 bd
       -0.110175416 0.082784876 0.08278488 -0.110175446
000030 26 8b a9 3d 09 8b a9 3d 24 8b a9 3d b0 a3 e1 bd
       0.082784936 0.08278472 0.08278492 -0.11017549
000040 32 8b a9 3d 0b 8b a9 3d bc a3 e1 bd 30 8b a9 3d
       0.082785025 0.082784735 -0.11017558 0.08278501
000050 23 8b a9 3d 04 8b a9 3d 1c 8b a9 3d 2e 8b a9 3d
       0.08278491 0.08278468 0.08278486 0.082784995
000060 1f 8b a9 3d bb a3 e1 bd 28 8b a9 3d 1e 8b a9 3d
       0.08278488 -0.11017557 0.08278495 0.082784876
000070 25 8b a9 3d b4 a3 e1 bd c8 a3 e1 bd 1e 8b a9 3d
       0.08278493 -0.11017552 -0.11017567 0.082784876
000080 1b 8b a9 3d 1e 8b a9 3d 0b 8b a9 3d 08 8b a9 3d
       0.082784854 0.082784876 0.082784735 0.08278471
000090 b4 a3 e1 bd 09 8b a9 3d 22 8b a9 3d 23 8b a9 3d
       -0.11017552 0.08278472 0.082784906 0.08278491
0000a0 bd a3 e1 bd 1e 8b a9 3d a9 a3 e1 bd 1d 8b a9 3d
       -0.11017559 0.082784876 -0.11017544 0.08278487
0000b0 21 8b a9 3d 1d 8b a9 3d 1f 8b a9 3d ba a3 e1 bd
       0.0827849 0.08278487 0.08278488 -0.110175565
0000c0 b6 a3 e1 bd a9 a3 e1 bd
       -0.110175535 -0.11017544

ffs.2.0.weight f4 [50, 1]
000000 af c9 e9 38 95 d6 e9 38 d5 cd e9 38 4f d1 e9 38
       0.00011147872 0.00011150275 0.00011148645 0.000111492925
000010 c3 ca e9 38 28 d2 e9 38 12 ce e9 38 99 d0 e9 38
       0.00011148073 0.000111494504 0.000111486894 0.0001114916
000020 67 cd e9 38 99 b8 e9 38 f9 d5 e9 38 84 ca e9 38
       0.00011148565 0.0001114469 0.00011150161 0.00011148027
000030 d2 d1 e9 38 38 0b e9 38 12 d0 e9 38 ce d6 e9 38
       0.00011149388 0.000111123954 0.00011149062 0.00011150316
000040 21 a5 e9 38 c4 d1 e9 38 3d 38 e9 38 0b 65 e9 38
       0.000111410634 0.00011149378 0.00011120781 0.000111291265
000050 cc cc e9 38 51 cc e9 38 e5 bb e9 38 1d cd e9 38
       0.00011148452 0.00011148363 0.00011145304 0.00011148511
000060 34 b8 e9 38 cd d4 e9 38 16 d2 e9 38 f5 d7 e9 38
       0.00011144616 0.00011149943 0.00011149437 0.00011150531
000070 89 cf e9 38 f7 0d e9 38 33 7c e9 38 a6 aa e9 38
       0.00011148962 0.00011112907 0.0001113344 0.000111420915
000080 55 d0 e9 38 79 b4 e9 38 bc cd e9 38 e0 cc e9 38
       0.00011149111 0.000111439214 0.00011148627 0.00011148467
000090 c4 ca e9 38 f7 d3 e9 38 99 69 e9 38 e3 73 e9 38
       0.00011148074 0.00011149787 0.00011129975 0.000111318914
0000a0 3e ce e9 38 e6 d5 e9 38 8f d1 e9 38 73 d0 e9 38
       0.000111487214 0.000111501475 0.00011149339 0.000111491325
0000b0 99 d5 e9 38 d4 cf e9 38 36 c1 e9 38 52 c0 e9 38
       0.000111500914 0.00011149017 0.00011146294 0.00011146128
0000c0 9d d2 e9 38 1c cf e9 38
       0.000111495356 0.00011148883

ffs.2.0.bias f4 [50]
000000 56 f5 98 35 60 f1 cf 35 5a 51 db b6 81 ce 92 36
       1.1396285e-06 1.5492951e-06 -6.536179e-06 4.3751793e-06
000010 be 31 2a b6 fc 39 7d 36 b1 db ad b5 20 d6 79 35
       -2.5360928e-06 3.773369e-06 -1.2953443e-06 9.307132e-07
000020 b2 bd 44 b6 64 f8 73 b4 ea 8c 8d b5 a0 fb 74 b5
       -2.9316693e-06 -2.2721503e-07 -1.054633e-06 -9.1263246e-07
000030 aa f5 01 b4 ec 03 27 36 66 58 55 b5 d4 77 3d b6
       -1.2103433e-07 2.4887222e-06 -7.947732e-07 -2.8232944e-06
000040 84 90 63 b5 45 59 20 36 98 29 9c 36 fc bf 3b 35
       -8.477439e-07 2.389382e-06 4.6540044e-06 6.99423e-07
000050 a0 be dc 35 cf 1b 31 b6 79 95 d7 b4 10 85 65 36
       1.6446756e-06 -2.6391242e-06 -4.0155626e-07 3.4201112e-06
000060 62 c0 cc 35 28 75 0f 36 ce 00 29 b6 f2 84 2c b4
       1.5255175e-06 2.1376854e-06 -2.518343e-06 -1.6067114e-07
000070 de cc 34 b6 c8 a1 bf 35 72 0d ca 35 f8 d1 dd 35
       -2.6941339e-06 1.4277693e-06 1.5054086e-06 1.6526892e-06
000080 7d d2 0f 35 60 41 0f 33 06 12 21 36 c6 4e 15 36
       5.357795e-07 3.335424e-08 2.400136e-06 2.2248582e-06
000090 78 0c 36 b5 c0 93 23 35 93 9c 06 b6 69 84 20 36
       -6.781843e-07 6.0937236e-07 -2.0058694e-06 2.391893e-06
0000a0 3c ec ab 35 1d a7 28 b5 5b ea 2f b5 5b 77 17 b4
       1.2809246e-06 -6.282806e-07 -6.553361e-07 -1.4106392e-07
0000b0 1a 81 22 b5 70 50 53 b5 62 d8 82 b6 74 05 2e b5
       -6.053757e-07 -7.872068e-07 -3.899492e-06 -6.4827987e-07
0000c0 ee 2e 15 36 90 90 4d b5
       2.2230047e-06 -7.657882e-07

ffs.2.2.weight f4 [1, 50]
000000 42 6d 6d 39 73 71 6d 39 1f 69 6d 39 27 6b 6d 39
       0.00022642783 0.00022644344 0.00022641242 0.00022641999
000010 bb 65 6d 39 27 6d 6d 39 7c 68 6d 39 ae 6a 6d 39
       0.00022639979 0.00022642744 0.00022641005 0.00022641823
000020 93 67 6d 39 8b 6b 6d 39 77 70 6d 39 e5 64 6d 39
       0.00022640666 0.00022642144 0.00022643978 0.00022639667
000030 7e 6b 6d 39 b6 66 6d 39 68 6a 6d 39 b6 70 6d 39
       0.00022642125 0.00022640344 0.0002264172 0.0002264407
000040 ad 66 6d 39 ee 69 6d 39 84 6d 6d 39 59 6a 6d 39
       0.00022640331 0.00022641543 0.00022642879 0.00022641699
000050 0f 66 6d 39 95 66 6d 39 1e 70 6d 39 f7 66 6d 39
       0.00022640101 0.00022640296 0.00022643848 0.00022640439
000060 d9 64 6d 39 0e 6f 6d 39 3c 6c 6d 39 32 73 6d 39
       0.0002263965 0.00022643452 0.00022642402 0.00022644995
000070 85 6a 6d 39 95 70 6d 39 be 66 6d 39 dd 70 6d 39
       0.00022641763 0.00022644021 0.00022640356 0.00022644126
000080 91 6d 6d 39 89 6c 6d 39 32 67 6d 39 82 6a 6d 39
       0.00022642898 0.00022642514 0.00022640525 0.00022641759
000090 b9 6a 6d 39 f6 6d 6d 39 a5 6e 6d 39 75 62 6d 39
       0.00022641839 0.00022643045 0.000226433 0.0002263876
0000a0 3a 6e 6d 39 6f 70 6d 39 fa 6c 6d 39 5a 6a 6d 39
       0.00022643144 0.00022643966 0.00022642678 0.000226417
0000b0 f7 6d 6d 39 14 6b 6d 39 61 67 6d 39 e4 6d 6d 39
       0.00022643046 0.00022641971 0.00022640593 0.00022643019
0000c0 95 6c 6d 39 59 69 6d 39
       0.00022642531 0.00022641326

ffs.3.0.weight f4 [50, 1]
000000 05 49 d2 39 1d 92 d2 39 a3 45 d2 39 8c 5e d2 39
       0.00040108725 0.00040163184 0.00040106205 0.00040124764
000010 d1 45 d2 39 a2 45 d2 39 12 45 d2 39 76 45 d2 39
       0.0004010634 0.00040106202 0.00040105783 0.00040106074
000020 de 46 d2 39 68 9d d2 39 74 45 d2 39 72 45 d2 39
       0.00040107121 0.00040171598 0.00040106068 0.00040106062
000030 72 45 d2 39 6b 45 d2 39 77 45 d2 39 b5 6f d2 39
       0.00040106062 0.00040106042 0.00040106077 0.0004013755
000040 8c 4b d2 39 6b 45 d2 39 5b 5b d2 39 8f 93 d2 39
       0.00040110608 0.00040106042 0.00040122386 0.0004016426
000050 86 45 d2 39 7c 45 d2 39 5d 45 d2 39 74 45 d2 39
       0.0004010612 0.0004010609 0.00040106 0.00040106068
000060 c1 45 d2 39 bd 45 d2 39 7a 45 d2 39 74 45 d2 39
       0.00040106292 0.0004010628 0.00040106085 0.00040106068
000070 8f 82 d2 39 e1 55 d2 39 7d 4c d2 39 b2 45 d2 39
       0.00040151595 0.00040118306 0.0004011131 0.00040106248
000080 b7 45 d2 39 71 45 d2 39 4f 45 d2 39 55 45 d2 39
       0.00040106263 0.0004010606 0.0004010596 0.00040105978
000090 b7 45 d2 39 49 45 d2 39 77 45 d2 39 a6 45 d2 39
       0.00040106263 0.00040105943 0.00040106077 0.00040106213
0000a0 6c 45 d2 39 89 52 d2 39 80 45 d2 39 4e 45 d2 39
       0.00040106045 0.00040115815 0.00040106103 0.00040105957
0000b0 84 45 d2 39 b5 45 d2 39 52 45 d2 39 79 45 d2 39
       0.00040106114 0.00040106257 0.0004010597 0.00040106082
0000c0 4f 53 d2 39 70 45 d2 39
       0.0004011639 0.00040106056

ffs.3.0.bias f4 [50]
000000 8c 24 16 37 e1 fe 15 37 be e7 09 37 7a 27 16 37
       8.949206e-06 8.940436e-06 8.219793e-06 8.949888e-06
000010 ed 74 14 37 16 b6 15 37 0c d4 04 37 c4 24 16 37
       8.848711e-06 8.923487e-06 7.917184e-06 8.949257e-06
000020 32 26 16 37 20 a0 10 37 ba 28 16 37 62 29 16 37
       8.94959e-06 8.620351e-06 8.950179e-06 8.950332e-06
000030 a0 ca 09 37 06 29 16 37 41 27 16 37 ef 29 16 37
       8.213014e-06 8.950248e-06 8.949836e-06 8.95046e-06
000040 15 3e 10 37 ae 28 16 37 4b 26 16 37 e2 ad 14 37
       8.597523e-06 8.950168e-06 8.9496125e-06 8.861973e-06
000050 b0 92 12 37 90 2a 16 37 9c 29 16 37 77 29 16 37
       8.7364315e-06 8.950607e-06 8.950385e-06 8.950351e-06
000060 52 8c 11 37 90 28 16 37 ef 27 16 37 80 24 16 37
       8.675344e-06 8.950141e-06 8.9499945e-06 8.949195e-06
000070 fa 29 16 37 0c 16 0a 37 2a 27 16 37 0a cc 14 37
       8.95047e-06 8.230574e-06 8.949815e-06 8.868994e-06
000080 1f c8 14 37 63 29 16 37 5c d8 15 37 a8 29 16 37
       8.868082e-06 8.950333e-06 8.931467e-06 8.950396e-06
000090 0e 74 14 37 98 2a 16 37 ea 27 16 37 2e 1f 16 37
       8.8485085e-06 8.950614e-06 8.94999e-06 8.947956e-06
0000a0 68 25 16 37 74 26 16 37 2e 27 16 37 48 26 16 37
       8.949406e-06 8.94965e-06 8.949819e-06 8.94961e-06
0000b0 4e 20 16 37 79 29 08 37 f4 0f 11 37 ae 27 16 37
       8.948218e-06 8.115888e-06 8.646388e-06 8.949935e-06
0000c0 74 26 16 37 0b d3 04 37
       8.94965e-06 7.91695e-06

ffs.3.2.weight f4 [1, 50]
000000 e0 b9 72 3b c8 b9 72 3b 0f ba 72 3b 5b ba 72 3b
       0.003703706 0.0037037004 0.003703717 0.0037037346
000010 41 ba 72 3b 18 ba 72 3b b7 b9 72 3b 02 ba 72 3b
       0.0037037286 0.003703719 0.0037036964 0.0037037139
000020 18 ba 72 3b 28 ba 72 3b d6 b9 72 3b df b9 72 3b
       0.003703719 0.0037037227 0.0037037036 0.0037037057
000030 d3 b9 72 3b fb b9 72 3b df b9 72 3b 3d ba 72 3b
       0.003703703 0.0037037123 0.0037037057 0.0037037276
000040 19 ba 72 3b fb b9 72 3b 11 ba 72 3b cf b9 72 3b
       0.0037037192 0.0037037123 0.0037037174 0.003703702
000050 06 ba 72 3b de b9 72 3b fa b9 72 3b f0 b9 72 3b
       0.0037037148 0.0037037055 0.003703712 0.0037037097
000060 3d ba 72 3b f3 b9 72 3b fd b9 72 3b fc b9 72 3b
       0.0037037276 0.0037037104 0.0037037127 0.0037037125
000070 0a ba 72 3b c5 b9 72 3b 1f ba 72 3b fa b9 72 3b
       0.0037037157 0.0037036997 0.0037037206 0.003703712
000080 f4 b9 72 3b e2 b9 72 3b f6 b9 72 3b fd b9 72 3b
       0.0037037106 0.0037037064 0.003703711 0.0037037127
000090 3c ba 72 3b fe b9 72 3b e0 b9 72 3b 06 ba 72 3b
       0.0037037274 0.003703713 0.003703706 0.0037037148
0000a0 fa b9 72 3b 12 ba 72 3b df b9 72 3b e0 b9 72 3b
       0.003703712 0.0037037176 0.0037037057 0.003703706
0000b0 f8 b9 72 3b 3b ba 72 3b 9d b9 72 3b dd b9 72 3b
       0.0037037116 0.0037037272 0.0037036904 0.0037037053
0000c0 0c ba 72 3b c4 b9 72 3b
       0.0037037162 0.0037036994

exp_avg_sq f4 [50]
000000 e6 c9 1b 2d 2d 35 57 2d 3c c8 1b 2d 10 c9 1b 2d
       8.85556e-12 1.22331425e-11 8.855191e-12 8.855375e-12
000010 19 4c 1b 2d 01 c8 1b 2d dc e1 12 2d 9c c8 1b 2d
       8.827627e-12 8.85514e-12 8.34929e-12 8.855274e-12
000020 c2 ca 1b 2d bd 08 16 2d 23 c8 1b 2d ec c0 1b 2d
       8.855751e-12 8.528453e-12 8.855169e-12 8.853567e-12
000030 3b d0 13 2d 23 c8 1b 2d a5 c8 1b 2d ae c8 1b 2d
       8.402219e-12 8.855169e-12 8.855282e-12 8.85529e-12
000040 5d c8 1b 2d 47 61 1b 2d 41 c8 1b 2d 8f a5 1b 2d
       8.8552195e-12 8.83233e-12 8.855195e-12 8.847491e-12
000050 2d ca 1b 2d 69 9c 14 2d 2c c8 1b 2d 62 c8 1b 2d
       8.855622e-12 8.447556e-12 8.855177e-12 8.855224e-12
000060 a4 c8 1b 2d 89 ca 1b 2d 61 c8 1b 2d 92 ca 1b 2d
       8.855281e-12 8.855702e-12 8.855223e-12 8.85571e-12
000070 51 c9 1b 2d 3f c8 1b 2d 35 c8 1b 2d df 39 17 2d
       8.855431e-12 8.8551935e-12 8.855185e-12 8.596206e-12
000080 9b c8 1b 2d 22 24 44 2d 07 29 1c 2d 0d c9 1b 2d
       8.855273e-12 1.1149333e-11 8.876683e-12 8.855372e-12
000090 d7 c4 1b 2d 2d b3 1b 2d 2a c8 1b 2d 21 f6 16 2d
       8.854437e-12 8.850515e-12 8.855175e-12 8.581164e-12
0000a0 70 c8 1b 2d 57 ff 40 2d a2 ca 1b 2d d8 00 27 2d
       8.855236e-12 1.0970633e-11 8.8557234e-12 9.493038e-12
0000b0 18 3b 1b 2d e1 c3 1a 2d 5d c8 1b 2d 21 ca 1b 2d
       8.823851e-12 8.79738e-12 8.8552195e-12 8.8556116e-12
0000c0 9a 1d 13 2d 7a c8 1b 2d
       8.3625554e-12 8.855245e-12

exp_avg f4 [50]
000000 49 6b 58 b0 86 27 c4 2e 4d 83 59 b0 48 36 59 b0
       -7.8732804e-10 8.920069e-11 -7.913073e-10 -7.902128e-10
000010 87 98 65 b0 35 d7 59 b0 23 88 14 31 7e 50 59 b0
       -8.352647e-10 -7.924997e-10 2.161422e-09 -7.9058526e-10
000020 ac 1c 58 b0 15 0e b8 b0 5f b1 59 b0 8a e9 59 b0
       -7.862109e-10 -1.3391764e-09 -7.91962e-10 -7.927602e-10
000030 0b 3e 31 31 9a b0 59 b0 29 5a 59 b0 20 6b 59 b0
       2.5792157e-09 -7.9195106e-10 -7.9072265e-10 -7.9096374e-10
000040 5e 74 59 b0 0f 3b 63 b0 85 61 59 b0 06 ef 5b b0
       -7.910951e-10 -8.2666046e-10 -7.9082724e-10 -8.001141e-10
000050 d5 57 58 b0 c7 d3 ea 30 77 ab 59 b0 88 51 59 b0
       -7.870516e-10 1.7085932e-09 -7.9187806e-10 -7.9060003e-10
000060 47 7d 59 b0 99 3e 58 b0 99 8d 59 b0 b5 32 58 b0
       -7.912217e-10 -7.86693e-10 -7.914536e-10 -7.86524e-10
000070 92 f7 58 b0 83 79 59 b0 4e 41 59 b0 25 92 94 30
       -7.893216e-10 -7.911682e-10 -7.9036944e-10 1.0809954e-09
000080 c1 50 59 b0 86 a2 00 2f c5 b4 72 b0 fc 1b 59 b0
       -7.90589e-10 1.1699272e-10 -8.8295976e-10 -7.898391e-10
000090 fc 98 59 b0 f9 cc 5a b0 32 6b 59 b0 09 c8 9d 30
       -7.9161544e-10 -7.959922e-10 -7.9096474e-10 1.1480107e-09
0000a0 3c 9e 59 b0 5d 83 03 2f 7d b8 58 b0 02 27 4d 2f
       -7.9169005e-10 1.196105e-10 -7.8842516e-10 1.86585e-10
0000b0 6d 3e 67 b0 28 64 68 b0 fc 86 59 b0 93 23 58 b0
       -8.4126023e-10 -8.454344e-10 -7.9135964e-10 -7.8630896e-10
0000c0 75 39 27 31 8f 93 59 b0
       2.433436e-09 -7.9153833e-10

exp_avg_sq f4 [50, 1]
000000 e7 be 05 2f c4 f7 dd 2f 9a 10 df 2f 41 59 05 2f
       1.2164102e-10 4.0375714e-10 4.057526e-10 1.2127989e-10
000010 87 dc dd 2f c4 bd dd 2f 0a 99 04 2f d2 8d 04 2f
       4.035636e-10 4.0334502e-10 1.20597e-10 1.2055715e-10
000020 4b 30 de 2f c0 c4 02 2f 53 0e 03 2f 10 1f de 2f
       4.041588e-10 1.1893331e-10 1.191947e-10 4.0403636e-10
000030 d9 04 04 2f 64 c6 02 2f ed e8 02 2f 83 39 df 2f
       1.2007052e-10 1.1893914e-10 1.1906183e-10 4.0604328e-10
000040 9e a0 03 2f 95 c5 02 2f 4a cb dd 2f 51 c1 02 2f
       1.1971443e-10 1.1893626e-10 4.034411e-10 1.1892111e-10
000050 53 c2 02 2f 9f ed 02 2f 1a c2 02 2f 91 10 03 2f
       1.1892469e-10 1.1907851e-10 1.189239e-10 1.1920266e-10
000060 d4 e0 02 2f 74 e4 de 2f fc c1 02 2f 0e c6 02 2f
       1.1903306e-10 4.054389e-10 1.1892348e-10 1.1893794e-10
000070 31 2a 03 2f b4 95 df 2f df 64 e0 2f 64 d6 02 2f
       1.192937e-10 4.0669834e-10 4.0817036e-10 1.1899598e-10
000080 a0 c6 02 2f 10 c1 02 2f df d7 02 2f 3e c2 02 2f
       1.1893997e-10 1.1892021e-10 1.1900124e-10 1.189244e-10
000090 dc f4 df 2f b7 c1 02 2f f1 f8 02 2f e2 ce 02 2f
       4.0737447e-10 1.1892252e-10 1.1911873e-10 1.189693e-10
0000a0 6b e2 df 2f bc 0e 04 2f c3 f1 de 2f f1 12 03 2f
       4.0724343e-10 1.2010565e-10 4.0553347e-10 1.192111e-10
0000b0 ab 75 03 2f e5 01 03 2f cc bf 02 2f 45 fe de 2f
       1.1956185e-10 1.1915054e-10 1.1891571e-10 4.0562234e-10
0000c0 45 71 e0 2f 6b c1 dd 2f
       4.0825845e-10 4.0337098e-10

exp_avg f4 [50, 1]
000000 1d a4 4e 31 e5 83 b3 b1 88 88 ce b1 0f a2 51 31
       3.0070233e-09 -5.2245803e-09 -6.010911e-09 3.0505622e-09
000010 97 3a b4 b1 3c 26 bf b1 8f bb 40 31 95 e8 47 31
       -5.2453504e-09 -5.5631784e-09 2.8046292e-09 2.9090519e-09
000020 05 55 c0 b1 e1 b4 4d 31 c4 04 48 31 4b 73 bc b1
       -5.597601e-09 2.9934244e-09 2.910654e-09 -5.4846274e-09
000030 70 ae 45 31 ac 12 49 31 73 e8 40 31 5c 20 bb b1
       2.876643e-09 2.9259963e-09 2.807181e-09 -5.446095e-09
000040 7e 21 45 31 8c 6e 44 31 e8 b0 bd b1 64 e1 4c 31
       2.868631e-09 2.8584592e-09 -5.520736e-09 2.9814027e-09
000050 7e 57 4d 31 29 bd 52 31 71 f8 42 31 fe 62 42 31
       2.988116e-09 3.0666547e-09 2.8371938e-09 2.8286986e-09
000060 14 4b 49 31 dd 94 b4 b1 63 42 40 31 fd fa 4e 31
       2.9292027e-09 -5.2556133e-09 2.7977414e-09 3.0119616e-09
000070 85 26 3b 31 ee 0d c6 b1 7a 46 c4 b1 14 75 3f 31
       2.7233977e-09 -5.764142e-09 -5.712363e-09 2.786071e-09
000080 75 25 54 31 03 cf 51 31 44 1e 3d 31 48 ed 4a 31
       3.0871352e-09 3.0531175e-09 2.7520324e-09 2.9529748e-09
000090 c2 c0 ba b1 12 00 48 31 86 3f 5b 31 51 ed 50 31
       -5.4352265e-09 2.910387e-09 3.1904803e-09 3.0402882e-09
0000a0 36 cf b1 b1 50 f0 3e 31 d7 12 c9 b1 3a ff 4c 31
       -5.174935e-09 2.778524e-09 -5.8520118e-09 2.9830987e-09
0000b0 97 5d 4c 31 d2 8f 48 31 f1 72 4a 31 4a e8 ba b1
       2.9739107e-09 2.9185583e-09 2.9460205e-09 -5.4397207e-09
0000c0 0f dc cc b1 08 b8 c2 b1
       -5.962199e-09 -5.667065e-09

exp_avg_sq f4 [1, 50]
000000 cc 37 7d 33 d3 76 7e 33 a6 75 7e 33 37 dd 7d 33
       5.89569e-08 5.9247053e-08 5.9245984e-08 5.9107347e-08
000010 20 75 7e 33 eb 7a 7e 33 91 5d 7e 33 bb 0b 7e 33
       5.9245508e-08 5.9250777e-08 5.922408e-08 5.9149652e-08
000020 30 4c 7d 33 5b 7b 7e 33 68 7a 7e 33 8e 79 7e 33
       5.8975445e-08 5.9251175e-08 5.925031e-08 5.9249537e-08
000030 80 52 7e 33 d0 7a 7e 33 87 fa 7d 33 f5 fe 7d 33
       5.9214017e-08 5.925068e-08 5.9134006e-08 5.9138035e-08
000040 e2 53 7e 33 8e 78 7e 33 39 73 7e 33 96 5e 7e 33
       5.9215274e-08 5.9248627e-08 5.9243778e-08 5.922501e-08
000050 fc 4f 7d 33 ef ce 7d 33 db 76 7e 33 9c 62 7e 33
       5.8978898e-08 5.9094358e-08 5.9247082e-08 5.9228668e-08
000060 55 f6 7d 33 f4 38 7d 33 44 62 7e 33 69 46 7d 33
       5.913019e-08 5.895795e-08 5.9228356e-08 5.897019e-08
000070 35 90 7d 33 f2 7a 7e 33 21 6a 7e 33 05 32 7e 33
       5.903731e-08 5.92508e-08 5.9235507e-08 5.9184476e-08
000080 31 12 7e 33 02 37 7e 33 16 a4 7d 33 60 ca 7d 33
       5.915553e-08 5.9189013e-08 5.9055388e-08 5.9090212e-08
000090 49 5c 7e 33 09 7b 7e 33 9f 78 7e 33 58 36 7e 33
       5.9222916e-08 5.9250883e-08 5.9248688e-08 5.918841e-08
0000a0 38 3e 7e 33 02 78 7e 33 38 27 7d 33 35 34 7e 33
       5.919557e-08 5.924813e-08 5.8941822e-08 5.9186466e-08
0000b0 42 61 7e 33 6b 65 7e 33 5c 49 7e 33 21 50 7d 33
       5.922744e-08 5.9231223e-08 5.9205703e-08 5.897903e-08
0000c0 aa 6a 7e 33 62 2a 7e 33
       5.9235994e-08 5.917753e-08

exp_avg f4 [1, 50]
000000 1d 69 87 33 d8 39 8a 33 ed 32 88 33 b2 c5 87 33
       6.3055474e-08 6.4366475e-08 6.342257e-08 6.322388e-08
000010 b1 ac 88 33 9a 1b 88 33 d3 0c 88 33 1d 1c 89 33
       6.364406e-08 6.338014e-08 6.335326e-08 6.3846734e-08
000020 e6 95 87 33 64 86 86 33 fb ad 87 33 b4 77 88 33
       6.313694e-08 6.264307e-08 6.318074e-08 6.3547674e-08
000030 fb 5c 8a 33 fb ad 87 33 01 2d 88 33 a2 19 88 33
       6.443039e-08 6.318074e-08 6.34118e-08 6.337656e-08
000040 a0 4a 89 33 25 aa 89 33 ba 34 88 33 6a 14 89 33
       6.393134e-08 6.410509e-08 6.3425844e-08 6.383273e-08
000050 70 81 87 33 c7 37 8b 33 7d 34 88 33 b5 46 89 33
       6.309972e-08 6.482838e-08 6.342541e-08 6.392421e-08
000060 17 0c 88 33 58 8a 86 33 ef 46 89 33 fa 33 87 33
       6.3351926e-08 6.265026e-08 6.3924624e-08 6.295882e-08
000070 52 1a 87 33 21 42 89 33 0e b3 87 33 79 70 87 33
       6.291215e-08 6.3915884e-08 6.318997e-08 6.306886e-08
000080 c4 25 88 33 b3 62 89 33 c1 55 86 33 06 fe 87 33
       6.339863e-08 6.397513e-08 6.25546e-08 6.332634e-08
000090 77 71 88 33 47 e5 89 33 36 b5 87 33 9e bd 87 33
       6.3536326e-08 6.421265e-08 6.3193895e-08 6.3209185e-08
0000a0 ee 47 89 33 ad 85 88 33 33 d1 87 33 80 49 8a 33
       6.3926436e-08 6.357309e-08 6.3244805e-08 6.439495e-08
0000b0 04 ad 88 33 40 de 86 33 bd 47 89 33 d8 83 87 33
       6.364465e-08 6.280288e-08 6.392609e-08 6.3104096e-08
0000c0 be 13 87 33 9d 29 89 33
       6.2900185e-08 6.387129e-08

exp_avg_sq f4 [50]
000000 d4 4b 2e 2d 3c 7d 2e 2d bd 7e 47 2d a8 4b 2e 2d
       9.907592e-12 9.9185625e-12 1.1339982e-11 9.907554e-12
000010 58 96 2f 2d 65 be 2e 2d 59 ef 54 2d ce 53 2e 2d
       9.980981e-12 9.933031e-12 1.2103951e-11 9.909363e-12
000020 7a 4b 2e 2d d7 17 33 2d 8a 4b 2e 2d 93 4b 2e 2d
       9.907514e-12 1.01802655e-11 9.907528e-12 9.907536e-12
000030 08 f2 42 2d 95 4b 2e 2d 88 4b 2e 2d a2 4b 2e 2d
       1.1081365e-11 9.9075375e-12 9.907526e-12 9.907549e-12
000040 01 87 39 2d 94 4b 2e 2d a1 4b 2e 2d dc 74 2f 2d
       1.0546009e-11 9.907537e-12 9.907548e-12 9.973546e-12
000050 a2 c6 30 2d 97 4b 2e 2d 96 4b 2e 2d 90 4b 2e 2d
       1.0048547e-11 9.907539e-12 9.907538e-12 9.907533e-12
000060 45 97 31 2d b2 4b 2e 2d 93 4b 2e 2d 93 4b 2e 2d
       1.0094874e-11 9.907563e-12 9.907536e-12 9.907536e-12
000070 c9 4b 2e 2d a9 c7 45 2d 99 4b 2e 2d 22 61 2f 2d
       9.907583e-12 1.1242487e-11 9.907541e-12 9.969166e-12
000080 71 63 2f 2d 92 4b 2e 2d cb a1 2e 2d 6f 4c 2e 2d
       9.969679e-12 9.907535e-12 9.92668e-12 9.9077265e-12
000090 d5 96 2f 2d 97 4b 2e 2d 92 4b 2e 2d 59 56 2e 2d
       9.98109e-12 9.907539e-12 9.907535e-12 9.909928e-12
0000a0 9b 4b 2e 2d 92 4b 2e 2d 97 4b 2e 2d 99 4b 2e 2d
       9.907543e-12 9.907535e-12 9.907539e-12 9.907541e-12
0000b0 42 51 2e 2d 32 32 4b 2d 39 de 35 2d 9a 4b 2e 2d
       9.908798e-12 1.155036e-11 1.0338002e-11 9.907542e-12
0000c0 a4 4b 2e 2d ba 46 5a 2d
       9.9075505e-12 1.240757e-11

exp_avg f4 [50]
000000 52 7d 62 b2 df 80 62 b2 b8 c0 1e b2 41 83 62 b2
       -1.3183426e-08 -1.3184233e-08 -9.24063e-09 -1.3184775e-08
000010 89 8b 5c b2 ae db 61 b2 8c 54 01 b2 86 9e 62 b2
       -1.2837412e-08 -1.3146673e-08 -7.528012e-09 -1.3190975e-08
000020 e2 81 62 b2 74 ae 41 b2 3e 8b 62 b2 5f 8d 62 b2
       -1.3184463e-08 -1.1273745e-08 -1.3186591e-08 -1.3187075e-08
000030 93 95 1b b2 53 92 62 b2 43 7f 62 b2 9e 8f 62 b2
       -9.056197e-09 -1.3188202e-08 -1.3183867e-08 -1.3187586e-08
000040 78 ce 43 b2 a3 90 62 b2 52 8a 62 b2 bb a7 5d b2
       -1.1397439e-08 -1.3187818e-08 -1.3186382e-08 -1.29020306e-08
000050 57 a0 51 b2 38 9d 62 b2 ec 92 62 b2 2d 8c 62 b2
       -1.2201858e-08 -1.3190679e-08 -1.31883375e-08 -1.3186804e-08
000060 02 74 4a b2 90 8e 62 b2 cb 8b 62 b2 d9 6d 62 b2
       -1.1784325e-08 -1.3187346e-08 -1.3186717e-08 -1.3179908e-08
000070 19 92 62 b2 0e d3 1d b2 bc 89 62 b2 53 36 5e b2
       -1.318815e-08 -9.186591e-09 -1.31862485e-08 -1.2934453e-08
000080 db 17 5e b2 1b 93 62 b2 42 37 62 b2 76 9a 62 b2
       -1.2927525e-08 -1.3188379e-08 -1.31674955e-08 -1.3190052e-08
000090 ae 85 5c b2 30 98 62 b2 02 88 62 b2 7b 8b 62 b2
       -1.2836081e-08 -1.3189535e-08 -1.3185856e-08 -1.31866456e-08
0000a0 67 79 62 b2 b8 84 62 b2 df 81 62 b2 4d 80 62 b2
       -1.3182535e-08 -1.3185108e-08 -1.3184461e-08 -1.3184104e-08
0000b0 aa 7f 62 b2 8e 32 19 b2 b8 9a 41 b2 16 88 62 b2
       -1.3183959e-08 -8.917267e-09 -1.12692575e-08 -1.3185874e-08
0000c0 56 8a 62 b2 0d 6b 03 b2
       -1.3186385e-08 -7.649544e-09

exp_avg_sq f4 [50]
000000 1f c6 23 2f 22 30 82 2f 73 cf 80 2f 6a 03 25 2f
       1.489515e-10 2.3681063e-10 2.3430466e-10 1.5007875e-10
000010 37 0a 7f 2f 0a 7b 7f 2f 4e 63 23 2f 8a ba 24 2f
       2.3195744e-10 2.3235827e-10 1.4860044e-10 1.4981985e-10
000020 5c a9 7f 2f e4 54 23 2f ca 53 23 2f 95 2e 82 2f
       2.3252283e-10 1.4854923e-10 1.4854531e-10 2.367996e-10
000030 77 6f 23 2f 2a 54 23 2f 10 69 24 2f 75 2d 7f 2f
       1.4864364e-10 1.4854665e-10 1.4953039e-10 2.3208264e-10
000040 28 4d 28 2f 46 54 23 2f 3e be 81 2f 8b 9f 27 2f
       1.5306922e-10 1.4854704e-10 2.3600139e-10 1.5245243e-10
000050 ca 55 23 2f 70 56 23 2f 70 56 23 2f 3f e0 24 2f
       1.4855242e-10 1.4855472e-10 1.4855472e-10 1.4995381e-10
000060 fa 55 23 2f 02 2b 80 2f 98 5e 23 2f 76 e4 23 2f
       1.4855309e-10 2.3313623e-10 1.485837e-10 1.4905929e-10
000070 a9 53 23 2f ce 89 80 2f 39 fc 7e 2f 8c c9 26 2f
       1.4854486e-10 2.338098e-10 2.3190773e-10 1.5169216e-10
000080 c2 5b 23 2f 05 17 25 2f 35 54 23 2f 3a 54 23 2f
       1.4857363e-10 1.5014841e-10 1.485468e-10 1.4854687e-10
000090 e8 85 80 2f 0f b0 23 2f 56 54 23 2f 19 1b 24 2f
       2.337821e-10 1.4887312e-10 1.4854726e-10 1.492534e-10
0000a0 99 d3 80 2f cd 56 23 2f 98 30 7f 2f e1 ae 23 2f
       2.3433414e-10 1.4855601e-10 2.3209379e-10 1.4886893e-10
0000b0 98 82 25 2f 8b 65 23 2f 07 14 28 2f dc 39 80 2f
       1.5053059e-10 1.4860839e-10 1.5286626e-10 2.3324176e-10
0000c0 2b f8 7e 2f e3 fa 7e 2f
       2.3189332e-10 2.3190298e-10

exp_avg f4 [50]
000000 f3 60 5f b1 7c f3 8b 31 64 54 8f 31 34 b6 5f b1
       -3.250588e-09 4.0731134e-09 4.171442e-09 -3.2554341e-09
000010 81 bc 8a 31 a2 31 8d 31 b6 6f 62 b1 a0 be 62 b1
       4.037759e-09 4.1092827e-09 -3.2950829e-09 -3.2995686e-09
000020 64 53 8c 31 24 f0 61 b1 27 ed 5f b1 5f 5a 8c 31
       4.0840167e-09 -3.2878313e-09 -3.2585576e-09 4.0848103e-09
000030 d7 12 5e b1 81 aa 5e b1 30 13 61 b1 42 7e 8e 31
       -3.231596e-09 -3.2402172e-09 -3.2752716e-09 4.1470978e-09
000040 9a ea 5f b1 8e dc 60 b1 91 87 8a 31 1b c7 5c b1
       -3.2584127e-09 -3.272166e-09 4.0317407e-09 -3.2127392e-09
000050 e8 cd 5d b1 87 24 5f b1 bd f5 62 b1 54 fb 5d b1
       -3.2276777e-09 -3.2471534e-09 -3.3027014e-09 -3.2302596e-09
000060 cb c3 62 b1 e2 18 8d 31 53 7b 5b b1 77 71 5f b1
       -3.2998624e-09 4.106469e-09 -3.1938796e-09 -3.2515268e-09
000070 2c 4c 61 b1 b3 69 8d 31 f1 53 8d 31 9f 5e 60 b1
       -3.2785108e-09 4.1156567e-09 4.113183e-09 -3.2650076e-09
000080 5e 8f 60 b1 fa 38 61 b1 76 f7 5f b1 b1 9a 62 b1
       -3.2677785e-09 -3.2774197e-09 -3.2591436e-09 -3.297526e-09
000090 23 cd 8d 31 b9 6d 60 b1 b4 18 60 b1 63 1a 5e b1
       4.1269614e-09 -3.265866e-09 -3.2610332e-09 -3.232025e-09
0000a0 d3 ab 8a 31 2f e2 61 b1 d5 b6 8d 31 47 08 5e b1
       4.0358628e-09 -3.287038e-09 4.1244257e-09 -3.2309957e-09
0000b0 58 94 5d b1 c4 88 5d b1 56 43 5f b1 ac dd 8c 31
       -3.2244056e-09 -3.2237475e-09 -3.2489047e-09 4.0997374e-09
0000c0 98 08 90 31 7d 2f 8d 31
       4.1919286e-09 4.109039e-09

exp_avg_sq f4 [50, 1]
000000 07 d9 b3 2d 32 4d a4 2d df 4c a4 2d 74 02 a6 2d
       2.0446323e-11 1.8678923e-11 1.8678779e-11 1.8873104e-11
000010 10 4d a4 2d 1e 4b a4 2d 7a 58 a4 2d 63 f8 a4 2d
       1.8678864e-11 1.8678e-11 1.8683933e-11 1.8754947e-11
000020 66 b9 b0 2d 86 4b a4 2d 45 4b a4 2d 8c 4b a4 2d
       2.0091217e-11 1.867818e-11 1.8678068e-11 1.8678191e-11
000030 92 60 a4 2d 25 4b a4 2d b1 46 a5 2d 6c 30 a5 2d
       1.8687527e-11 1.8678012e-11 1.8789722e-11 1.8779832e-11
000040 a6 5e a4 2d 09 4c a4 2d c9 4d a4 2d 19 57 a4 2d
       1.8686674e-11 1.8678408e-11 1.8679185e-11 1.868332e-11
000050 50 33 b0 2d 2c 7f a6 2d 73 4c a4 2d ee 54 a4 2d
       2.003167e-11 1.892849e-11 1.8678592e-11 1.8682358e-11
000060 3b 5d a5 2d 89 9f b3 2d 1d 55 a4 2d a9 8a b1 2d
       1.8799731e-11 2.0420792e-11 1.868244e-11 2.0184148e-11
000070 1b cb a9 2d 21 4b a4 2d 55 51 a4 2d 0f 8b a4 2d
       1.9303273e-11 1.8678005e-11 1.868076e-11 1.8706396e-11
000080 62 e0 a4 2d 42 83 a4 2d 8f 80 a8 2d 27 a8 a6 2d
       1.8744287e-11 1.8702932e-11 1.915648e-11 1.894669e-11
000090 87 58 a4 2d 18 4b a4 2d e1 4b a4 2d 5d 83 a4 2d
       1.8683955e-11 1.867799e-11 1.8678338e-11 1.8702978e-11
0000a0 e5 76 a4 2d d1 4c a4 2d 40 c3 b6 2d 16 88 a4 2d
       1.8697441e-11 1.8678755e-11 2.0777713e-11 1.8705076e-11
0000b0 94 55 a4 2d 5d 53 a4 2d a9 68 a4 2d b3 2f b0 2d
       1.8682646e-11 1.8681662e-11 1.869112e-11 2.0030066e-11
0000c0 b6 51 a4 2d cb 9a a4 2d
       1.8680928e-11 1.8713383e-11

exp_avg f4 [50, 1]
000000 49 da 87 b0 74 71 99 b0 89 9d 9c b0 ac e9 99 b0
       -9.884583e-10 -1.116446e-09 -1.1395268e-09 -1.1198629e-09
000010 9d 0a 9d b0 4a 7e 9c b0 5d bd 9e b0 5f b6 99 b0
       -1.142627e-09 -1.1386387e-09 -1.1549833e-09 -1.1184048e-09
000020 7f 1d 89 b0 b5 03 a0 b0 7e f0 9c b0 d1 ad 9c b0
       -9.976445e-10 -1.1642586e-09 -1.1418846e-09 -1.1399895e-09
000030 f2 f9 9c b0 54 fd 9c b0 a3 e4 9a b0 86 05 9b b0
       -1.1421533e-09 -1.1422494e-09 -1.1269957e-09 -1.1279304e-09
000040 18 fa 9a b0 15 15 9d b0 31 5d 9c b0 f1 4f 9d b0
       -1.1276056e-09 -1.1429245e-09 -1.137698e-09 -1.1445974e-09
000050 a9 b5 89 b0 35 5f 99 b0 70 8b 9c b0 e6 9c 9a b0
       -1.0019693e-09 -1.1159275e-09 -1.1390124e-09 -1.1249568e-09
000060 ec dc 9a b0 5e 93 89 b0 3e d0 9a b0 9a 09 89 b0
       -1.1267764e-09 -1.0009946e-09 -1.1264161e-09 -9.970791e-10
000070 fc d9 92 b0 4a 40 9b b0 99 9d 9c b0 30 d3 9c b0
       -1.0684853e-09 -1.1296006e-09 -1.1395286e-09 -1.1410517e-09
000080 47 55 9b b0 d7 11 9c b0 70 58 9a b0 da 92 98 b0
       -1.1301972e-09 -1.1355564e-09 -1.123011e-09 -1.1101193e-09
000090 17 84 9c b0 e3 a2 9b b0 39 00 9d b0 b7 3c 9a b0
       -1.1388036e-09 -1.132403e-09 -1.1423317e-09 -1.1222231e-09
0000a0 a2 8b 9a b0 78 15 9c b0 0d 3d 85 b0 ec 75 9a b0
       -1.1244661e-09 -1.1356596e-09 -9.694375e-10 -1.123849e-09
0000b0 a4 8b 9d b0 3c 99 9e b0 6f ce 9a b0 b3 9b 89 b0
       -1.1462942e-09 -1.1539565e-09 -1.1263647e-09 -1.0012314e-09
0000c0 89 6f a1 b0 8f 4b 9a b0
       -1.1745992e-09 -1.122645e-09

exp_avg_sq f4 [50]
000000 ee 41 01 2d d2 30 06 2d 87 df 09 2d f5 5f 04 2d
       7.34744e-12 7.627858e-12 7.837181e-12 7.524638e-12
000010 2b 90 07 2d 0a 94 05 2d ca 78 07 2d e2 da fc 2c
       7.705873e-12 7.593046e-12 7.700682e-12 7.1865717e-12
000020 90 d6 08 2d 7c 6a 1f 2d 77 8c 0a 2d 98 60 fb 2c
       7.778347e-12 9.061748e-12 7.875581e-12 7.144573e-12
000030 6c fd 2e 2d a5 45 ff 2c a3 99 07 2d 71 1f 08 2d
       9.947026e-12 7.255268e-12 7.707976e-12 7.737686e-12
000040 f7 25 fc 2c e6 1e ff 2c 00 3e 05 2d f5 36 0c 2d
       7.1664857e-12 7.2509663e-12 7.5739415e-12 7.9702816e-12
000050 90 2f 0d 2d ba bd 08 2d ac 67 13 2d 0b ec 04 2d
       8.025483e-12 7.772833e-12 8.379002e-12 7.555743e-12
000060 ea 2a 0d 2d b5 c5 0c 2d 58 3c 0a 2d f6 9b 0c 2d
       8.024451e-12 8.001978e-12 7.857791e-12 7.992709e-12
000070 3d 57 09 2d 48 32 00 2d e9 86 0c 2d 53 f4 06 2d
       7.806919e-12 7.287122e-12 7.988035e-12 7.671269e-12
000080 6c 54 ff 2c d9 21 01 2d 88 64 fe 2c c9 78 ff 2c
       7.2569086e-12 7.340317e-12 7.2302754e-12 7.2609458e-12
000090 9b a7 fb 2c 10 27 06 2d 21 f3 06 2d a5 29 03 2d
       7.152457e-12 7.625692e-12 7.671004e-12 7.455735e-12
0000a0 b5 16 fd 2c 85 a0 01 2d 2d 72 01 2d ca c3 0c 2d
       7.1932135e-12 7.3684435e-12 7.358153e-12 8.0015525e-12
0000b0 d5 4d 10 2d 76 87 fb 2c 66 4e 09 2d 08 4c 0f 2d
       8.2027345e-12 7.1488883e-12 7.804956e-12 8.145491e-12
0000c0 0c 77 ff 2c ec 40 fc 2c
       7.2607528e-12 7.1694786e-12

exp_avg f4 [50]
000000 22 d7 03 b2 a5 13 86 b2 af 7e 0c 33 f8 42 e6 b2
       -7.674119e-09 -1.5608586e-08 3.2711508e-08 -2.6805978e-08
000010 5b 6a 03 32 20 63 e0 b2 60 a1 9f 30 dd 29 68 b1
       7.649386e-09 -2.6122109e-08 1.1614638e-09 -3.378424e-09
000020 f6 34 80 32 cd d5 c2 30 88 49 06 32 a1 87 c6 31
       1.4925245e-08 1.4176124e-09 7.816546e-09 5.7779777e-09
000030 8c 73 70 30 1b c5 54 b2 02 d2 a1 b1 09 25 ea 31
       8.7475693e-10 -1.2384841e-08 -4.709592e-09 6.8145067e-09
000040 0c e1 c3 31 63 27 49 b2 98 a1 fc b2 16 49 b0 b1
       5.700832e-09 -1.1708695e-08 -2.9410145e-08 -5.130583e-09
000050 57 89 37 b2 09 d0 68 32 28 41 21 31 cd 01 c9 b2
       -1.0683229e-08 1.3551479e-08 2.346562e-09 -2.3400299e-08
000060 ec e2 2e b2 77 cc 15 b2 84 24 82 32 65 94 19 2f
       -1.0179729e-08 -8.719431e-09 1.5150597e-08 1.3967989e-10
000070 00 69 54 32 4a 30 19 b2 64 8b 81 b1 86 b1 93 b2
       1.2363898e-08 -8.916752e-09 -3.770241e-09 -1.719378e-08
000080 d3 0f 4d b1 a1 e5 b5 30 3f 26 54 b2 3d ca 57 b2
       -2.9840421e-09 1.3234748e-09 -1.234872e-08 -1.2560631e-08
000090 36 13 a4 31 99 e2 1d b2 25 44 b9 31 61 f0 33 b2
       4.7752122e-09 -9.190125e-09 5.3919558e-09 -1.0473827e-08
0000a0 95 0c b7 b1 43 ac 83 31 2b d1 72 31 61 87 8e 2f
       -5.3274314e-09 3.8321857e-09 3.5334533e-09 2.5925842e-10
0000b0 9d a1 6a 31 fd 99 b4 31 47 97 a3 32 1b cf 73 31
       3.4143348e-09 5.256196e-09 1.904449e-08 3.547888e-09
0000c0 27 c8 57 b2 28 ac b7 31
       -1.25601565e-08 5.345573e-09

exp_avg_sq f4 [50, 1]
000000 83 16 58 2d 30 6f 78 2d ca b7 56 2d a7 f1 5f 2d
       1.2283177e-11 1.41218565e-11 1.2205301e-11 1.272974e-11
000010 e8 b8 56 2d 6f b0 56 2d 01 b0 56 2d 9f af 56 2d
       1.2205549e-11 1.2203668e-11 1.2203572e-11 1.2203487e-11
000020 e1 19 57 2d 80 1f 7c 2d 30 b6 56 2d 2f af 56 2d
       1.2227081e-11 1.4331536e-11 1.2204945e-11 1.220339e-11
000030 a4 af 56 2d f1 ae 56 2d cf b5 56 2d 79 17 64 2d
       1.2203492e-11 1.2203336e-11 1.2204861e-11 1.29655115e-11
000040 1b 08 59 2d ef ae 56 2d 27 2f 5f 2d 1b e3 78 2d
       1.2336822e-11 1.2203335e-11 1.2686552e-11 1.4147595e-11
000050 39 af 56 2d 3d af 56 2d 2b b0 56 2d 21 b9 56 2d
       1.2203399e-11 1.2203402e-11 1.2203609e-11 1.22055985e-11
000060 b0 af 56 2d d8 c4 56 2d ad b0 56 2d a3 af 56 2d
       1.2203502e-11 1.22082e-11 1.22037215e-11 1.2203491e-11
000070 55 47 72 2d bb b2 5d 2d 13 97 59 2d 7d b1 56 2d
       1.3771946e-11 1.2602082e-11 1.2368567e-11 1.2203902e-11
000080 ea c0 56 2d ca b0 56 2d ce af 56 2d 68 af 56 2d
       1.2207327e-11 1.2203747e-11 1.2203528e-11 1.220344e-11
000090 08 af 56 2d 6a b1 56 2d d7 af 56 2d d9 ae 56 2d
       1.2203356e-11 1.22038855e-11 1.2203536e-11 1.2203316e-11
0000a0 eb ae 56 2d 22 73 5c 2d f2 ae 56 2d f4 ae 56 2d
       1.2203331e-11 1.2531117e-11 1.2203337e-11 1.2203339e-11
0000b0 3c af 56 2d d3 af 56 2d 45 af 56 2d ed ae 56 2d
       1.22034015e-11 1.22035325e-11 1.2203409e-11 1.2203333e-11
0000c0 e6 af 5c 2d 65 b0 56 2d
       1.25446094e-11 1.2203659e-11

exp_avg f4 [50, 1]
000000 3e 14 78 32 4e a6 49 32 b3 01 7b 32 4c 78 6c 32
       1.44401024e-08 1.1737553e-08 1.4610509e-08 1.376436e-08
000010 db fa 7a 32 ae 07 7b 32 b1 35 7b 32 39 17 7b 32
       1.4608953e-08 1.4611869e-08 1.4622331e-08 1.4615403e-08
000020 9e fd 79 32 dc ae 41 32 08 03 7b 32 12 04 7b 32
       1.4551373e-08 1.1273837e-08 1.4610812e-08 1.4611048e-08
000030 e9 0b 7b 32 49 07 7b 32 2b 04 7b 32 54 63 60 32
       1.4612831e-08 1.4611779e-08 1.4611071e-08 1.3061101e-08
000040 f9 32 76 32 2a 08 7b 32 ed 1f 6e 32 71 ab 48 32
       1.4330674e-08 1.4611979e-08 1.3860682e-08 1.16805134e-08
000050 c0 28 7b 32 e3 f8 7a 32 73 1c 7b 32 6b 0f 7b 32
       1.4619388e-08 1.46085055e-08 1.46165915e-08 1.46136285e-08
000060 44 19 7b 32 13 c8 7a 32 44 01 7b 32 f8 05 7b 32
       1.4615868e-08 1.4597407e-08 1.4610411e-08 1.461148e-08
000070 75 0f 51 32 28 d5 70 32 7a b8 75 32 70 f4 7a 32
       1.2168916e-08 1.4018305e-08 1.4302822e-08 1.4607494e-08
000080 7c e3 7a 32 7f f4 7a 32 77 1f 7b 32 aa 17 7b 32
       1.4603639e-08 1.4607507e-08 1.4617277e-08 1.46155035e-08
000090 13 17 7b 32 e5 2c 7b 32 30 fd 7a 32 73 f8 7a 32
       1.4615369e-08 1.4620331e-08 1.4609483e-08 1.4608406e-08
0000a0 89 0a 7b 32 0d 8d 72 32 3b f7 7a 32 ce 15 7b 32
       1.4612518e-08 1.4118325e-08 1.4608129e-08 1.4615081e-08
0000b0 a1 01 7b 32 66 0b 7b 32 69 fc 7a 32 ea f7 7a 32
       1.4610493e-08 1.4612715e-08 1.4609307e-08 1.4608284e-08
0000c0 06 11 72 32 f1 0c 7b 32
       1.4090125e-08 1.4613065e-08

exp_avg_sq f4 [1, 50]
000000 67 79 73 33 be 85 4c 33 d4 6d 4c 33 f1 6e 73 33
       5.668826e-08 4.761909e-08 4.759734e-08 5.6678747e-08
000010 ee 88 4c 33 f1 8c 4c 33 8e 57 73 33 64 55 73 33
       4.7621988e-08 4.7625637e-08 5.6657477e-08 5.665551e-08
000020 ff 7f 4c 33 06 f9 72 33 ef 12 73 33 c3 81 4c 33
       4.7613863e-08 5.65715e-08 5.6595066e-08 4.761547e-08
000030 57 42 73 33 fa f9 72 33 bb 08 73 33 f3 6a 4c 33
       5.6638182e-08 5.6572368e-08 5.6585787e-08 4.759472e-08
000040 f3 31 73 33 85 f9 72 33 fd 8a 4c 33 85 f7 72 33
       5.6623275e-08 5.6571952e-08 4.762386e-08 5.6570133e-08
000050 ed f6 72 33 d9 09 73 33 96 f6 72 33 60 13 73 33
       5.6569593e-08 5.6586803e-08 5.6569284e-08 5.6595468e-08
000060 cd 05 73 33 75 71 4c 33 af f6 72 33 13 fa 72 33
       5.6583122e-08 4.760064e-08 5.6569373e-08 5.6572457e-08
000070 15 1a 73 33 b4 64 4c 33 80 58 4c 33 22 02 73 33
       5.6601568e-08 4.758904e-08 4.757794e-08 5.6579786e-08
000080 1b fa 72 33 5a f6 72 33 48 02 73 33 10 f7 72 33
       5.6572485e-08 5.656907e-08 5.657992e-08 5.6569718e-08
000090 48 5f 4c 33 b5 f6 72 33 69 0d 73 33 83 fe 72 33
       4.758411e-08 5.6569395e-08 5.6590043e-08 5.6576493e-08
0000a0 07 60 4c 33 b7 43 73 33 75 70 4c 33 41 14 73 33
       4.7584788e-08 5.6639433e-08 4.759973e-08 5.6596267e-08
0000b0 44 2a 73 33 11 10 73 33 69 f6 72 33 3d 6f 4c 33
       5.6616287e-08 5.659246e-08 5.6569124e-08 4.7598622e-08
0000c0 e9 57 4c 33 61 8c 4c 33
       4.7577405e-08 4.7625125e-08

exp_avg f4 [1, 50]
000000 2f 96 86 b3 14 03 7d b3 5f 30 7b b3 53 c3 88 b3
       -6.2671795e-08 -5.8908952e-08 -5.8484485e-08 -6.368523e-08
000010 4f d6 79 b3 50 60 7c b3 0e d8 88 b3 51 85 88 b3
       -5.8169743e-08 -5.8760918e-08 -6.3722936e-08 -6.3572436e-08
000020 29 67 79 b3 4c 6c 86 b3 43 7f 87 b3 0a 47 7c b3
       -5.8068654e-08 -6.25956e-08 -6.309576e-08 -5.8737932e-08
000030 2b 0c 86 b3 89 6e 87 b3 0f c2 85 b3 6b 99 79 b3
       -6.2420746e-08 -6.3065336e-08 -6.228594e-08 -5.8114363e-08
000040 aa c7 83 b3 40 f3 87 b3 b7 7c 78 b3 ac 14 85 b3
       -6.1364815e-08 -6.330674e-08 -5.7855427e-08 -6.197055e-08
000050 56 ac 86 b3 3e 37 88 b3 b6 92 88 b3 e9 5d 84 b3
       -6.271209e-08 -6.343042e-08 -6.35968e-08 -6.163811e-08
000060 7a bc 86 b3 ee eb 77 b3 18 25 86 b3 19 a5 86 b3
       -6.274145e-08 -5.7723746e-08 -6.2466086e-08 -6.269892e-08
000070 f7 d0 87 b3 af 42 7a b3 85 15 7a b3 cb dd 86 b3
       -6.324438e-08 -5.826831e-08 -5.8227233e-08 -6.280205e-08
000080 91 fa 88 b3 82 a4 86 b3 fb 4e 88 b3 94 eb 87 b3
       -6.378571e-08 -6.269785e-08 -6.34736e-08 -6.329279e-08
000090 a0 11 78 b3 f5 80 87 b3 6f 59 86 b3 6f f8 85 b3
       -5.775803e-08 -6.3098845e-08 -6.256129e-08 -6.238485e-08
0000a0 37 2b 76 b3 ee 18 87 b3 8a 74 7c b3 45 83 87 b3
       -5.7315642e-08 -6.290962e-08 -5.8779314e-08 -6.310305e-08
0000b0 ee eb 85 b3 8f 8b 87 b3 01 76 86 b3 e9 30 79 b3
       -6.2362105e-08 -6.311813e-08 -6.261326e-08 -5.8019314e-08
0000c0 45 60 7a b3 0c a4 77 b3
       -5.8295218e-08 -5.765837e-08

exp_avg_sq f4 [50, 1]
000000 3c 1d 96 2d 01 56 95 2d dc 8f 95 2d fa 55 95 2d
       1.7066008e-11 1.6977532e-11 1.7003225e-11 1.697752e-11
000010 3d 56 95 2d 52 5b 95 2d 55 5a 95 2d 70 70 95 2d
       1.6977636e-11 1.6979893e-11 1.6979454e-11 1.6989271e-11
000020 00 56 95 2d 2a db 97 2d 0c 5f 95 2d cc 58 95 2d
       1.697753e-11 1.7264041e-11 1.6981548e-11 1.6978773e-11
000030 96 57 95 2d 1f 87 a9 2d 07 59 95 2d 4d 55 95 2d
       1.6978235e-11 1.9273081e-11 1.6978875e-11 1.697722e-11
000040 c3 66 99 2d 42 56 95 2d ce 43 a4 2d ea 04 a0 2d
       1.7439722e-11 1.6977645e-11 1.8674753e-11 1.8192076e-11
000050 6e 59 95 2d d1 57 95 2d f2 f9 97 2d a9 54 95 2d
       1.6979054e-11 1.6978337e-11 1.727771e-11 1.6976935e-11
000060 a5 23 97 2d 5e 58 95 2d ac 55 95 2d a7 57 95 2d
       1.7182542e-11 1.6978582e-11 1.6977385e-11 1.6978264e-11
000070 fc 55 95 2d 88 cb aa 2d f2 b9 9d 2d 75 03 9a 2d
       1.6977524e-11 1.9417148e-11 1.793141e-11 1.7509308e-11
000080 82 8c 95 2d db 2e 98 2d 2f 67 95 2d 9d b8 95 2d
       1.7001737e-11 1.7301207e-11 1.6985162e-11 1.7021324e-11
000090 e9 d9 95 2d 0a 5d 95 2d 2f ff 9f 2d c5 1e 9e 2d
       1.703611e-11 1.6980656e-11 1.8189531e-11 1.7976185e-11
0000a0 ff d4 95 2d 52 57 95 2d cb 58 95 2d 47 55 95 2d
       1.7033928e-11 1.6978117e-11 1.697877e-11 1.697721e-11
0000b0 f6 74 95 2d 67 55 95 2d 16 78 96 2d 14 56 97 2d
       1.699128e-11 1.6977265e-11 1.7106355e-11 1.7204939e-11
0000c0 2d 55 95 2d 77 55 95 2d
       1.6977164e-11 1.6977293e-11

exp_avg f4 [50, 1]
000000 6d 76 93 b2 7c 49 94 b2 3c 43 94 b2 b5 5f 94 b2
       -1.7166906e-08 -1.7262884e-08 -1.7260042e-08 -1.727299e-08
000010 60 3c 94 b2 c3 79 94 b2 fc 5c 94 b2 79 6e 94 b2
       -1.7256923e-08 -1.7284838e-08 -1.7271752e-08 -1.7279705e-08
000020 ce 65 94 b2 eb fe 91 b2 8f 6c 94 b2 13 4e 94 b2
       -1.7275763e-08 -1.6996145e-08 -1.7278834e-08 -1.7264972e-08
000030 f7 6b 94 b2 69 0d 83 b2 65 61 94 b2 e2 89 94 b2
       -1.7278564e-08 -1.5256505e-08 -1.7273758e-08 -1.729217e-08
000040 05 79 90 b2 4a 8e 94 b2 a5 1d 87 b2 55 ae 8b b2
       -1.681884e-08 -1.7294173e-08 -1.572955e-08 -1.6261007e-08
000050 92 77 94 b2 d6 81 94 b2 e0 c3 91 b2 d9 50 94 b2
       -1.7283842e-08 -1.728851e-08 -1.6969295e-08 -1.7266233e-08
000060 78 69 92 b2 25 6b 94 b2 f0 6c 94 b2 9d 5d 94 b2
       -1.7044599e-08 -1.7278191e-08 -1.7279007e-08 -1.7272038e-08
000070 2a 59 94 b2 7c 7a 82 b2 97 a7 8d b2 f4 72 90 b2
       -1.7270015e-08 -1.5189691e-08 -1.6490771e-08 -1.6816081e-08
000080 8b 24 94 b2 14 7d 91 b2 ca 66 94 b2 b9 e7 93 b2
       -1.7246085e-08 -1.69371e-08 -1.727621e-08 -1.7218428e-08
000090 eb c5 93 b2 9b 53 94 b2 c6 c2 8b b2 79 6f 8d b2
       -1.7203055e-08 -1.7267487e-08 -1.6270302e-08 -1.6465252e-08
0000a0 9e ea 93 b2 59 7a 94 b2 82 13 94 b2 65 5e 94 b2
       -1.7219744e-08 -1.7285105e-08 -1.7238339e-08 -1.7272393e-08
0000b0 13 97 94 b2 7f 36 94 b2 47 41 93 b2 8c 81 92 b2
       -1.7298168e-08 -1.725425e-08 -1.7142737e-08 -1.7055548e-08
0000c0 53 47 94 b2 d0 5e 94 b2
       -1.7261902e-08 -1.7272583e-08

exp_avg_sq f4 [1, 50]
000000 16 c8 68 33 9d 3b 69 33 59 f5 68 33 6d 3a 69 33
       5.4198686e-08 5.4303758e-08 5.423985e-08 5.4302678e-08
000010 ac 3a 69 33 11 2c 69 33 6e 2e 69 33 0b 0c 69 33
       5.43029e-08 5.4289618e-08 5.4291768e-08 5.4260493e-08
000020 f1 3a 69 33 52 8d 68 33 6f 23 69 33 f8 32 69 33
       5.4303147e-08 5.414524e-08 5.4281767e-08 5.4295896e-08
000030 99 36 69 33 6e f6 67 33 68 32 69 33 18 3d 69 33
       5.4299196e-08 5.4008005e-08 5.4295384e-08 5.4305104e-08
000040 5a 70 68 33 86 3a 69 33 55 10 68 33 e6 2a 68 33
       5.4118892e-08 5.4302767e-08 5.4031563e-08 5.4055725e-08
000050 79 30 69 33 ce 34 69 33 b0 8a 68 33 fc 3d 69 33
       5.4293626e-08 5.4297566e-08 5.4142845e-08 5.4305914e-08
000060 b3 9f 68 33 54 33 69 33 a7 3c 69 33 49 36 69 33
       5.4161955e-08 5.4296223e-08 5.4304703e-08 5.4298912e-08
000070 62 3b 69 33 39 f1 67 33 9c 3d 68 33 ff 66 68 33
       5.430355e-08 5.400327e-08 5.4072743e-08 5.4110384e-08
000080 4f f7 68 33 35 86 68 33 6f 16 69 33 b6 e3 68 33
       5.4241635e-08 5.413877e-08 5.4269943e-08 5.422381e-08
000090 d3 d8 68 33 a7 27 69 33 37 2b 68 33 12 3a 68 33
       5.421391e-08 5.4285604e-08 5.4056013e-08 5.4069524e-08
0000a0 67 da 68 33 36 37 69 33 e3 32 69 33 c3 3d 69 33
       5.4215345e-08 5.4299754e-08 5.429582e-08 5.4305712e-08
0000b0 be 07 69 33 62 3d 69 33 11 b7 68 33 5b 9a 68 33
       5.425658e-08 5.4305367e-08 5.4183207e-08 5.4157095e-08
0000c0 fe 3d 69 33 12 3d 69 33
       5.430592e-08 5.4305083e-08

exp_avg f4 [1, 50]
000000 0a e9 82 35 b0 14 83 35 94 d7 82 35 dc e2 82 35
       9.753578e-07 9.766281e-07 9.748496e-07 9.75178e-07
000010 0c 10 83 35 69 bb 82 35 1c ec 82 35 07 cf 82 35
       9.764931e-07 9.740298e-07 9.754472e-07 9.746008e-07
000020 92 f0 82 35 53 d9 82 35 11 f6 82 35 07 ff 82 35
       9.75577e-07 9.749004e-07 9.75737e-07 9.759978e-07
000030 e4 0d 83 35 a2 e5 82 35 28 e3 82 35 28 c3 82 35
       9.764303e-07 9.752587e-07 9.751866e-07 9.742553e-07
000040 1b 0b 83 35 0e da 82 35 5c f7 82 35 60 d9 82 35
       9.763493e-07 9.749217e-07 9.757746e-07 9.749019e-07
000050 10 dc 82 35 43 bc 82 35 56 fb 82 35 f4 0b 83 35
       9.749801e-07 9.740546e-07 9.758903e-07 9.763739e-07
000060 fe 19 83 35 16 e8 82 35 35 e0 82 35 df e8 82 35
       9.767825e-07 9.753301e-07 9.751008e-07 9.753529e-07
000070 c3 e9 82 35 b0 de 82 35 fc ef 82 35 23 ed 82 35
       9.753788e-07 9.750565e-07 9.755599e-07 9.754771e-07
000080 87 c4 82 35 cd ed 82 35 cc fa 82 35 40 fc 82 35
       9.742952e-07 9.754964e-07 9.758746e-07 9.759169e-07
000090 50 e9 82 35 18 16 83 35 eb c3 82 35 dd d3 82 35
       9.753658e-07 9.766691e-07 9.742774e-07 9.747415e-07
0000a0 d7 bd 82 35 cd b2 82 35 48 37 83 35 ef 02 83 35
       9.741005e-07 9.737793e-07 9.77635e-07 9.761114e-07
0000b0 4c f2 82 35 0d 01 83 35 00 e2 82 35 bd eb 82 35
       9.756272e-07 9.760566e-07 9.75153e-07 9.754364e-07
0000c0 84 03 83 35 e4 f4 82 35
       9.761284e-07 9.757027e-07
