experiments/rotation/checkpoints/checkpoints_weight_decay_mse/checkpoint_dim-2_ntrain-15_weightdecay-0.001_seed-1683final.pkl (torch_old, 26267 bytes, 36 tensors)

ffs.0.0.weight f4 [50, 1]
000000 d4 aa 03 3d d9 aa 03 3d d8 aa 03 3d d3 aa 03 3d
       0.032145336 0.032145355 0.03214535 0.032145333
000010 d4 aa 03 3d d4 aa 03 3d d5 aa 03 3d 0a 24 ad bf
       0.032145336 0.032145336 0.03214534 -1.3526623
000020 d7 aa 03 3d d2 aa 03 3d d6 aa 03 3d d9 aa 03 3d
       0.032145347 0.03214533 0.032145344 0.032145355
000030 d4 aa 03 3d d4 aa 03 3d d7 aa 03 3d d4 aa 03 3d
       0.032145336 0.032145336 0.032145347 0.032145336
000040 d9 aa 03 3d f5 ff c4 bf d4 aa 03 3d d4 aa 03 3d
       0.032145355 -1.5390612 0.032145336 0.032145336
000050 d4 aa 03 3d d4 aa 03 3d d8 aa 03 3d d9 aa 03 3d
       0.032145336 0.032145336 0.03214535 0.032145355
000060 d3 aa 03 3d d3 aa 03 3d d4 aa 03 3d d7 aa 03 3d
       0.032145333 0.032145333 0.032145336 0.032145347
000070 d5 aa 03 3d d3 aa 03 3d d3 aa 03 3d d8 aa 03 3d
       0.03214534 0.032145333 0.032145333 0.03214535
000080 d8 aa 03 3d d7 aa 03 3d d5 aa 03 3d d3 aa 03 3d
       0.03214535 0.032145347 0.03214534 0.032145333
000090 d5 aa 03 3d d6 aa 03 3d d7 aa 03 3d d8 aa 03 3d
       0.03214534 0.032145344 0.032145347 0.03214535
0000a0 d3 23 ad bf d4 aa 03 3d d2 aa 03 3d d3 aa 03 3d
       -1.3526558 0.032145336 0.03214533 0.032145333
0000b0 d1 aa 03 3d d2 aa 03 3d d8 aa 03 3d d8 aa 03 3d
       0.032145325 0.03214533 0.03214535 0.03214535
0000c0 d5 aa 03 3d 6f ec b3 bf
       0.03214534 -1.4056529

ffs.0.0.bias f4 [50]
000000 ba fa 99 39 30 fb 99 39 77 fb 99 39 af fb 99 39
       0.0002936924 0.00029369583 0.0002936979 0.00029369953
000010 b4 fa 99 39 b9 fa 99 39 4d fb 99 39 24 c8 9d 3f
       0.00029369222 0.00029369237 0.00029369668 1.2326703
000020 10 fb 99 39 1f fb 99 39 8b fa 99 39 32 fb 99 39
       0.0002936949 0.00029369534 0.00029369103 0.0002936959
000030 ba fa 99 39 ac fb 99 39 48 fb 99 39 ba fa 99 39
       0.0002936924 0.00029369944 0.00029369653 0.0002936924
000040 e5 fa 99 39 fb 0d c6 bf 9d fb 99 39 b9 fa 99 39
       0.00029369365 -1.5473017 0.000293699 0.00029369237
000050 ba fa 99 39 9d fb 99 39 af fa 99 39 bd fb 99 39
       0.0002936924 0.000293699 0.00029369208 0.00029369994
000060 b3 fb 99 39 31 fb 99 39 b6 fa 99 39 a8 fa 99 39
       0.00029369965 0.00029369586 0.00029369228 0.00029369188
000070 4e fb 99 39 a6 fb 99 39 a7 fb 99 39 e2 fa 99 39
       0.0002936967 0.00029369927 0.0002936993 0.00029369356
000080 a7 fb 99 39 10 fb 99 39 4e fb 99 39 35 fb 99 39
       0.0002936993 0.0002936949 0.0002936967 0.00029369598
000090 ae fa 99 39 8b fa 99 39 bd fb 99 39 e1 fa 99 39
       0.00029369205 0.00029369103 0.00029369994 0.00029369353
0000a0 e4 c7 9d 3f b5 fa 99 39 a3 fb 99 39 a8 fb 99 39
       1.2326627 0.00029369225 0.00029369918 0.00029369933
0000b0 a3 fa 99 39 1e fb 99 39 a7 fb 99 39 e2 fa 99 39
       0.00029369173 0.0002936953 0.0002936993 0.00029369356
0000c0 4e fb 99 39 90 78 ab bf
       0.0002936967 -1.3396168

ffs.0.2.weight f4 [1, 50]
000000 fa 94 2c bd 03 95 2c bd 04 95 2c bd fc 94 2c bd
       -0.042134263 -0.042134296 -0.0421343 -0.04213427
000010 fa 94 2c bd fa 94 2c bd 00 95 2c bd c2 e9 d8 3f
       -0.042134263 -0.042134263 -0.042134285 1.6946337
000020 01 95 2c bd fb 94 2c bd fa 94 2c bd 03 95 2c bd
       -0.04213429 -0.042134266 -0.042134263 -0.042134296
000030 fa 94 2c bd fe 94 2c bd ff 94 2c bd fa 94 2c bd
       -0.042134263 -0.042134278 -0.04213428 -0.042134263
000040 02 95 2c bd d8 4d e7 bf fd 94 2c bd fa 94 2c bd
       -0.042134292 -1.8070631 -0.042134274 -0.042134263
000050 fa 94 2c bd fd 94 2c bd 00 95 2c bd ff 94 2c bd
       -0.042134263 -0.042134274 -0.042134285 -0.04213428
000060 fc 94 2c bd fb 94 2c bd fa 94 2c bd 00 95 2c bd
       -0.04213427 -0.042134266 -0.042134263 -0.042134285
000070 00 95 2c bd fc 94 2c bd fc 94 2c bd 00 95 2c bd
       -0.042134285 -0.04213427 -0.04213427 -0.042134285
000080 03 95 2c bd 01 95 2c bd 00 95 2c bd fb 94 2c bd
       -0.042134296 -0.04213429 -0.042134285 -0.042134266
000090 fa 94 2c bd fa 94 2c bd ff 94 2c bd 00 95 2c bd
       -0.042134263 -0.042134263 -0.04213428 -0.042134285
0000a0 48 e9 d8 3f fa 94 2c bd fc 94 2c bd fc 94 2c bd
       1.6946192 -0.042134263 -0.04213427 -0.04213427
0000b0 f8 94 2c bd fb 94 2c bd 03 95 2c bd 00 95 2c bd
       -0.042134255 -0.042134266 -0.042134296 -0.042134285
0000c0 00 95 2c bd a8 5d c1 bf
       -0.042134285 -1.5106707

ffs.1.0.weight f4 [50, 1]
000000 7f ba c0 3d cf ba c0 3d 3b ba c0 3d 0e bc c0 3d
       0.09410571 0.09410631 0.09410521 0.094108686
000010 35 b7 c0 3d ae b9 c0 3d a1 d8 96 bd 1a b8 c0 3d
       0.09409944 0.094104156 -0.073655374 0.094101146
000020 cf b9 c0 3d 50 66 97 bd 2e 44 98 bd 01 be c0 3d
       0.0941044 -0.073925614 -0.07434879 0.0941124
000030 d1 bf c0 3d 45 ba c0 3d b7 bb c0 3d b3 ba c0 3d
       0.09411586 0.09410528 0.09410804 0.0941061
000040 1e b7 c0 3d 18 a8 94 bd 5b bc c0 3d 3a e4 97 bd
       0.09409927 -0.07258624 0.09410926 -0.07416578
000050 2f b0 c0 3d e5 5e 99 bd 23 ba c0 3d 34 ba c0 3d
       0.09408604 -0.07488803 0.09410503 0.094105154
000060 67 4f 94 bd 6e ba c0 3d c9 bb c0 3d e0 ba c0 3d
       -0.07241707 0.09410559 0.09410817 0.094106436
000070 e2 a7 97 bd 3f bb c0 3d f8 af c0 3d f0 be c0 3d
       -0.07405068 0.09410714 0.094085634 0.094114184
000080 97 bf bd 3d e1 32 98 bd d6 57 94 bd a2 ba c0 3d
       0.092650585 -0.074315794 -0.07243316 0.094105974
000090 7e d7 9c 3d 9b 7f c0 3d 0e bc c0 3d 40 bb c0 3d
       0.076582894 0.09399339 0.094108686 0.09410715
0000a0 f2 45 97 bd bb 1d 98 bd a2 1a 0c 40 f5 7d 8e bd
       -0.07386388 -0.07427546 2.1891255 -0.06957618
0000b0 dd b3 c0 3d 82 ba c0 3d 54 bd c0 3d dd 4f 98 bd
       0.09409306 0.094105735 0.094111115 -0.07437108
0000c0 fd 39 93 bd 76 ba c0 3d
       -0.07188795 0.094105646

ffs.1.0.bias f4 [50]
000000 76 c5 2b 3b 6d c6 2b 3b cc c4 2b 3b da c9 2b 3b
       0.0026210225 0.00262108 0.002620983 0.0026212842
000010 a3 bc 2b 3b 30 c3 2b 3b f3 3e a4 ba 04 bf 2b 3b
       0.0026204966 0.002620887 -0.0012530967 0.0026206383
000020 96 c3 2b 3b 01 0d a6 ba 51 e7 a8 ba 33 cf 2b 3b
       0.0026209108 -0.001266867 -0.001288632 0.002621603
000030 29 d4 2b 3b ee c4 2b 3b f8 c8 2b 3b 19 c6 2b 3b
       0.0026218987 0.0026209909 0.0026212316 0.0026210605
000040 45 bc 2b 3b d2 3d 9d ba a4 ca 2b 3b 89 aa a7 ba
       0.0026204747 -0.0011996573 0.0026213313 -0.0012791912
000050 72 a9 2b 3b f4 96 ac ba 8d c4 2b 3b b8 c4 2b 3b
       0.0026193527 -0.0013167546 0.0026209683 0.0026209783
000060 18 27 9c ba 6c c5 2b 3b 1b c9 2b 3b 8b c6 2b 3b
       -0.0011913506 0.0026210202 0.0026212397 0.002621087
000070 cc e3 a6 ba 97 c7 2b 3b e4 a8 2b 3b b7 d1 2b 3b
       -0.0012732684 0.0026211494 0.0026193196 0.002621753
000080 bf c6 23 3b 10 ae a8 ba 38 41 9c ba fd c5 2b 3b
       0.0024990288 -0.0012869257 -0.0011921292 0.002621054
000090 b5 2a b8 3a 03 25 2b 3b da c9 2b 3b 9c c7 2b 3b
       0.0014050814 0.002611459 0.0026212842 0.0026211506
0000a0 09 a3 a5 ba 33 68 a8 ba 01 0a de 3b 67 a4 8a ba
       -0.0012637089 -0.0012848437 0.006776095 -0.001057756
0000b0 55 b3 2b 3b 97 c5 2b 3b 44 cd 2b 3b 0e 0e a9 ba
       0.002619942 0.0026210302 0.0026214877 -0.0012897865
0000c0 c5 c7 98 ba 86 c5 2b 3b
       -0.0011656216 0.0026210262

ffs.1.2.weight f4 [1, 50]
000000 43 a7 c6 3d a2 a7 c6 3d f3 a6 c6 3d 13 a9 c6 3d
       0.096998714 0.09699942 0.09699812 0.09700217
000010 75 a3 c6 3d 4f a6 c6 3d 02 82 97 bd 7e a4 c6 3d
       0.09699146 0.096996896 -0.07397844 0.09699343
000020 77 a6 c6 3d 96 1b 98 bd 50 0c 99 bd 58 ab c6 3d
       0.096997194 -0.074271366 -0.074730515 0.0970065
000030 71 ad c6 3d 02 a7 c6 3d b0 a8 c6 3d 82 a7 c6 3d
       0.0970105 0.09699823 0.09700143 0.09699918
000040 59 a3 c6 3d 97 23 95 bd 6d a9 c6 3d 2b a4 98 bd
       0.09699125 -0.07282179 0.09700284 -0.074531876
000050 53 9b c6 3d 85 3f 9a bd d9 a6 c6 3d ec a6 c6 3d
       0.096975945 -0.07531647 0.096997924 0.096998066
000060 cf c3 94 bd 30 a7 c6 3d c3 a8 c6 3d b5 a7 c6 3d
       -0.0726391 0.09699857 0.097001575 0.09699956
000070 b3 62 98 bd 26 a8 c6 3d 14 9b c6 3d 68 ac c6 3d
       -0.074407004 0.097000405 0.096975476 0.09700853
000080 6d 35 c3 3d 8c f9 98 bd e9 cc 94 bd 6e a7 c6 3d
       0.095316745 -0.07469472 -0.07265646 0.096999034
000090 30 3d 9e 3d 09 63 c6 3d 13 a9 c6 3d 26 a8 c6 3d
       0.07726514 0.09686858 0.09700217 0.097000405
0000a0 7d f8 97 bd 97 e2 98 bd 1c 3d 04 c0 41 82 8e bd
       -0.07420442 -0.074650936 -2.0662298 -0.06958438
0000b0 95 9f c6 3d 48 a7 c6 3d 8b aa c6 3d 00 19 99 bd
       0.096984066 0.09699875 0.09700497 -0.074754715
0000c0 87 98 93 bd 3c a7 c6 3d
       -0.07206827 0.09699866

ffs.2.0.weight f4 [50, 1]
000000 b2 38 3f 3e 61 94 ba 3f b1 38 3f 3e b1 38 3f 3e
       0.18673971 1.4576532 0.1867397 0.1867397
000010 79 cf 2f be 79 cf 2f be b2 38 3f 3e b3 38 3f 3e
       -0.17168988 -0.17168988 0.18673971 0.18673973
000020 b1 38 3f 3e b0 38 3f 3e 7a cf 2f be 2e 9b ba 3f
       0.1867397 0.18673968 -0.1716899 1.4578607
000030 b1 38 3f 3e 79 cf 2f be b1 38 3f 3e 7a cf 2f be
       0.1867397 -0.17168988 0.1867397 -0.1716899
000040 b0 38 3f 3e 79 cf 2f be 79 cf 2f be b1 38 3f 3e
       0.18673968 -0.17168988 -0.17168988 0.1867397
000050 b1 38 3f 3e b1 38 3f 3e b1 38 3f 3e b0 38 3f 3e
       0.1867397 0.1867397 0.1867397 0.18673968
000060 7c cf 2f be 79 cf 2f be b1 38 3f 3e 79 cf 2f be
       -0.17168993 -0.17168988 0.1867397 -0.17168988
000070 b1 38 3f 3e b0 38 3f 3e 74 cf 2f be b1 38 3f 3e
       0.1867397 0.18673968 -0.17168981 0.1867397
000080 b0 38 3f 3e b0 38 3f 3e b0 38 3f 3e b3 38 3f 3e
       0.18673968 0.18673968 0.18673968 0.18673973
000090 7c cf 2f be b0 38 3f 3e b0 38 3f 3e b1 38 3f 3e
       -0.17168993 0.18673968 0.18673968 0.1867397
0000a0 b0 38 3f 3e 7a cf 2f be b1 38 3f 3e 75 cf 2f be
       0.18673968 -0.1716899 0.1867397 -0.17168982
0000b0 b3 38 3f 3e b1 38 3f 3e 5f 5a ba 3f 79 cf 2f be
       0.18673973 0.1867397 1.4558829 -0.17168988
0000c0 7b cf 2f be 7a cf 2f be
       -0.17168991 -0.1716899

ffs.2.0.bias f4 [50]
000000 cb 26 b7 3c 07 4c 06 be c3 26 b7 3c cb 26 b7 3c
       0.022357365 -0.1311494 0.02235735 0.022357365
000010 24 e2 89 bc 25 e2 89 bc b8 26 b7 3c c6 26 b7 3c
       -0.016831465 -0.016831467 0.02235733 0.022357356
000020 be 26 b7 3c c2 26 b7 3c 25 e2 89 bc d2 35 06 be
       0.02235734 0.022357348 -0.016831467 -0.13106468
000030 c3 26 b7 3c 26 e2 89 bc c3 26 b7 3c 27 e2 89 bc
       0.02235735 -0.016831469 0.02235735 -0.01683147
000040 c2 26 b7 3c 26 e2 89 bc 23 e2 89 bc c3 26 b7 3c
       0.022357348 -0.016831469 -0.016831463 0.02235735
000050 c3 26 b7 3c c2 26 b7 3c c3 26 b7 3c c3 26 b7 3c
       0.02235735 0.022357348 0.02235735 0.02235735
000060 2a e2 89 bc 24 e2 89 bc c5 26 b7 3c 24 e2 89 bc
       -0.016831476 -0.016831465 0.022357354 -0.016831465
000070 c3 26 b7 3c cb 26 b7 3c 21 e2 89 bc c3 26 b7 3c
       0.02235735 0.022357365 -0.01683146 0.02235735
000080 c2 26 b7 3c c2 26 b7 3c c0 26 b7 3c ca 26 b7 3c
       0.022357348 0.022357348 0.022357345 0.022357363
000090 2b e2 89 bc c2 26 b7 3c c0 26 b7 3c c3 26 b7 3c
       -0.016831478 0.022357348 0.022357345 0.02235735
0000a0 be 26 b7 3c 29 e2 89 bc c0 26 b7 3c 20 e2 89 bc
       0.02235734 -0.016831474 0.022357345 -0.016831458
0000b0 c9 26 b7 3c c2 26 b7 3c 1f 09 07 be 24 e2 89 bc
       0.022357361 0.022357348 -0.13187073 -0.016831465
0000c0 2d e2 89 bc 28 e2 89 bc
       -0.016831482 -0.016831473

ffs.2.2.weight f4 [1, 50]
000000 4e 31 5b be 12 16 92 3f 4c 31 5b be 4e 31 5b be
       -0.21405527 1.1412985 -0.21405524 -0.21405527
000010 64 f7 3e 3e 63 f7 3e 3e 49 31 5b be 4f 31 5b be
       0.1864906 0.18649058 -0.2140552 -0.21405528
000020 4a 31 5b be 4b 31 5b be 64 f7 3e 3e f9 1e 92 3f
       -0.21405521 -0.21405523 0.1864906 1.1415702
000030 4c 31 5b be 64 f7 3e 3e 4c 31 5b be 65 f7 3e 3e
       -0.21405524 0.1864906 -0.21405524 0.18649061
000040 49 31 5b be 63 f7 3e 3e 63 f7 3e 3e 4c 31 5b be
       -0.2140552 0.18649058 0.18649058 -0.21405524
000050 4c 31 5b be 4c 31 5b be 4c 31 5b be 4b 31 5b be
       -0.21405524 -0.21405524 -0.21405524 -0.21405523
000060 68 f7 3e 3e 63 f7 3e 3e 4d 31 5b be 64 f7 3e 3e
       0.18649065 0.18649058 -0.21405526 0.1864906
000070 4c 31 5b be 4d 31 5b be 5b f7 3e 3e 4c 31 5b be
       -0.21405524 -0.21405526 0.18649046 -0.21405524
000080 4b 31 5b be 4b 31 5b be 4a 31 5b be 4e 31 5b be
       -0.21405523 -0.21405523 -0.21405521 -0.21405527
000090 68 f7 3e 3e 4b 31 5b be 4a 31 5b be 4c 31 5b be
       0.18649065 -0.21405523 -0.21405521 -0.21405524
0000a0 4a 31 5b be 65 f7 3e 3e 4c 31 5b be 5d f7 3e 3e
       -0.21405521 0.18649061 -0.21405524 0.18649049
0000b0 4e 31 5b be 4b 31 5b be 27 ca 91 3f 63 f7 3e 3e
       -0.21405527 -0.21405523 1.1389817 0.18649058
0000c0 67 f7 3e 3e 66 f7 3e 3e
       0.18649064 0.18649063

ffs.3.0.weight f4 [50, 1]
000000 93 f7 04 bd 90 f7 04 bd 94 f7 04 bd 90 f7 04 bd
       -0.032462668 -0.032462656 -0.03246267 -0.032462656
000010 94 f7 04 bd 93 f7 04 bd 92 f7 04 bd 90 f7 04 bd
       -0.03246267 -0.032462668 -0.032462664 -0.032462656
000020 97 f7 04 bd 94 f7 04 bd 92 f7 04 bd 90 f7 04 bd
       -0.032462683 -0.03246267 -0.032462664 -0.032462656
000030 93 f7 04 bd 91 f7 04 bd 93 f7 04 bd 30 83 a1 bf
       -0.032462668 -0.03246266 -0.032462668 -1.261816
000040 93 f7 04 bd 94 f7 04 bd 92 f7 04 bd 93 f7 04 bd
       -0.032462668 -0.03246267 -0.032462664 -0.032462668
000050 93 f7 04 bd 93 f7 04 bd 93 f7 04 bd f5 62 82 bf
       -0.032462668 -0.032462668 -0.032462668 -1.0186449
000060 94 f7 04 bd 93 f7 04 bd 94 f7 04 bd 93 f7 04 bd
       -0.03246267 -0.032462668 -0.03246267 -0.032462668
000070 ad c5 a0 bf 93 f7 04 bd cc 62 82 bf 92 f7 04 bd
       -1.2560326 -0.032462668 -1.01864 -0.032462664
000080 93 f7 04 bd 92 f7 04 bd 91 f7 04 bd 93 f7 04 bd
       -0.032462668 -0.032462664 -0.03246266 -0.032462668
000090 94 f7 04 bd 8f f7 04 bd 92 f7 04 bd 93 f7 04 bd
       -0.03246267 -0.032462653 -0.032462664 -0.032462668
0000a0 94 f7 04 bd 92 f7 04 bd 93 f7 04 bd 5e 39 a1 bf
       -0.03246267 -0.032462664 -0.032462668 -1.2595632
0000b0 91 f7 04 bd 99 61 82 bf 93 f7 04 bd 94 f7 04 bd
       -0.03246266 -1.0186034 -0.032462668 -0.03246267
0000c0 91 f7 04 bd 90 f7 04 bd
       -0.03246266 -0.032462656

ffs.3.0.bias f4 [50]
000000 c0 9a c0 39 ff 9a c0 39 b3 9a c0 39 bd 9a c0 39
       0.00036736391 0.00036736575 0.00036736354 0.00036736383
000010 ad 9a c0 39 c2 9a c0 39 af 9a c0 39 04 9b c0 39
       0.00036736336 0.00036736397 0.00036736342 0.0003673659
000020 87 9a c0 39 b2 9a c0 39 af 9a c0 39 c1 9a c0 39
       0.00036736226 0.0003673635 0.00036736342 0.00036736394
000030 b9 9a c0 39 9a 9a c0 39 c2 9a c0 39 fb 3b 83 3f
       0.0003673637 0.0003673628 0.00036736397 1.025268
000040 c0 9a c0 39 b9 9a c0 39 bf 9a c0 39 c3 9a c0 39
       0.00036736391 0.0003673637 0.0003673639 0.000367364
000050 b7 9a c0 39 c0 9a c0 39 bc 9a c0 39 d5 5b a9 bf
       0.00036736365 0.00036736391 0.0003673638 -1.323115
000060 bd 9a c0 39 bf 9a c0 39 b4 9a c0 39 b9 9a c0 39
       0.00036736383 0.0003673639 0.00036736357 0.0003673637
000070 c0 64 82 3f c3 9a c0 39 86 5b a9 bf bb 9a c0 39
       1.0186996 0.000367364 -1.3231056 0.00036736377
000080 c1 9a c0 39 bb 9a c0 39 be 9a c0 39 bd 9a c0 39
       0.00036736394 0.00036736377 0.00036736386 0.00036736383
000090 ac 9a c0 39 e1 9a c0 39 be 9a c0 39 c0 9a c0 39
       0.00036736333 0.00036736488 0.00036736386 0.00036736391
0000a0 af 9a c0 39 d9 9a c0 39 c0 9a c0 39 13 e8 82 3f
       0.00036736342 0.00036736464 0.00036736391 1.0227073
0000b0 8b 9a c0 39 29 59 a9 bf ac 9a c0 39 a7 9a c0 39
       0.00036736237 -1.3230335 0.00036736333 0.0003673632
0000c0 9d 9a c0 39 be 9a c0 39
       0.0003673629 0.00036736386

ffs.3.2.weight f4 [1, 50]
000000 1b e0 40 bd 16 e0 40 bd 1c e0 40 bd 18 e0 40 bd
       -0.047088724 -0.047088705 -0.047088727 -0.047088712
000010 1d e0 40 bd 1b e0 40 bd 1b e0 40 bd 16 e0 40 bd
       -0.04708873 -0.047088724 -0.047088724 -0.047088705
000020 20 e0 40 bd 1c e0 40 bd 1b e0 40 bd 18 e0 40 bd
       -0.047088742 -0.047088727 -0.047088724 -0.047088712
000030 1c e0 40 bd 18 e0 40 bd 1b e0 40 bd f3 32 a9 3f
       -0.047088727 -0.047088712 -0.047088724 1.3218673
000040 1b e0 40 bd 1c e0 40 bd 1a e0 40 bd 1c e0 40 bd
       -0.047088724 -0.047088727 -0.04708872 -0.047088727
000050 1c e0 40 bd 1c e0 40 bd 1c e0 40 bd f7 48 c6 bf
       -0.047088727 -0.047088727 -0.047088727 -1.5491017
000060 1b e0 40 bd 1c e0 40 bd 1d e0 40 bd 1b e0 40 bd
       -0.047088724 -0.047088727 -0.04708873 -0.047088724
000070 69 aa a7 3f 1c e0 40 bd 8b 48 c6 bf 1a e0 40 bd
       1.309888 -0.047088727 -1.5490888 -0.04708872
000080 1c e0 40 bd 1b e0 40 bd 18 e0 40 bd 1c e0 40 bd
       -0.047088727 -0.047088724 -0.047088712 -0.047088727
000090 1d e0 40 bd 15 e0 40 bd 1b e0 40 bd 1b e0 40 bd
       -0.04708873 -0.0470887 -0.047088724 -0.047088724
0000a0 1d e0 40 bd 1b e0 40 bd 1b e0 40 bd 8f 99 a8 3f
       -0.04708873 -0.047088724 -0.047088724 1.3171862
0000b0 18 e0 40 bd 57 45 c6 bf 1b e0 40 bd 1d e0 40 bd
       -0.047088712 -1.5489911 -0.047088724 -0.04708873
0000c0 17 e0 40 bd 18 e0 40 bd
       -0.04708871 -0.047088712

exp_avg_sq f4 [50, 1]
000000 65 cf 47 2e 21 d2 47 2e fe cf 47 2e c8 d2 47 2e
       4.5431565e-11 4.5433993e-11 4.5432096e-11 4.5434573e-11
000010 16 db 47 2e 3a d2 47 2e fe ce 47 2e fa eb e8 2c
       4.544195e-11 4.543408e-11 4.5431207e-11 6.6200352e-12
000020 01 d1 47 2e 62 d0 47 2e b7 d1 47 2e 45 d5 47 2e
       4.5432994e-11 4.5432443e-11 4.5433626e-11 4.5436783e-11
000030 ea cf 47 2e 08 cf 47 2e 0f 20 48 2e 57 cf 47 2e
       4.5432026e-11 4.5431242e-11 4.550321e-11 4.5431516e-11
000040 1e 05 48 2e a8 8d 24 32 49 d3 47 2e 82 d0 47 2e
       4.547928e-11 9.578265e-09 4.543502e-11 4.5432554e-11
000050 32 cf 47 2e 13 d0 47 2e 4e d3 47 2e ff e1 47 2e
       4.5431388e-11 4.543217e-11 4.5435038e-11 4.5448086e-11
000060 36 cf 47 2e 86 cf 47 2e a5 cf 47 2e f0 d2 47 2e
       4.54314e-11 4.543168e-11 4.5431787e-11 4.543471e-11
000070 29 cf 47 2e 75 d6 47 2e 2c d4 47 2e 59 d7 47 2e
       4.5431357e-11 4.5437838e-11 4.5435808e-11 4.543863e-11
000080 d4 d3 47 2e d3 d0 47 2e 48 d1 47 2e 73 d2 47 2e
       4.5435503e-11 4.5432835e-11 4.543324e-11 4.5434278e-11
000090 fc ce 47 2e c6 d1 47 2e f4 d5 47 2e 79 d3 47 2e
       4.54312e-11 4.5433678e-11 4.543739e-11 4.5435187e-11
0000a0 3c 2c e8 2c fc da 47 2e 53 d1 47 2e 54 d4 47 2e
       6.5987476e-12 4.544186e-11 4.543328e-11 4.5435947e-11
0000b0 aa ce 47 2e 4f d9 47 2e 16 d1 47 2e 6b d1 47 2e
       4.5430916e-11 4.544037e-11 4.5433067e-11 4.5433362e-11
0000c0 57 d0 47 2e 7e 89 0d 32
       4.5432404e-11 8.238542e-09

exp_avg f4 [50, 1]
000000 c9 67 1a b0 19 c4 17 b0 76 9a 18 b0 ce 13 1a b0
       -5.617236e-10 -5.521215e-10 -5.551678e-10 -5.605302e-10
000010 d0 67 1a b0 ef 67 1a b0 2e c6 1b b0 b3 8d 8f 2f
       -5.61724e-10 -5.617257e-10 -5.66703e-10 2.6112232e-10
000020 d7 23 18 b0 03 7d 1a b0 0d 71 1a b0 1a c4 17 b0
       -5.534821e-10 -5.6202526e-10 -5.618553e-10 -5.5212157e-10
000030 c9 67 1a b0 3f 1b 1b b0 fd e4 17 b0 c9 67 1a b0
       -5.617236e-10 -5.642739e-10 -5.525889e-10 -5.617236e-10
000040 47 04 19 b0 8f 7f 82 34 b4 bb 19 b0 cb 67 1a b0
       -5.5667154e-10 2.4307198e-07 -5.592782e-10 -5.617237e-10
000050 c9 67 1a b0 b4 bb 19 b0 36 ea 1a b0 8d 3d 18 b0
       -5.617236e-10 -5.592782e-10 -5.635771e-10 -5.5384747e-10
000060 b0 14 1a b0 e8 81 19 b0 c9 67 1a b0 8b d7 1a b0
       -5.605427e-10 -5.5845684e-10 -5.617236e-10 -5.633118e-10
000070 7b c6 1b b0 a2 c7 19 b0 a6 c7 19 b0 27 0a 19 b0
       -5.667073e-10 -5.594477e-10 -5.5944793e-10 -5.5675503e-10
000080 83 e7 18 b0 d7 23 18 b0 81 c6 1b b0 8c 03 1a b0
       -5.5626276e-10 -5.534821e-10 -5.667076e-10 -5.6029914e-10
000090 35 8c 1a b0 f2 70 1a b0 81 5a 19 b0 22 0a 19 b0
       -5.622412e-10 -5.618538e-10 -5.578969e-10 -5.5675475e-10
0000a0 7d e8 7d 2f ba ab 1a b0 a1 1a 1b b0 a2 c7 19 b0
       2.3092812e-10 -5.626891e-10 -5.6426513e-10 -5.594477e-10
0000b0 4c c9 18 b0 07 7d 1a b0 83 e7 18 b0 3f 09 19 b0
       -5.558334e-10 -5.620255e-10 -5.5626276e-10 -5.5674215e-10
0000c0 7b c6 1b b0 1d 39 a2 b4
       -5.667073e-10 -3.0216407e-07

exp_avg_sq f4 [50]
000000 2f b1 05 2e 22 b2 05 2e 41 b1 05 2e 2c b6 05 2e
       3.039807e-11 3.0398913e-11 3.0398132e-11 3.04025e-11
000010 d2 b2 05 2e 4c b1 05 2e 73 b1 05 2e 27 e9 9d 31
       3.0399523e-11 3.039817e-11 3.0398305e-11 4.5958077e-09
000020 70 b7 05 2e f4 b1 05 2e 2b b5 05 2e 5c b5 05 2e
       3.0403624e-11 3.0398753e-11 3.040161e-11 3.040178e-11
000030 26 b1 05 2e 84 b1 05 2e 4d c0 05 2e 4b b1 05 2e
       3.0398038e-11 3.0398364e-11 3.0411496e-11 3.0398167e-11
000040 98 b1 05 2e ed b4 27 32 4d b2 05 2e 40 b2 05 2e
       3.0398434e-11 9.761817e-09 3.0399062e-11 3.0399017e-11
000050 4b b1 05 2e b1 b1 05 2e ea e0 05 2e b4 b8 05 2e
       3.0398167e-11 3.039852e-11 3.0440463e-11 3.0404748e-11
000060 6f b1 05 2e 2c b1 05 2e 58 b5 05 2e 57 b1 05 2e
       3.039829e-11 3.039806e-11 3.0401764e-11 3.0398208e-11
000070 05 b2 05 2e 09 b5 05 2e da b4 05 2e e7 b3 05 2e
       3.0398812e-11 3.040149e-11 3.0401327e-11 3.0400484e-11
000080 0c b7 05 2e b3 b6 05 2e 74 b3 05 2e 25 b2 05 2e
       3.0403277e-11 3.040297e-11 3.0400085e-11 3.0398923e-11
000090 a3 b1 05 2e 4d b1 05 2e cc b4 05 2e 0d b5 05 2e
       3.0398472e-11 3.0398174e-11 3.040128e-11 3.0401504e-11
0000a0 a5 e8 9d 31 ce b2 05 2e 89 b2 05 2e ad b1 05 2e
       4.59575e-09 3.039951e-11 3.039927e-11 3.0398507e-11
0000b0 5a bb 05 2e ed b4 05 2e 94 ba 05 2e aa b5 05 2e
       3.04071e-11 3.0401393e-11 3.0406413e-11 3.040205e-11
0000c0 ba b1 05 2e 5f 7f 10 32
       3.039855e-11 8.410864e-09

exp_avg f4 [50]
000000 87 c9 32 30 95 1c 32 30 81 c4 32 30 0c 9b 32 30
       6.504241e-10 6.479664e-10 6.503527e-10 6.497636e-10
000010 c3 c8 32 30 3e c9 32 30 22 c9 32 30 c4 68 8f b2
       6.504132e-10 6.5042005e-10 6.504185e-10 -1.6695033e-08
000020 27 c9 32 30 b2 e9 32 30 7b 8e 32 30 50 1b 32 30
       6.504188e-10 6.5088124e-10 6.49585e-10 6.4794836e-10
000030 84 c9 32 30 44 88 32 30 b0 2c 32 30 86 c9 32 30
       6.5042394e-10 6.494967e-10 6.481953e-10 6.5042405e-10
000040 4f e2 32 30 14 7e dd 34 50 5e 32 30 11 c9 32 30
       6.5077627e-10 4.1256192e-07 6.489005e-10 6.5041755e-10
000050 86 c9 32 30 3d 5e 32 30 42 c6 32 30 e5 33 32 30
       6.5042405e-10 6.4889943e-10 6.5037764e-10 6.482977e-10
000060 1a a2 32 30 91 19 33 30 e8 c9 32 30 74 c0 32 30
       6.4986383e-10 6.515615e-10 6.504295e-10 6.5029515e-10
000070 06 c2 32 30 25 bc 32 30 e8 bc 32 30 0e 95 32 30
       6.5031747e-10 6.502339e-10 6.5024475e-10 6.496784e-10
000080 2f 55 32 30 59 c9 32 30 6b c9 32 30 a0 09 33 30
       6.4877076e-10 6.5042155e-10 6.5042255e-10 6.51335e-10
000090 3c 96 32 30 e1 8e 32 30 57 31 32 30 20 95 32 30
       6.496952e-10 6.4959066e-10 6.482614e-10 6.496794e-10
0000a0 bb 19 91 b2 91 ba 32 30 da a8 32 30 f6 bb 32 30
       -1.6891923e-08 6.502115e-10 6.4995975e-10 6.502313e-10
0000b0 6d 1c 32 30 5c e9 32 30 e3 55 32 30 fc 9e 32 30
       6.479642e-10 6.5087646e-10 6.4878075e-10 6.4981953e-10
0000c0 d1 c3 32 30 e5 97 ee b4
       6.5034295e-10 -4.4441472e-07

exp_avg_sq f4 [50, 1]
000000 46 d1 91 2e 4c d4 91 2e 4a d1 91 2e 87 d1 91 2e
       6.631011e-11 6.631548e-11 6.631014e-11 6.631056e-11
000010 6d d1 91 2e 40 d1 91 2e 47 d2 91 2e 8e d1 91 2e
       6.631038e-11 6.631007e-11 6.6311893e-11 6.631061e-11
000020 73 d8 91 2e d3 d1 91 2e b0 d1 91 2e 98 d1 91 2e
       6.632286e-11 6.631109e-11 6.6310846e-11 6.631068e-11
000030 ad d1 91 2e 04 dd 91 2e 3b d1 91 2e ac 2c 58 2f
       6.6310825e-11 6.633097e-11 6.6310034e-11 1.9660956e-10
000040 3d d1 91 2e 89 d1 91 2e 6e d1 91 2e 38 d1 91 2e
       6.631005e-11 6.6310575e-11 6.631039e-11 6.631001e-11
000050 64 d2 91 2e 93 d1 91 2e 7a d1 91 2e d4 05 54 33
       6.6312095e-11 6.6310644e-11 6.631047e-11 4.9365397e-08
000060 0b dc 91 2e 66 d2 91 2e 72 d1 91 2e 46 d1 91 2e
       6.632924e-11 6.631211e-11 6.6310415e-11 6.631011e-11
000070 ba aa 61 2f 36 d1 91 2e 73 04 54 33 74 d1 91 2e
       2.0524285e-10 6.631e-11 4.9364143e-08 6.631043e-11
000080 a4 d1 91 2e dd d1 91 2e 3d d1 91 2e 7a d1 91 2e
       6.631076e-11 6.631116e-11 6.631005e-11 6.631047e-11
000090 53 d1 91 2e 04 d4 91 2e d9 d1 91 2e 3d d1 91 2e
       6.63102e-11 6.631498e-11 6.631113e-11 6.631005e-11
0000a0 64 d1 91 2e 98 d8 91 2e 43 d1 91 2e 2f e4 5b 2f
       6.631032e-11 6.6323114e-11 6.631009e-11 1.9999001e-10
0000b0 d9 d1 91 2e 0a f9 53 33 eb d1 91 2e 65 d1 91 2e
       6.631113e-11 4.9353766e-08 6.6311255e-11 6.6310325e-11
0000c0 21 d2 91 2e c1 d3 91 2e
       6.631163e-11 6.6314516e-11

exp_avg f4 [50, 1]
000000 bf b6 07 b5 b4 b6 07 b5 f9 b6 07 b5 a3 b6 07 b5
       -5.055735e-07 -5.0557287e-07 -5.055768e-07 -5.055719e-07
000010 af b6 07 b5 bf b6 07 b5 0e b7 07 b5 7c b6 07 b5
       -5.055726e-07 -5.055735e-07 -5.05578e-07 -5.055697e-07
000020 ee b6 07 b5 ea b6 07 b5 0d b7 07 b5 9e b6 07 b5
       -5.0557617e-07 -5.0557594e-07 -5.0557793e-07 -5.055716e-07
000030 2b b7 07 b5 b6 b6 07 b5 bf b6 07 b5 e9 17 6f 35
       -5.0557964e-07 -5.05573e-07 -5.055735e-07 8.906923e-07
000040 bf b6 07 b5 f4 b6 07 b5 c4 b6 07 b5 df b6 07 b5
       -5.055735e-07 -5.055765e-07 -5.055738e-07 -5.055753e-07
000050 24 b7 07 b5 2b b7 07 b5 2b b7 07 b5 2f 6a 6f b7
       -5.0557924e-07 -5.0557964e-07 -5.0557964e-07 -1.4270233e-05
000060 12 b7 07 b5 24 b7 07 b5 b0 b6 07 b5 bf b6 07 b5
       -5.055782e-07 -5.0557924e-07 -5.0557264e-07 -5.055735e-07
000070 b0 c1 78 35 df b6 07 b5 77 67 6f b7 c4 b6 07 b5
       9.266905e-07 -5.055753e-07 -1.42696e-05 -5.055738e-07
000080 2b b7 07 b5 0b b7 07 b5 b8 b6 07 b5 2b b7 07 b5
       -5.0557964e-07 -5.055778e-07 -5.055731e-07 -5.0557964e-07
000090 b0 b6 07 b5 92 b6 07 b5 13 b7 07 b5 bf b6 07 b5
       -5.0557264e-07 -5.0557094e-07 -5.0557827e-07 -5.055735e-07
0000a0 b0 b6 07 b5 90 b6 07 b5 bf b6 07 b5 4f fb 72 35
       -5.0557264e-07 -5.055708e-07 -5.055735e-07 9.051773e-07
0000b0 8e b6 07 b5 1c 53 6f b7 12 b7 07 b5 b4 b6 07 b5
       -5.055707e-07 -1.42648605e-05 -5.055782e-07 -5.0557287e-07
0000c0 66 b6 07 b5 78 b6 07 b5
       -5.0556844e-07 -5.0556946e-07

exp_avg_sq f4 [1, 50]
000000 44 67 8b 33 b4 4e b1 32 a6 66 8b 33 70 67 8b 33
       6.491476e-08 2.0641302e-08 6.4913635e-08 6.491507e-08
000010 e7 58 d2 33 45 59 d2 33 c6 66 8b 33 cd 67 8b 33
       9.795058e-08 9.795125e-08 6.491386e-08 6.491573e-08
000020 1c 67 8b 33 87 66 8b 33 74 59 d2 33 50 50 b1 32
       6.4914474e-08 6.4913415e-08 9.7951585e-08 2.0642034e-08
000030 8d 66 8b 33 8a 58 d2 33 89 66 8b 33 c3 58 d2 33
       6.491346e-08 9.794992e-08 6.491343e-08 9.795033e-08
000040 81 66 8b 33 6d 59 d2 33 10 59 d2 33 7a 66 8b 33
       6.491337e-08 9.7951535e-08 9.7950874e-08 6.491332e-08
000050 8c 66 8b 33 95 66 8b 33 88 66 8b 33 a7 66 8b 33
       6.491345e-08 6.4913515e-08 6.491342e-08 6.491364e-08
000060 58 58 d2 33 45 59 d2 33 af 67 8b 33 e9 58 d2 33
       9.794957e-08 9.795125e-08 6.491552e-08 9.79506e-08
000070 d8 66 8b 33 75 67 8b 33 91 59 d2 33 89 66 8b 33
       6.491399e-08 6.4915106e-08 9.795179e-08 6.491343e-08
000080 8b 66 8b 33 86 66 8b 33 7f 66 8b 33 8e 66 8b 33
       6.491344e-08 6.491341e-08 6.491336e-08 6.4913465e-08
000090 61 58 d2 33 7a 66 8b 33 78 66 8b 33 77 66 8b 33
       9.794963e-08 6.491332e-08 6.491331e-08 6.49133e-08
0000a0 b0 66 8b 33 c2 58 d2 33 26 67 8b 33 d9 58 d2 33
       6.4913706e-08 9.795032e-08 6.4914545e-08 9.795048e-08
0000b0 83 67 8b 33 91 66 8b 33 f7 41 b1 32 53 59 d2 33
       6.4915206e-08 6.4913486e-08 2.063551e-08 9.795135e-08
0000c0 39 59 d2 33 90 58 d2 33
       9.7951165e-08 9.7949965e-08

exp_avg f4 [1, 50]
000000 60 b8 87 37 0d cf 19 37 7f b8 87 37 77 b8 87 37
       1.617911e-05 9.167718e-06 1.6179167e-05 1.6179152e-05
000010 74 e6 a6 37 67 e6 a6 37 72 b8 87 37 5a b8 87 37
       1.9896055e-05 1.9896032e-05 1.6179143e-05 1.61791e-05
000020 68 b8 87 37 5e b8 87 37 8e e6 a6 37 61 15 1a 37
       1.6179125e-05 1.6179107e-05 1.9896102e-05 9.184093e-06
000030 7f b8 87 37 6a e6 a6 37 7f b8 87 37 9a e6 a6 37
       1.6179167e-05 1.9896037e-05 1.6179167e-05 1.9896124e-05
000040 71 b8 87 37 62 e6 a6 37 7f e6 a6 37 7f b8 87 37
       1.6179141e-05 1.9896022e-05 1.9896075e-05 1.6179167e-05
000050 81 b8 87 37 6e b8 87 37 81 b8 87 37 51 b8 87 37
       1.617917e-05 1.6179136e-05 1.617917e-05 1.6179083e-05
000060 6f e6 a6 37 6e e6 a6 37 75 b8 87 37 74 e6 a6 37
       1.9896046e-05 1.9896044e-05 1.6179149e-05 1.9896055e-05
000070 79 b8 87 37 76 b8 87 37 4d e6 a6 37 7f b8 87 37
       1.6179156e-05 1.617915e-05 1.9895984e-05 1.6179167e-05
000080 5e b8 87 37 5c b8 87 37 81 b8 87 37 54 b8 87 37
       1.6179107e-05 1.6179103e-05 1.617917e-05 1.6179089e-05
000090 71 e6 a6 37 6a b8 87 37 86 b8 87 37 81 b8 87 37
       1.989605e-05 1.6179129e-05 1.617918e-05 1.617917e-05
0000a0 76 b8 87 37 99 e6 a6 37 6a b8 87 37 72 e6 a6 37
       1.617915e-05 1.9896122e-05 1.6179129e-05 1.9896052e-05
0000b0 60 b8 87 37 6c b8 87 37 4f 77 17 37 6e e6 a6 37
       1.617911e-05 1.6179132e-05 9.02808e-06 1.9896044e-05
0000c0 87 e6 a6 37 92 e6 a6 37
       1.989609e-05 1.989611e-05

exp_avg_sq f4 [1, 50]
000000 9d 45 9a 33 a8 45 9a 33 9d 45 9a 33 9f 45 9a 33
       7.1838464e-08 7.183854e-08 7.1838464e-08 7.183848e-08
000010 9d 45 9a 33 9d 45 9a 33 9d 45 9a 33 a1 45 9a 33
       7.1838464e-08 7.1838464e-08 7.1838464e-08 7.183849e-08
000020 a2 45 9a 33 9e 45 9a 33 9d 45 9a 33 9d 45 9a 33
       7.18385e-08 7.183847e-08 7.1838464e-08 7.1838464e-08
000030 9d 45 9a 33 ab 45 9a 33 9d 45 9a 33 0a 39 5a 34
       7.1838464e-08 7.183856e-08 7.1838464e-08 2.0323583e-07
000040 9d 45 9a 33 9d 45 9a 33 9d 45 9a 33 9d 45 9a 33
       7.1838464e-08 7.1838464e-08 7.1838464e-08 7.1838464e-08
000050 9f 45 9a 33 9d 45 9a 33 9d 45 9a 33 a4 4d a3 33
       7.183848e-08 7.1838464e-08 7.1838464e-08 7.604402e-08
000060 a1 45 9a 33 a3 45 9a 33 9e 45 9a 33 9d 45 9a 33
       7.183849e-08 7.183851e-08 7.183847e-08 7.1838464e-08
000070 10 d3 59 34 9d 45 9a 33 cb 4d a3 33 9d 45 9a 33
       2.0286484e-07 7.1838464e-08 7.6044294e-08 7.1838464e-08
000080 9d 45 9a 33 9d 45 9a 33 9d 45 9a 33 a3 45 9a 33
       7.1838464e-08 7.1838464e-08 7.1838464e-08 7.183851e-08
000090 9d 45 9a 33 a3 45 9a 33 9f 45 9a 33 9d 45 9a 33
       7.1838464e-08 7.183851e-08 7.183848e-08 7.1838464e-08
0000a0 9d 45 9a 33 a7 45 9a 33 9d 45 9a 33 a8 10 5a 34
       7.1838464e-08 7.1838535e-08 7.1838464e-08 2.0308892e-07
0000b0 9d 45 9a 33 ae 4e a3 33 9d 45 9a 33 9e 45 9a 33
       7.1838464e-08 7.604591e-08 7.1838464e-08 7.183847e-08
0000c0 a1 45 9a 33 9d 45 9a 33
       7.183849e-08 7.1838464e-08

exp_avg f4 [1, 50]
000000 0e c3 8e b7 ed c2 8e b7 26 c3 8e b7 04 c3 8e b7
       -1.7018549e-05 -1.7018489e-05 -1.7018592e-05 -1.701853e-05
000010 14 c3 8e b7 0e c3 8e b7 20 c3 8e b7 eb c2 8e b7
       -1.701856e-05 -1.7018549e-05 -1.7018581e-05 -1.7018485e-05
000020 09 c3 8e b7 26 c3 8e b7 26 c3 8e b7 04 c3 8e b7
       -1.701854e-05 -1.7018592e-05 -1.7018592e-05 -1.701853e-05
000030 15 c3 8e b7 05 c3 8e b7 0e c3 8e b7 b5 90 ea b7
       -1.7018561e-05 -1.7018532e-05 -1.7018549e-05 -2.7962358e-05
000040 0e c3 8e b7 25 c3 8e b7 1e c3 8e b7 17 c3 8e b7
       -1.7018549e-05 -1.701859e-05 -1.7018578e-05 -1.7018565e-05
000050 15 c3 8e b7 15 c3 8e b7 15 c3 8e b7 e7 55 93 b7
       -1.7018561e-05 -1.7018561e-05 -1.7018561e-05 -1.7563767e-05
000060 20 c3 8e b7 15 c3 8e b7 19 c3 8e b7 14 c3 8e b7
       -1.7018581e-05 -1.7018561e-05 -1.7018569e-05 -1.701856e-05
000070 8c b6 f5 b7 17 c3 8e b7 92 52 93 b7 1e c3 8e b7
       -2.9291281e-05 -1.7018565e-05 -1.7562215e-05 -1.7018578e-05
000080 15 c3 8e b7 26 c3 8e b7 05 c3 8e b7 16 c3 8e b7
       -1.7018561e-05 -1.7018592e-05 -1.7018532e-05 -1.7018563e-05
000090 14 c3 8e b7 ef c2 8e b7 22 c3 8e b7 0e c3 8e b7
       -1.701856e-05 -1.7018492e-05 -1.7018585e-05 -1.7018549e-05
0000a0 14 c3 8e b7 1c c3 8e b7 0e c3 8e b7 b2 0e ef b7
       -1.701856e-05 -1.7018574e-05 -1.7018549e-05 -2.8497863e-05
0000b0 ee c2 8e b7 4d 38 93 b7 28 c3 8e b7 17 c3 8e b7
       -1.701849e-05 -1.7549983e-05 -1.7018596e-05 -1.7018565e-05
0000c0 e2 c2 8e b7 fa c2 8e b7
       -1.7018468e-05 -1.7018512e-05

exp_avg_sq f4 [50, 1]
000000 9d eb b8 30 f1 06 e6 2f 6d eb b8 30 56 eb b8 30
       1.3454727e-09 4.1841688e-10 1.3454674e-09 1.3454649e-09
000010 d0 33 8e 30 0c 34 8e 30 68 eb b8 30 b0 eb b8 30
       1.0346586e-09 1.0346652e-09 1.3454668e-09 1.3454748e-09
000020 0a ea b8 30 99 eb b8 30 df 33 8e 30 23 06 e6 2f
       1.345428e-09 1.3454723e-09 1.0346602e-09 4.1841117e-10
000030 76 eb b8 30 39 34 8e 30 6d eb b8 30 e3 33 8e 30
       1.3454684e-09 1.0346702e-09 1.3454674e-09 1.0346607e-09
000040 9c eb b8 30 e6 33 8e 30 c7 33 8e 30 77 eb b8 30
       1.3454726e-09 1.034661e-09 1.0346576e-09 1.3454685e-09
000050 83 eb b8 30 60 eb b8 30 aa eb b8 30 a3 eb b8 30
       1.3454698e-09 1.345466e-09 1.3454742e-09 1.3454734e-09
000060 f2 33 8e 30 3a 34 8e 30 63 eb b8 30 1e 34 8e 30
       1.0346624e-09 1.0346703e-09 1.3454663e-09 1.0346672e-09
000070 6a eb b8 30 66 eb b8 30 ab 33 8e 30 73 eb b8 30
       1.3454671e-09 1.3454666e-09 1.0346545e-09 1.3454681e-09
000080 e7 eb b8 30 b7 eb b8 30 be eb b8 30 cd eb b8 30
       1.345481e-09 1.3454756e-09 1.3454764e-09 1.3454781e-09
000090 ee 33 8e 30 78 eb b8 30 b5 eb b8 30 a7 eb b8 30
       1.0346619e-09 1.3454686e-09 1.3454754e-09 1.3454738e-09
0000a0 a2 eb b8 30 d1 33 8e 30 55 eb b8 30 4e 34 8e 30
       1.3454733e-09 1.0346587e-09 1.3454647e-09 1.0346726e-09
0000b0 b8 eb b8 30 64 eb b8 30 06 0b e6 2f 2a 34 8e 30
       1.3454757e-09 1.3454664e-09 4.184459e-10 1.0346686e-09
0000c0 03 34 8e 30 d3 33 8e 30
       1.0346642e-09 1.0346589e-09

exp_avg f4 [50, 1]
000000 ae e7 1c 36 70 a1 ac b5 6a e7 1c 36 68 e7 1c 36
       2.3380667e-06 -1.2861983e-06 2.3380512e-06 2.3380508e-06
000010 9d 01 08 b6 2b 01 08 b6 90 e7 1c 36 72 e7 1c 36
       -2.0266518e-06 -2.026626e-06 2.3380599e-06 2.338053e-06
000020 b4 e8 1c 36 80 e7 1c 36 dc 01 08 b6 16 5b ac b5
       2.3381263e-06 2.3380562e-06 -2.0266662e-06 -1.2841508e-06
000030 6a e7 1c 36 a3 01 08 b6 6a e7 1c 36 43 01 08 b6
       2.3380512e-06 -2.0266532e-06 2.3380512e-06 -2.0266314e-06
000040 da e7 1c 36 2e 01 08 b6 2c 01 08 b6 6a e7 1c 36
       2.3380767e-06 -2.0266266e-06 -2.0266261e-06 2.3380512e-06
000050 2c e7 1c 36 6d e7 1c 36 2c e7 1c 36 80 e7 1c 36
       2.3380371e-06 2.338052e-06 2.3380371e-06 2.3380562e-06
000060 30 01 08 b6 2b 01 08 b6 73 e7 1c 36 9d 01 08 b6
       -2.026627e-06 -2.026626e-06 2.3380533e-06 -2.0266518e-06
000070 5a e7 1c 36 4c e8 1c 36 d0 00 08 b6 6a e7 1c 36
       2.3380476e-06 2.3381026e-06 -2.0266052e-06 2.3380512e-06
000080 80 e7 1c 36 80 e7 1c 36 fe e7 1c 36 9f e7 1c 36
       2.3380562e-06 2.3380562e-06 2.3380849e-06 2.3380633e-06
000090 30 01 08 b6 4a e7 1c 36 fe e7 1c 36 2c e7 1c 36
       -2.026627e-06 2.338044e-06 2.3380849e-06 2.3380371e-06
0000a0 e8 e7 1c 36 38 01 08 b6 32 e7 1c 36 25 01 08 b6
       2.3380799e-06 -2.0266289e-06 2.3380385e-06 -2.0266245e-06
0000b0 b1 e7 1c 36 87 e7 1c 36 9a aa ae b5 2b 01 08 b6
       2.3380674e-06 2.3380578e-06 -1.3013662e-06 -2.026626e-06
0000c0 54 01 08 b6 7d 01 08 b6
       -2.0266352e-06 -2.0266446e-06

exp_avg_sq f4 [50]
000000 79 3c 29 2e 5e 42 29 2e 97 3c 29 2e 27 3d 29 2e
       3.847986e-11 3.8485097e-11 3.8479966e-11 3.8480465e-11
000010 90 3c 29 2e 76 3c 29 2e 0a 3d 29 2e 68 3e 29 2e
       3.847994e-11 3.847985e-11 3.8480365e-11 3.848158e-11
000020 20 3d 29 2e a1 3c 29 2e d4 3c 29 2e 4c 3d 29 2e
       3.848044e-11 3.848e-11 3.8480177e-11 3.8480594e-11
000030 a5 3c 29 2e 52 3f 29 2e 76 3c 29 2e 41 15 2c 31
       3.8480014e-11 3.848239e-11 3.847985e-11 2.5041376e-09
000040 73 3c 29 2e e9 3c 29 2e 7e 3c 29 2e 74 3c 29 2e
       3.847984e-11 3.848025e-11 3.847988e-11 3.8479844e-11
000050 8e 3d 29 2e 0e 3d 29 2e f5 3c 29 2e cb d0 bd 32
       3.8480823e-11 3.848038e-11 3.8480292e-11 2.2097444e-08
000060 0e 3e 29 2e bf 3c 29 2e 2f 3d 29 2e b8 3c 29 2e
       3.8481267e-11 3.8480105e-11 3.8480493e-11 3.848008e-11
000070 47 39 2b 31 7c 3c 29 2e a1 cf bd 32 22 3d 29 2e
       2.4916333e-09 3.8479872e-11 2.2096915e-08 3.8480448e-11
000080 eb 3c 29 2e d6 3c 29 2e 91 3c 29 2e ac 3f 29 2e
       3.8480257e-11 3.8480184e-11 3.8479945e-11 3.8482703e-11
000090 95 3c 29 2e ad 41 29 2e 0a 3e 29 2e 73 3c 29 2e
       3.847996e-11 3.8484483e-11 3.8481253e-11 3.847984e-11
0000a0 8f 3c 29 2e 15 3d 29 2e 7b 3c 29 2e 1a be 2b 31
       3.8479938e-11 3.8480403e-11 3.847987e-11 2.4991835e-09
0000b0 26 3d 29 2e c8 c6 bd 32 c7 3c 29 2e d7 3d 29 2e
       3.8480462e-11 2.2092891e-08 3.8480132e-11 3.8481076e-11
0000c0 54 4a 29 2e e6 3c 29 2e
       3.8492168e-11 3.848024e-11

exp_avg f4 [50]
000000 25 2d cb 34 82 2c cb 34 ea 2c cb 34 10 2d cb 34
       3.7844543e-07 3.784408e-07 3.7844376e-07 3.7844484e-07
000010 ed 2c cb 34 27 2d cb 34 f1 2c cb 34 90 2c cb 34
       3.7844384e-07 3.784455e-07 3.7844396e-07 3.784412e-07
000020 61 2d cb 34 f0 2c cb 34 f2 2c cb 34 14 2d cb 34
       3.7844714e-07 3.7844393e-07 3.7844399e-07 3.7844495e-07
000030 23 2d cb 34 ca 2c cb 34 27 2d cb 34 11 a9 4e b6
       3.7844538e-07 3.7844285e-07 3.784455e-07 -3.0794802e-06
000040 25 2d cb 34 e6 2c cb 34 34 2d cb 34 28 2d cb 34
       3.7844543e-07 3.7844364e-07 3.7844586e-07 3.7844552e-07
000050 20 2d cb 34 25 2d cb 34 25 2d cb 34 61 ea 1e 37
       3.784453e-07 3.7844543e-07 3.7844543e-07 9.4721045e-06
000060 00 2d cb 34 20 2d cb 34 e2 2c cb 34 20 2d cb 34
       3.7844438e-07 3.784453e-07 3.7844353e-07 3.784453e-07
000070 e8 c8 53 b6 28 2d cb 34 46 ed 1e 37 2f 2d cb 34
       -3.1558393e-06 3.7844552e-07 9.472778e-06 3.7844572e-07
000080 26 2d cb 34 04 2d cb 34 19 2d cb 34 18 2d cb 34
       3.7844546e-07 3.784445e-07 3.784451e-07 3.7844507e-07
000090 ed 2c cb 34 b7 2c cb 34 00 2d cb 34 25 2d cb 34
       3.7844384e-07 3.784423e-07 3.7844438e-07 3.7844543e-07
0000a0 ed 2c cb 34 11 2d cb 34 26 2d cb 34 68 b6 50 b6
       3.7844384e-07 3.7844487e-07 3.7844546e-07 -3.110059e-06
0000b0 c9 2c cb 34 aa 00 1f 37 f2 2c cb 34 e1 2c cb 34
       3.7844282e-07 9.477293e-06 3.7844399e-07 3.784435e-07
0000c0 6b 2c cb 34 15 2d cb 34
       3.7844015e-07 3.7844498e-07

exp_avg_sq f4 [50]
000000 55 cd 6e 30 73 bb a4 31 5c cd 6e 30 43 cd 6e 30
       8.687569e-10 4.7943387e-09 8.687573e-10 8.687559e-10
000010 5b 42 37 30 78 42 37 30 4e cd 6e 30 74 cd 6e 30
       6.666931e-10 6.666947e-10 8.687565e-10 8.687586e-10
000020 a0 cb 6e 30 5b cd 6e 30 52 42 37 30 1a d7 a4 31
       8.6873264e-10 8.6875723e-10 6.666926e-10 4.7974824e-09
000030 5b cd 6e 30 a3 42 37 30 57 cd 6e 30 63 42 37 30
       8.6875723e-10 6.666971e-10 8.68757e-10 6.6669353e-10
000040 5a cd 6e 30 5d 42 37 30 54 42 37 30 6e cd 6e 30
       8.687572e-10 6.666932e-10 6.666927e-10 8.687583e-10
000050 77 cd 6e 30 4e cd 6e 30 68 cd 6e 30 96 cd 6e 30
       8.687588e-10 8.687565e-10 8.6875795e-10 8.687605e-10
000060 80 42 37 30 a4 42 37 30 56 cd 6e 30 82 42 37 30
       6.6669514e-10 6.6669714e-10 8.6875696e-10 6.6669525e-10
000070 67 cd 6e 30 4d cd 6e 30 0f 42 37 30 57 cd 6e 30
       8.687579e-10 8.6875646e-10 6.6668887e-10 8.68757e-10
000080 e6 cc 6e 30 78 cd 6e 30 6e cd 6e 30 9c cd 6e 30
       8.6875074e-10 8.6875884e-10 8.687583e-10 8.6876084e-10
000090 77 42 37 30 5e cd 6e 30 92 cd 6e 30 70 cd 6e 30
       6.6669464e-10 8.687574e-10 8.687603e-10 8.687584e-10
0000a0 70 cd 6e 30 5a 42 37 30 44 cd 6e 30 a6 42 37 30
       8.687584e-10 6.6669303e-10 8.6875596e-10 6.6669725e-10
0000b0 51 cd 6e 30 2d cd 6e 30 eb d8 a3 31 9d 42 37 30
       8.687567e-10 8.687547e-10 4.768585e-09 6.6669675e-10
0000c0 7f 42 37 30 73 42 37 30
       6.666951e-10 6.666944e-10

exp_avg f4 [50]
000000 91 11 fc b5 e9 fb 92 36 54 11 fc b5 90 11 fc b5
       -1.8780576e-06 4.3804653e-06 -1.8780506e-06 -1.8780574e-06
000010 fd d2 da 35 ff d2 da 35 72 11 fc b5 41 11 fc b5
       1.6303671e-06 1.6303674e-06 -1.878054e-06 -1.8780485e-06
000020 4a 12 fc b5 58 11 fc b5 0b d3 da 35 60 17 93 36
       -1.8780786e-06 -1.8780511e-06 1.6303687e-06 4.3836626e-06
000030 54 11 fc b5 d8 d2 da 35 54 11 fc b5 99 d2 da 35
       -1.8780506e-06 1.6303629e-06 -1.8780506e-06 1.6303558e-06
000040 af 11 fc b5 e6 d2 da 35 eb d2 da 35 54 11 fc b5
       -1.878061e-06 1.6303645e-06 1.6303651e-06 -1.8780506e-06
000050 4c 11 fc b5 69 11 fc b5 44 11 fc b5 51 11 fc b5
       -1.8780497e-06 -1.878053e-06 -1.8780488e-06 -1.8780503e-06
000060 53 d3 da 35 13 d3 da 35 95 11 fc b5 fd d2 da 35
       1.6303769e-06 1.6303696e-06 -1.878058e-06 1.6303671e-06
000070 51 11 fc b5 d2 11 fc b5 de d2 da 35 54 11 fc b5
       -1.8780503e-06 -1.878065e-06 1.6303636e-06 -1.8780506e-06
000080 67 11 fc b5 61 11 fc b5 05 12 fc b5 96 11 fc b5
       -1.8780528e-06 -1.8780521e-06 -1.8780707e-06 -1.8780581e-06
000090 40 d3 da 35 53 11 fc b5 01 12 fc b5 49 11 fc b5
       1.6303748e-06 -1.8780505e-06 -1.8780703e-06 -1.8780494e-06
0000a0 14 12 fc b5 70 d2 da 35 5a 11 fc b5 46 d3 da 35
       -1.8780725e-06 1.6303511e-06 -1.8780513e-06 1.6303754e-06
0000b0 a3 11 fc b5 6d 11 fc b5 38 0d 92 36 13 d3 da 35
       -1.8780596e-06 -1.8780535e-06 4.352678e-06 1.6303696e-06
0000c0 28 d3 da 35 52 d3 da 35
       1.630372e-06 1.6303768e-06

exp_avg_sq f4 [1, 50]
000000 49 59 8c 33 67 59 8c 33 49 59 8c 33 67 59 8c 33
       6.535499e-08 6.53552e-08 6.535499e-08 6.53552e-08
000010 4e 59 8c 33 42 59 8c 33 42 59 8c 33 d8 df 4e 34
       6.5355025e-08 6.535494e-08 6.535494e-08 1.9266679e-07
000020 55 59 8c 33 42 59 8c 33 43 59 8c 33 7c 59 8c 33
       6.5355074e-08 6.535494e-08 6.5354946e-08 6.535535e-08
000030 42 59 8c 33 50 59 8c 33 62 59 8c 33 43 59 8c 33
       6.535494e-08 6.535504e-08 6.535517e-08 6.5354946e-08
000040 6d 59 8c 33 6f a4 b5 33 6f 59 8c 33 43 59 8c 33
       6.5355245e-08 8.4583796e-08 6.535526e-08 6.5354946e-08
000050 45 59 8c 33 43 59 8c 33 80 59 8c 33 bc 59 8c 33
       6.535496e-08 6.5354946e-08 6.535538e-08 6.5355806e-08
000060 43 59 8c 33 44 59 8c 33 49 59 8c 33 44 59 8c 33
       6.5354946e-08 6.535495e-08 6.535499e-08 6.535495e-08
000070 4d 59 8c 33 a2 59 8c 33 5e 59 8c 33 76 59 8c 33
       6.535502e-08 6.535562e-08 6.535514e-08 6.535531e-08
000080 6e 59 8c 33 52 59 8c 33 53 59 8c 33 45 59 8c 33
       6.535525e-08 6.535505e-08 6.535506e-08 6.535496e-08
000090 44 59 8c 33 44 59 8c 33 4a 59 8c 33 64 59 8c 33
       6.535495e-08 6.535495e-08 6.5354996e-08 6.535518e-08
0000a0 bc df 4e 34 4a 59 8c 33 a1 59 8c 33 4d 59 8c 33
       1.9266639e-07 6.5354996e-08 6.5355614e-08 6.535502e-08
0000b0 b4 59 8c 33 62 59 8c 33 62 59 8c 33 61 59 8c 33
       6.535575e-08 6.535517e-08 6.535517e-08 6.535516e-08
0000c0 4b 59 8c 33 5c e6 ba 33
       6.5355e-08 8.703202e-08

exp_avg f4 [1, 50]
000000 61 71 03 b3 ef ca 03 b3 46 ed 03 b3 77 93 03 b3
       -3.0603932e-08 -3.068538e-08 -3.0716613e-08 -3.0634933e-08
000010 d5 77 03 b3 67 71 03 b3 c4 95 03 b3 e0 3f c0 b1
       -3.06098e-08 -3.0603953e-08 -3.0637025e-08 -5.595197e-09
000020 a5 e7 03 b3 93 8e 03 b3 b7 69 03 b3 ee ca 03 b3
       -3.0711494e-08 -3.0630485e-08 -3.059696e-08 -3.0685378e-08
000030 61 71 03 b3 a7 d0 03 b3 01 e2 03 b3 61 71 03 b3
       -3.0603932e-08 -3.0690583e-08 -3.0706364e-08 -3.0603932e-08
000040 c4 05 04 b3 47 68 f0 35 ba 9b 03 b3 f2 70 03 b3
       -3.073889e-08 1.7911742e-06 -3.0642447e-08 -3.0603537e-08
000050 61 71 03 b3 ba 9b 03 b3 77 e5 03 b3 f8 c5 03 b3
       -3.0603932e-08 -3.0642447e-08 -3.070951e-08 -3.0680866e-08
000060 de 91 03 b3 1e b5 03 b3 a1 71 03 b3 43 e1 03 b3
       -3.063348e-08 -3.066554e-08 -3.060416e-08 -3.070569e-08
000070 ce 95 03 b3 0b a5 03 b3 03 a5 03 b3 aa ef 03 b3
       -3.063706e-08 -3.065092e-08 -3.065089e-08 -3.0718788e-08
000080 40 e7 03 b3 a5 e7 03 b3 d0 95 03 b3 ca b2 03 b3
       -3.0711135e-08 -3.0711494e-08 -3.0637068e-08 -3.0663422e-08
000090 94 7e 03 b3 bb 69 03 b3 fb bd 03 b3 a9 ef 03 b3
       -3.0615936e-08 -3.0596976e-08 -3.06736e-08 -3.0718784e-08
0000a0 43 a6 26 b2 84 53 03 b3 84 84 03 b3 04 a5 03 b3
       -9.700275e-09 -3.057677e-08 -3.0621337e-08 -3.0650895e-08
0000b0 a9 74 03 b3 95 8e 03 b3 40 e7 03 b3 be ef 03 b3
       -3.0606916e-08 -3.0630492e-08 -3.0711135e-08 -3.071886e-08
0000c0 cd 95 03 b3 76 6f 04 b6
       -3.0637057e-08 -1.9734412e-06

exp_avg_sq f4 [50, 1]
000000 0e aa 45 2f c3 b3 45 2f 68 a2 45 2f 90 b0 45 2f
       1.7977461e-10 1.798091e-10 1.7974744e-10 1.7979773e-10
000010 b8 88 45 2f 97 a4 45 2f 25 94 e3 2e 01 90 45 2f
       1.7965618e-10 1.797552e-10 1.03490806e-10 1.7968206e-10
000020 ab 9e 45 2f f3 37 e6 2e 93 7d ea 2e 40 c2 45 2f
       1.7973416e-10 1.04691276e-10 1.06633945e-10 1.7986057e-10
000030 d2 d7 45 2f 6a a3 45 2f 9d af 45 2f 59 a9 45 2f
       1.799372e-10 1.7975102e-10 1.7979436e-10 1.797721e-10
000040 83 88 45 2f 34 9a d9 2e 3a b3 45 2f e6 a3 e8 2e
       1.7965544e-10 9.8954095e-11 1.798072e-10 1.0579253e-10
000050 27 51 45 2f 0c 38 f0 2e 97 a2 45 2f eb a4 45 2f
       1.7945877e-10 1.0923892e-10 1.7974809e-10 1.7975636e-10
000060 f1 10 d8 2e 69 ab 45 2f 67 b0 45 2f f5 a7 45 2f
       9.825552e-11 1.7977943e-10 1.7979716e-10 1.7976716e-10
000070 70 74 e7 2e 9d ab 45 2f 59 4f 45 2f 4a cb 45 2f
       1.0525347e-10 1.7978015e-10 1.7945236e-10 1.7989268e-10
000080 d5 8e 34 2f 19 26 ea 2e 20 37 d8 2e 6b b5 45 2f
       1.6421649e-10 1.06478555e-10 9.832335e-11 1.7981498e-10
000090 3f a3 b5 2e 0a f1 43 2f 22 b8 45 2f 0b ae 45 2f
       8.2599254e-11 1.7820781e-10 1.7982463e-10 1.7978878e-10
0000a0 90 a2 e5 2e c9 bc e9 2e 1d b4 30 30 a2 62 c0 2e
       1.0442591e-10 1.0629148e-10 6.4284383e-10 8.74867e-11
0000b0 0c 6e 45 2f c3 b0 45 2f 1a be 45 2f 88 b8 ea 2e
       1.7956142e-10 1.7979844e-10 1.7984583e-10 1.0673867e-10
0000c0 f4 68 d3 2e 12 ad 45 2f
       9.6138125e-11 1.7978533e-10

exp_avg f4 [50, 1]
000000 c5 53 40 31 7f d2 3f 31 34 c9 3f 31 31 b9 40 31
       2.7987295e-09 2.7913811e-09 2.7908529e-09 2.8044946e-09
000010 86 a4 3a 31 09 d1 3e 31 df f1 96 30 bf 5e 3b 31
       2.7160083e-09 2.7767462e-09 1.098268e-09 2.7265938e-09
000020 7b 8f 3f 31 84 28 4d 2f 81 30 b1 b0 cb 0c 43 31
       2.7875717e-09 1.8659035e-10 -1.2892231e-09 2.8383507e-09
000030 fa 73 45 31 7f a8 3f 31 45 4e 40 31 c5 58 3f 31
       2.8733198e-09 2.7889937e-09 2.7984168e-09 2.7844618e-09
000040 b2 66 3c 31 b7 bf 9a 31 59 63 41 31 1a 7b 30 b0
       2.7415976e-09 4.5037853e-09 2.814167e-09 -6.4203365e-10
000050 d2 4c 33 31 f7 8e 5d b1 38 6b 3f 31 01 df 3f 31
       2.6091596e-09 -3.2240999e-09 2.7855105e-09 2.7920921e-09
000060 5e 24 ac 31 8c fe 3f 31 38 bd 41 31 bf 15 40 31
       5.0099933e-09 2.7938851e-09 2.8192755e-09 2.7952038e-09
000070 a5 d2 80 af cb 0a 40 31 32 b4 31 31 63 80 46 31
       -2.3432736e-10 2.7945812e-09 2.585932e-09 2.8885772e-09
000080 89 01 38 b2 63 cf 9f b0 6c c9 aa 31 1e aa 3f 31
       -1.0710559e-08 -1.1627715e-09 4.97055e-09 2.7890859e-09
000090 8a b3 c2 b3 15 59 ea 30 37 b9 40 31 13 d7 3f 31
       -9.066487e-08 1.705106e-09 2.804496e-09 2.7916414e-09
0000a0 f3 9c d9 2f bb 50 89 b0 b2 4c cd 30 7c d4 57 32
       3.958359e-10 -9.991007e-10 1.4937511e-09 1.25629604e-08
0000b0 0f 68 35 31 bf bb 3f 31 a7 df 42 31 cb 63 bc b0
       2.6398117e-09 2.790088e-09 2.8357847e-09 -1.3707163e-09
0000c0 ed 0f e2 31 78 47 3f 31
       6.5792762e-09 2.7834783e-09

exp_avg_sq f4 [50]
000000 d2 b0 0e 2f 4d b3 0e 2f 47 af 0e 2f c5 b9 0e 2f
       1.2977644e-10 1.2978525e-10 1.2977096e-10 1.2980823e-10
000010 6e 9c 0e 2f 41 ad 0e 2f 54 73 a5 2e 95 a1 0e 2f
       1.29704e-10 1.2976377e-10 7.523818e-11 1.297223e-10
000020 b0 ac 0e 2f b7 5f a7 2e 0d 74 aa 2e 57 c6 0e 2f
       1.2976176e-10 7.611283e-11 7.75132e-11 1.2985289e-10
000030 f8 d2 0e 2f af af 0e 2f e7 b7 0e 2f ad b2 0e 2f
       1.2989776e-10 1.297724e-10 1.298016e-10 1.2978303e-10
000040 4b 9c 0e 2f d3 2c 9e 2e f5 bb 0e 2f 99 1b a9 2e
       1.2970351e-10 7.1929705e-11 1.29816e-10 7.6901326e-11
000050 c5 73 0e 2f 73 8a ae 2e ba ae 0e 2f 57 af 0e 2f
       1.2955954e-10 7.9371974e-11 1.29769e-10 1.2977118e-10
000060 4d 11 9d 2e 91 b0 0e 2f 5e b8 0e 2f 5c b3 0e 2f
       7.1426066e-11 1.2977554e-10 1.2980325e-10 1.2978546e-10
000070 5c 45 a8 2e 67 b5 0e 2f b5 72 0e 2f 4a cc 0e 2f
       7.652076e-11 1.2979272e-10 1.2955577e-10 1.2987403e-10
000080 4a 43 02 2f 78 35 aa 2e a2 2b 9d 2e c3 b1 0e 2f
       1.1847337e-10 7.740203e-11 7.147284e-11 1.2977978e-10
000090 c7 7a 82 2e 83 72 0d 2f 1a ba 0e 2f 73 b5 0e 2f
       5.933525e-11 1.2864558e-10 1.2980941e-10 1.2979288e-10
0000a0 14 ee a6 2e 61 ea a9 2e ad 21 9b 31 4d da 8b 2e
       7.591097e-11 7.726864e-11 4.514922e-09 6.359766e-11
0000b0 14 89 0e 2f 15 b1 0e 2f df c1 0e 2f a4 9e aa 2e
       1.2963525e-10 1.2977737e-10 1.2983702e-10 7.758885e-11
0000c0 9e aa 99 2e e1 b0 0e 2f
       6.987942e-11 1.2977665e-10

exp_avg f4 [50]
000000 a4 0e b0 30 f8 8b b0 30 e9 ab b0 30 74 41 b1 30
       1.2809847e-09 1.2845467e-09 1.2854545e-09 1.2897048e-09
000010 e4 77 ae 30 38 4d b0 30 da c7 52 b0 3d d2 af 30
       1.2694241e-09 1.2827632e-09 -7.668156e-10 1.2792679e-09
000020 40 18 b0 30 33 14 5e b0 b1 08 72 b0 ac 65 b1 30
       1.2812578e-09 -8.0791834e-10 -8.805144e-10 1.2907342e-09
000030 99 58 b1 30 53 56 b0 30 7f 63 b0 30 0f b1 b0 30
       1.2903626e-09 1.283022e-09 1.2833964e-09 1.2856008e-09
000040 5a 69 ae 30 54 ba 27 b0 18 80 b0 30 fd 15 6a b0
       1.2690109e-09 -6.1019034e-10 1.2842092e-09 -8.515995e-10
000050 03 15 ad 30 54 e5 85 b0 5d 52 b0 30 ce b3 af 30
       1.2593379e-09 -9.742203e-10 1.2829094e-09 1.2784029e-09
000060 6b 60 21 b0 7f 00 b0 30 67 d0 af 30 92 e4 b0 30
       -5.8708477e-10 1.2805826e-09 1.2792157e-09 1.2870649e-09
000070 5b 25 64 b0 67 9e b0 30 0c 64 ad 30 e5 59 b0 30
       -8.2999e-10 1.2850706e-09 1.2615842e-09 1.2831235e-09
000080 f5 c5 aa 2f 10 25 6f b0 68 5e 22 b0 66 93 b0 30
       3.1063477e-10 -8.700036e-10 -5.9069416e-10 1.2847579e-09
000090 71 40 69 b1 5c 78 a4 30 e1 41 b1 30 60 11 b1 30
       -3.3942593e-09 1.1966779e-09 1.2897169e-09 1.2883383e-09
0000a0 68 92 5b b0 de 61 70 b0 37 64 12 b2 a3 82 95 af
       -7.987979e-10 -8.745057e-10 -8.521105e-09 -2.7195765e-10
0000b0 af fc ad 30 65 60 b0 30 c4 e6 b1 30 c7 21 73 b0
       1.2659224e-09 1.2833082e-09 1.2944033e-09 -8.8450886e-10
0000c0 de 27 0e b0 77 66 b0 30
       -5.1715954e-10 1.2834808e-09
