experiments/rotation/checkpoints/checkpoints_weight_decay_mse/checkpoint_dim-2_ntrain-19_weightdecay-0.99_seed-1683best.pkl (torch_old, 13838 bytes, 36 tensors)

ffs.0.0.weight f4 [50, 1]
0	0xbe5af927	-0.21384107
1	0xbed82bbe	-0.42220873
2	0xbed5a9c0	-0.4173107
3	0x3df6b4eb	0.12046226
4	0xbdc13301	-0.09433556
5	0x3dd8dd59	0.10589094
6	0xbe509f25	-0.20373209
7	0xbdfbe416	-0.12299363
8	0x3ee37625	0.44426075
9	0x3c96f27f	0.018426178
10	0xbf2d7b45	-0.6776622
11	0xbe81277b	-0.25225434
12	0x3e0eec87	0.13957416
13	0xbe8e4cf0	-0.27793074
14	0xbec7c929	-0.3902066
15	0xbb6b766e	-0.0035928744
16	0x39cac400	0.00038674474
17	0xbde5c702	-0.11219598
18	0xbed68aec	-0.41902864
19	0xbece450d	-0.40287057
20	0xbed02d0e	-0.40659374
21	0xbf04042f	-0.51568884
22	0xbe6388a5	-0.22220095
23	0x3ea5adb2	0.32359082
24	0xb85535d6	-5.0833296e-05
25	0x39f85a42	0.00047369493
26	0x3ec56e70	0.3856082
27	0x3f13d2fd	0.5774382
28	0xbe50e2d0	-0.20399022
29	0xbf18cf02	-0.5969087
30	0xbb8a5405	-0.0042214417
31	0x3f4b723c	0.7947118
32	0xbe917677	-0.28410694
33	0x3ef4fbc1	0.47848323
34	0x3f3a25fe	0.7271422
35	0xbd6cf403	-0.057849895
36	0xbe066d10	-0.13127542
37	0xbe113f36	-0.1418427
38	0x3f1bd1f7	0.60867256
39	0x3eb47a97	0.3524978
40	0xbeac4e31	-0.33653405
41	0xb82a974b	-4.067206e-05
42	0xbeaeb0da	-0.34119302
43	0x3eb2b6d0	0.349051
44	0xb8b67bc7	-8.7014916e-05
45	0xb827ccc6	-4.0006613e-05
46	0xb7e26df9	-2.699251e-05
47	0xbe818395	-0.25295702
48	0xbe989a3e	-0.29805177
49	0x3e632c7b	0.22184937

ffs.0.0.bias f4 [50]
0	0xbeddb37c	-0.43300998
1	0x3f05b05f	0.52222246
2	0x3eee4d0f	0.46543166
3	0x3ecab070	0.39587736
4	0xbe89be0d	-0.2690281
5	0x3e750634	0.23928148
6	0x3ec6e611	0.38847402
7	0x3e37264f	0.17885707
8	0x3ed0af4b	0.40758738
9	0xbe828fe1	-0.25500396
10	0x3f2cd0f4	0.6750634
11	0xbc1bb273	-0.009502995
12	0xb7914ab6	-1.7320137e-05
13	0xbcae00d6	-0.021240633
14	0xbeb988ba	-0.36237127
15	0xbf3f2ec7	-0.7468075
16	0xbf0c1ae6	-0.54728544
17	0x352ba912	6.3948494e-07
18	0xbd396d12	-0.045270033
19	0xbc0b6753	-0.008508521
20	0x3c8e0942	0.017338399
21	0x3ea986de	0.33110708
22	0x3ec22c88	0.379246
23	0x3c7d648c	0.015465867
24	0x3d4209c3	0.04737259
25	0x3f2427b4	0.6412308
26	0x3dd19886	0.1023417
27	0x3f0f20b9	0.55909306
28	0xbf41185b	-0.7542779
29	0xbf1f93bc	-0.623348
30	0xba7ca800	-0.0009638071
31	0xbd55889a	-0.052132227
32	0xbe602600	-0.21889496
33	0xbf38c25c	-0.7217157
34	0x3f480ced	0.78144723
35	0x3e81aa52	0.25325257
36	0x3e770587	0.24123202
37	0xb6c26516	-5.7934185e-06
38	0xbf0d5d69	-0.5522066
39	0xbee2a9ed	-0.44270268
40	0xbeed5f67	-0.4636185
41	0xbf141528	-0.5784478
42	0xbe81a1a0	-0.25318623
43	0x3f0d828b	0.5527732
44	0xbe61f41c	-0.22065777
45	0xbeb7e640	-0.35917854
46	0xbe20884f	-0.15676998
47	0x3f1c78b9	0.6112171
48	0xbe9f274d	-0.31084672
49	0x3ed2466d	0.41069356

ffs.0.2.weight f4 [1, 50]
0	0xbbef7036	-0.0073070778
1	0xbb88bcb6	-0.0041728867
2	0xbbe3b7a2	-0.006949381
3	0x3b66a985	0.0035196256
4	0x3a0e795f	0.0005434956
5	0x39a8122b	0.00032056993
6	0xbbc5f77e	-0.0060414663
7	0xbc114f8f	-0.008869066
8	0x3c2c3f39	0.01051312
9	0xbab3efac	-0.0013728044
10	0x3b65e623	0.00350798
11	0xbbed9a07	-0.0072510275
12	0x3b868e47	0.0041063162
13	0xbc023109	-0.007946261
14	0xbc4ee32f	-0.012627407
15	0xba37d793	-0.0007013019
16	0x3c5be76e	0.013421876
17	0xbc356615	-0.0110717015
18	0x3b08db26	0.0020882576
19	0xbc15ab27	-0.009135044
20	0x3b7a1615	0.0038160135
21	0x3ab83b30	0.0014055725
22	0xbbba5e1a	-0.0056874873
23	0x3b8fcc03	0.0043883338
24	0xbb189edc	-0.0023288047
25	0xbb4aad7a	-0.0030926154
26	0x3bacb38f	0.0052704285
27	0x3c1909b6	0.009340694
28	0xbbf42815	-0.007451067
29	0xbcbaee48	-0.0228187
30	0xbb19a054	-0.002344151
31	0xbb39c452	-0.0028345776
32	0xbc0fff66	-0.008788919
33	0xbb2554ea	-0.0025227615
34	0x3cbe39d5	0.023220936
35	0xbb75b213	-0.0037490174
36	0xbb9cefaa	-0.0047893124
37	0xbbca2141	-0.006168515
38	0xbb677de9	-0.003532285
39	0x3ab89786	0.0014083243
40	0xbc3a547b	-0.011372681
41	0xbab92f1e	-0.0014128422
42	0xbc29b6f0	-0.010358557
43	0x3a96baf1	0.0011499805
44	0xbb12363e	-0.0022310163
45	0xbaec87a7	-0.0018045799
46	0xbaf1be20	-0.0018443502
47	0x39eae062	0.00044799136
48	0xbc2ec87e	-0.010667918
49	0x3b7a38af	0.0038180759

ffs.1.0.weight f4 [50, 1]
0	0xbef50389	-0.4785426
1	0x3f12c6af	0.5733442
2	0xbf3f5175	-0.7473367
3	0x3d7b318e	0.061326556
4	0xbebbdda6	-0.36692542
5	0xbf03dcb2	-0.5150863
6	0xbf4c998e	-0.79921806
7	0x3f3d460b	0.73935
8	0xbe41f436	-0.18940815
9	0xbf489ed8	-0.78367376
10	0xbef79ae6	-0.48360366
11	0x3f38a379	0.7212444
12	0xbf082e50	-0.5319567
13	0xbd34841a	-0.044071294
14	0xbf29fde4	-0.6640303
15	0x3923d290	0.00015623332
16	0xbf31b289	-0.6941305
17	0xbf2bc045	-0.67090255
18	0xbf35fbcf	-0.71087354
19	0xbf4c98cb	-0.79920644
20	0x3f0e4762	0.5557767
21	0xbf3282f7	-0.69731086
22	0xbf3c20c2	-0.73487484
23	0xbf14e1e1	-0.58157164
24	0xba1fa5fb	-0.00060901017
25	0xbf155a94	-0.58341336
26	0x3efcddef	0.49388072
27	0xbe84390e	-0.2582478
28	0xbf027105	-0.50953704
29	0xbe1cbebc	-0.15307134
30	0xbe0ee462	-0.13954309
31	0xbf043518	-0.51643515
32	0xbe3e38c6	-0.18576345
33	0x3818cd5b	3.6430876e-05
34	0x3f272798	0.6529479
35	0xbef13bdd	-0.47115985
36	0x3f3b0713	0.7305767
37	0xbf217b1e	-0.63078487
38	0xbf3739b6	-0.71572435
39	0xbd79732b	-0.06090085
40	0x3f351b51	0.70744807
41	0xbd5a6b08	-0.05332473
42	0x3e910911	0.2832723
43	0x3f163753	0.5867817
44	0xbc92af3d	-0.017905826
45	0xbf318d01	-0.6935578
46	0x3ee219a8	0.441602
47	0xbb407f32	-0.002937269
48	0xbf16baa4	-0.5887854
49	0xb9a8eac9	-0.00032218386

ffs.1.0.bias f4 [50]
0	0x3ee09c61	0.43869308
1	0xbeb83760	-0.35979748
2	0x3e2eec94	0.17082435
3	0x3ebd4e9f	0.36974046
4	0x3ed94d6d	0.42441884
5	0xbecfb2d1	-0.40566114
6	0xbf1dd705	-0.6165622
7	0xbd3ca6aa	-0.04605738
8	0xbce56dfd	-0.028006548
9	0x3f330b2b	0.69938916
10	0x37ef3de7	2.8519846e-05
11	0xbecac7e9	-0.39605644
12	0x3ef9cffc	0.48791492
13	0x3ec3b5b8	0.38224578
14	0xbe946e11	-0.28990224
15	0xbe9ac356	-0.30227154
16	0xbe229ad4	-0.15879375
17	0xbe2c8413	-0.16847257
18	0x3e44987e	0.19198796
19	0xb98f42d4	-0.00027324876
20	0xbef246b7	-0.47319576
21	0x3ec90d4a	0.3926795
22	0x3f3448e1	0.70423704
23	0xbe8cb804	-0.27484143
24	0x3cf970d6	0.030449312
25	0xbed7fc88	-0.42184854
26	0x3ed362ca	0.41286308
27	0xbf47c1f5	-0.7803033
28	0xbf44f6e6	-0.7693924
29	0xbf3f9712	-0.7483989
30	0xbc18c383	-0.009323957
31	0xb8f69024	-0.000117570424
32	0xbe6566da	-0.22402516
33	0x3e45903b	0.19293301
34	0x3f2726fd	0.65293866
35	0x3e4559e9	0.19272579
36	0xbeffcbf4	-0.4996029
37	0x3c4ee375	0.012627472
38	0xbec46209	-0.38356045
39	0xbd4055d8	-0.046956867
40	0x3f147503	0.57991046
41	0x3a2a8833	0.00065052806
42	0xbf12f685	-0.5740741
43	0x3f4186b7	0.75596184
44	0xbf1cc912	-0.6124431
45	0xbe90f7dc	-0.28314102
46	0x3e975398	0.29555964
47	0xbed6197e	-0.41816324
48	0xbeb6475d	-0.3560132
49	0x3f32f299	0.69901425

ffs.1.2.weight f4 [1, 50]
0	0x3d1935a4	0.03740467
1	0xbd34622d	-0.04403894
2	0x3ced6f64	0.02898378
3	0xbbdd2bc6	-0.006749603
4	0x3cf3a210	0.029740363
5	0x3d2f2f23	0.042769562
6	0x3d6b7a86	0.057489894
7	0xbd62a502	-0.055333145
8	0x3c8fcf03	0.017554766
9	0x3d5081ee	0.05090516
10	0xb8f8d3d0	-0.00011865015
11	0xbca920e2	-0.020645563
12	0x3b485219	0.0030566512
13	0x3b79789c	0.0038066274
14	0x3d5278b3	0.05138464
15	0xba1e54b4	-0.00060398434
16	0x3c4b1bad	0.012396735
17	0x3d2e1f8c	0.042510554
18	0x3d5ca411	0.053867403
19	0x3d6d58ea	0.057946123
20	0xbd11bae3	-0.03557862
21	0x3d5261ae	0.051362686
22	0x3d468475	0.048466165
23	0x3d3ef3ff	0.04661941
24	0x3bd5a5b6	0.0065199984
25	0x3c900464	0.017580219
26	0xbd2815d2	-0.041036434
27	0x3cb18c87	0.021673454
28	0x3d185d81	0.037198547
29	0x3c46937c	0.012120124
30	0x3c69702a	0.014247933
31	0x3d25ed21	0.040509347
32	0x3c8859a8	0.016644314
33	0xba235760	-0.00062309764
34	0xbd4f6f96	-0.050643526
35	0x3d1cdb65	0.03829517
36	0xbd520a2a	-0.051279224
37	0x3d47d07e	0.048782818
38	0x3d405273	0.04695363
39	0x3bcefd60	0.0063168257
40	0xbd5aeeeb	-0.053450506
41	0x3bcbd46e	0.006220392
42	0xbcdb48c8	-0.026768103
43	0xbd3b87a2	-0.045783646
44	0x3a9e418f	0.0012073981
45	0x3d58f797	0.052970495
46	0xbd1d2ec3	-0.038374674
47	0xbc3e922d	-0.011631531
48	0x3d400b6c	0.046885893
49	0x3aa51da3	0.0012597333

ffs.2.0.weight f4 [50, 1]
0	0x3e514259	0.20435466
1	0xbd048aca	-0.032358922
2	0xbd056106	-0.032563232
3	0xbf0db3d8	-0.55352545
4	0x3f3ff635	0.7498506
5	0xbf30b4e4	-0.6902602
6	0xbf112e6a	-0.5671145
7	0xbbc81bf0	-0.006106846
8	0xbe91be6d	-0.28465596
9	0xbf0d09e6	-0.5509323
10	0xbe307e7f	-0.17235754
11	0xbed54550	-0.41654444
12	0x39ef7cd0	0.00045678625
13	0x3deef152	0.11667122
14	0xbf412fd1	-0.7546359
15	0xbf06eb87	-0.52703136
16	0xbe8e163d	-0.2775134
17	0xbc8af3a5	-0.016961882
18	0x3dfa983e	0.12236069
19	0xbcc6af0c	-0.02425339
20	0xbf23ec21	-0.6403218
21	0x3f032c9e	0.51239955
22	0xbc4021fc	-0.0117268525
23	0xbf239862	-0.6390439
24	0xbe427f14	-0.18993789
25	0x3f4d38ec	0.8016498
26	0xbe881d9c	-0.2658509
27	0xbef05581	-0.46940234
28	0xbee9b910	-0.45649004
29	0x3ed80336	0.4218995
30	0xbe98fd25	-0.29880634
31	0x39aa8ac5	0.00032528318
32	0x3f25955d	0.64681035
33	0x3f131db2	0.57467186
34	0xbe876e3b	-0.26451287
35	0x3f3ed394	0.7454159
36	0x3dab8e3a	0.08376737
37	0x3f14636c	0.57964206
38	0x3ed6c65a	0.41948205
39	0x3e7cece2	0.24699739
40	0x3e3dcf66	0.18536147
41	0x3ebc2266	0.36744994
42	0xbe80cb4b	-0.251551
43	0xbee50e22	-0.44737345
44	0x3b30d1ab	0.002698044
45	0xbd562bc2	-0.052287824
46	0xbf3c10b4	-0.73462987
47	0x3eb8b975	0.36078992
48	0xbeda6b12	-0.42659813
49	0x3db6ae32	0.08919944

ffs.2.0.bias f4 [50]
0	0xbf0cb9fb	-0.54971284
1	0x3efe04da	0.49613076
2	0xbf1f14b4	-0.62140965
3	0x3ef8991e	0.4855432
4	0xbd885fc7	-0.06658893
5	0x3e990b01	0.29891208
6	0xbe11a23d	-0.14222045
7	0x3e911d56	0.28342694
8	0xbeb1d64d	-0.3473381
9	0xbde84bef	-0.11342608
10	0xbd6dcf63	-0.058059108
11	0xbd9aa7d3	-0.07551541
12	0x37aa1298	2.0274238e-05
13	0xbe0b2a44	-0.13590342
14	0x3e1d0c01	0.1533661
15	0x3cbd8468	0.023134425
16	0x3e1a3d59	0.15062465
17	0x3eea6e4c	0.45787275
18	0x3ee658b3	0.44989547
19	0xbf07e5e5	-0.53085166
20	0x38f98afb	0.000118991324
21	0x3cd8c7fc	0.026462547
22	0xbf3f6524	-0.74763703
23	0x3f142fdb	0.5788552
24	0xb660a635	-3.3475346e-06
25	0xbe00ef41	-0.12591268
26	0xbf463577	-0.7742533
27	0x382ae433	4.0743686e-05
28	0xbe02b6eb	-0.1276509
29	0xbecdfe57	-0.40233108
30	0x3f27f6c1	0.6561089
31	0x3f1596c1	0.5843316
32	0xbe15809a	-0.14599839
33	0x3e9b27c3	0.30303773
34	0xbd6075d0	-0.054799855
35	0x3d98cd99	0.0746109
36	0x3e8bffe8	0.27343678
37	0xbf2949ea	-0.6612841
38	0xbe3cbc06	-0.184311
39	0xba16bf91	-0.00057505915
40	0x3e8fcd26	0.28086203
41	0x3f45eea6	0.77317274
42	0x3d231b84	0.039821163
43	0x3eb0db83	0.34542474
44	0x3f38626e	0.7202519
45	0x3e0184ff	0.1264839
46	0x3f0948ef	0.5362691
47	0xbf12ba39	-0.57315403
48	0xba002098	-0.00048876693
49	0xbe7df6a3	-0.24801116

ffs.2.2.weight f4 [1, 50]
0	0x3c979545	0.018503794
1	0x3bcbd759	0.00622074
2	0xbc020eda	-0.007938111
3	0xbc8f28de	-0.017475542
4	0x3d1035fc	0.035207734
5	0xbcb72764	-0.02235765
6	0xbc7e5da0	-0.015525252
7	0x3be02fe4	0.0068416465
8	0xbbb82074	-0.005619103
9	0xbc798048	-0.015228339
10	0xbabade85	-0.001425699
11	0xbac4ec30	-0.0015024003
12	0x3c1e05db	0.009644951
13	0x3c36e958	0.011164032
14	0xbcc2928d	-0.023751521
15	0xbc7a5b37	-0.015280536
16	0xbbae56eb	-0.00532042
17	0x3bde2b0d	0.0067800344
18	0x3c4283af	0.011872216
19	0x3b66994e	0.0035186592
20	0xbc9ab291	-0.018883975
21	0x3cde730a	0.027154464
22	0x3b609082	0.003426582
23	0xbcd41333	-0.025888061
24	0xbafa7ca2	-0.001911063
25	0x3d1a7bbc	0.03771566
26	0xbb8cbc0b	-0.0042948774
27	0xbc5645d0	-0.013078168
28	0xbc42f34a	-0.011898825
29	0x3cc1a7a9	0.023639517
30	0xbba7337f	-0.0051025744
31	0x3c01e73b	0.007928665
32	0x3d036277	0.032076325
33	0x3cde2c7c	0.027120821
34	0xbbc1da73	-0.0059159338
35	0x3ccf96ee	0.025340524
36	0x3c399f54	0.011329491
37	0x3cf70873	0.030155396
38	0x3cc0c0e1	0.023529472
39	0x3c8f8fb3	0.017524576
40	0x3c6c1e70	0.014411554
41	0x3a9b9a70	0.0011871587
42	0xbb921057	-0.0044575143
43	0xbc4ee429	-0.01262764
44	0x3c086957	0.008325896
45	0x3b4e832a	0.0031511285
46	0xbc61c42a	-0.013779679
47	0x3ca63b53	0.02029196
48	0xbc38f239	-0.011288219
49	0x3c1656e0	0.009175986

ffs.3.0.weight f4 [50, 1]
0	0xba69bcea	-0.0008916395
1	0xbf21a0bf	-0.63135904
2	0x3f4aa3f4	0.7915642
3	0xbf09c6cf	-0.5381898
4	0xbf2c310f	-0.6726236
5	0xbe60dc42	-0.21959022
6	0xb88f9e6c	-6.84828e-05
7	0xbe46ef2d	-0.19427176
8	0x3e499b08	0.19688046
9	0xbe1c4c22	-0.15263417
10	0xbf0619c7	-0.52383083
11	0x3efc8edd	0.49327746
12	0x3cfcb82b	0.030849537
13	0x3e5eeeeb	0.21770827
14	0x3f0bec5a	0.5465752
15	0x3c1b1d0f	0.009467377
16	0x3e2d0cd2	0.16899422
17	0xbf22cc8d	-0.6359337
18	0x3e9a314d	0.3011574
19	0x3f474042	0.77832425
20	0xbf31a868	-0.6939759
21	0xbf318f60	-0.693594
22	0xbeb2b06b	-0.3490022
23	0x3f179bf5	0.59222347
24	0x3e08bda8	0.13353598
25	0xbedf72c3	-0.43642244
26	0x3dac03db	0.08399173
27	0xbcf10aff	-0.029424189
28	0xbed15bb2	-0.4089027
29	0xbf3a5825	-0.7279075
30	0xbdb5a0ba	-0.08868547
31	0xbd00242b	-0.031284492
32	0x3e095144	0.13409907
33	0xbf137222	-0.5759603
34	0xbeaa4a7b	-0.3325995
35	0xbea42776	-0.32061356
36	0xbeb3a44c	-0.35086286
37	0xbd33dcc4	-0.04391171
38	0x3d595774	0.053061917
39	0x3f3284c6	0.69733846
40	0x3e9130e6	0.2835762
41	0xbf25a494	-0.6470425
42	0x3e5bd598	0.21468198
43	0xb82d9f8a	-4.1394997e-05
44	0xbde0e7bb	-0.10981699
45	0x3a5a1f90	0.0008320743
46	0xbef0d5be	-0.47038072
47	0x3e358c76	0.17729363
48	0x3ed8daf2	0.42354542
49	0x3efa04a8	0.48831677

ffs.3.0.bias f4 [50]
0	0xbf39512f	-0.723895
1	0xbf01f777	-0.50768226
2	0x3e81c282	0.2534371
3	0x3e24ec08	0.16105664
4	0x3e6b7d3c	0.22996992
5	0x3f10cce2	0.56562626
6	0xbf0d0fa9	-0.5510202
7	0x3727635f	9.977112e-06
8	0xbe72f516	-0.23726305
9	0xbf36467d	-0.71201307
10	0x3f1d345c	0.6140802
11	0x3ad42ea7	0.001618822
12	0x3456cee1	2.0005565e-07
13	0x3ebba97e	0.3665275
14	0x3f1fff26	0.624987
15	0x3ebbaf13	0.3665701
16	0x3f0cd5e6	0.55013883
17	0x3e9dd262	0.30824572
18	0xbf2ac395	-0.66704684
19	0x3ea5a676	0.32353562
20	0x3ca17906	0.019711029
21	0xbefa8147	-0.48926756
22	0xbec85e03	-0.39134225
23	0xbdd0b525	-0.101908006
24	0xbc2aa9b5	-0.010416438
25	0xbf3e5609	-0.7435003
26	0xbf04145a	-0.51593554
27	0xbb2a4f0c	-0.0025987057
28	0x3f03a9a1	0.5143071
29	0xbeec4161	-0.4614363
30	0x3e631a53	0.2217801
31	0x3f084bbc	0.5324056
32	0xbe3569ce	-0.17716143
33	0x3f2ace39	0.6672092
34	0xbe1c395d	-0.15256257
35	0x3e6bf4b6	0.23042569
36	0xbe49b406	-0.1969758
37	0x3f392240	0.72317886
38	0x3edbcebf	0.42931172
39	0x3cc6f0f3	0.024284815
40	0xbf3b2d1b	-0.731157
41	0x3f2dc366	0.6787628
42	0x3e58fcda	0.21190205
43	0xbe7aae43	-0.24480538
44	0xbe312aec	-0.1730153
45	0x3f278f36	0.654529
46	0x3ba273cf	0.004957653
47	0x3f0c82c3	0.54887027
48	0xbe6166ad	-0.22011824
49	0xb7a49af1	-1.9622474e-05

ffs.3.2.weight f4 [1, 50]
0	0xb9ef20aa	-0.0004560997
1	0x3b3969f3	0.002829191
2	0xba608145	-0.00085641845
3	0x3b625bf5	0.0034539674
4	0x3bb4ec7c	0.005521355
5	0xba7766c9	-0.00094376184
6	0xba07a817	-0.00051748886
7	0x3b882421	0.0041546975
8	0x38efbe54	0.000114318595
9	0xba54d9d4	-0.0008119617
10	0x3c54a042	0.012977662
11	0xbc140317	-0.00903394
12	0xba6c6781	-0.0009018109
13	0xbaea5ae2	-0.0017879868
14	0x3b3bd45b	0.002866051
15	0x3b812413	0.003941068
16	0x3b8050fc	0.003915904
17	0xbafb2069	-0.0019159439
18	0xbba35a5e	-0.004985138
19	0x3b09d09d	0.0021028884
20	0x3b2ea5a4	0.0026649022
21	0xbc2b0451	-0.010438041
22	0xbacddf49	-0.0015706803
23	0xbba6cec6	-0.0050905673
24	0xbad3d891	-0.0016162564
25	0xbb8cf0dc	-0.0043011736
26	0xbadcde81	-0.0016850979
27	0xba80ddaf	-0.0009831692
28	0x3b87f591	0.004149147
29	0xbb882fc0	-0.004156083
30	0xba0dfbf9	-0.000541627
31	0xbaa8313f	-0.0012832059
32	0xbb0b685d	-0.0021271922
33	0x3c0e6bbf	0.008692681
34	0xb870427b	-5.7282374e-05
35	0x3aa37203	0.0012469891
36	0x3c991537	0.018686874
37	0xbae43835	-0.001741177
38	0xbb0e25a5	-0.0021689918
39	0xbbda32de	-0.006658896
40	0xbb79cefe	-0.0038117762
41	0x3cce043e	0.025148507
42	0xbacf4b38	-0.0015815264
43	0x3b1c51ff	0.0023852584
44	0xbbb30236	-0.00546291
45	0xba96f54d	-0.0011517197
46	0x3a395388	0.0007069637
47	0x3b8324e4	0.0040022004
48	0xbb8c2986	-0.004277411
49	0xbb14f7c1	-0.002273068

exp_avg_sq f4 [50]
0	0x3d4897d4	0.04897292
1	0x3d89e029	0.06732208
2	0x3d62ed07	0.05540183
3	0x3d2cdd39	0.042203162
4	0x3cba0217	0.022706075
5	0x3c9b9026	0.018989634
6	0x3d2795a7	0.040914204
7	0x3c4af147	0.012386627
8	0x3d3548ee	0.044259004
9	0x3cab547d	0.02091431
10	0x3dd75cd6	0.10515754
11	0x3a3e04d2	0.0007248643
12	0x38eff4b6	0.00011441989
13	0x3aa30edb	0.001244034
14	0x3d1550a1	0.036453847
15	0x3e00f974	0.12595159
16	0x3d954e2c	0.07290301
17	0x3625b3ee	2.4691649e-06
18	0x3b1e73c0	0.002417788
19	0x3a3321a8	0.0006833323
20	0x3a8aa6cd	0.0010578275
21	0x3d00c59d	0.03143846
22	0x3d21065c	0.039312705
23	0x3a81b6d9	0.0009896412
24	0x3b2462c9	0.0025083295
25	0x3dc4f29d	0.09616587
26	0x3bc15beb	0.00590085
27	0x3d9b2be2	0.07576729
28	0x3e035dd5	0.12828763
29	0x3dbb3129	0.09140236
30	0x3991e815	0.0002782947
31	0x3b318381	0.002708644
32	0x3c8800c5	0.01660193
33	0x3df2bb9a	0.118521884
34	0x3e0bec71	0.13664414
35	0x3ca99aa7	0.020703627
36	0x3c9d7e85	0.019225368
37	0x38359373	4.3291086e-05
38	0x3d97928b	0.07400998
39	0x3d503045	0.050827283
40	0x3d60ee21	0.054914597
41	0x3da4706c	0.08029255
42	0x3ca9574c	0.02067151
43	0x3d9808c5	0.07423548
44	0x3c89d63a	0.016825784
45	0x3d1344a9	0.03595415
46	0x3c28b6cb	0.0102974875
47	0x3db4ee55	0.08834521
48	0x3ce96918	0.028492495
49	0x3d379cf3	0.044827413

exp_avg f4 [50]
0	0xbedfcb18	-0.43709636
1	0x3f069221	0.52566725
2	0x3ef04ed2	0.46935135
3	0x3eccec08	0.40023828
4	0xbe8c5bf5	-0.27413908
5	0x3e7a6119	0.24451102
6	0x3ec92a2a	0.3928998
7	0x3e3ca3c9	0.18421854
8	0x3ed2d2f4	0.4117657
9	0xbe8535d8	-0.26017642
10	0x3f2d5860	0.67712975
11	0xbc3bacd5	-0.011454781
12	0xb7305267	-1.0509603e-05
13	0xbcc61689	-0.024180667
14	0xbebbd544	-0.36686146
15	0xbf3f9084	-0.7482989
16	0xbf0cec19	-0.55047756
17	0xb44ffae4	-1.9369651e-07
18	0xbd4a3a34	-0.049371913
19	0xbc283ac2	-0.010267915
20	0x3ca3d3cc	0.019998454
21	0x3eabf5b2	0.33585888
22	0x3ec47949	0.38373783
23	0x3c93633b	0.017991653
24	0x3d52fb4d	0.05150919
25	0x3f24c5c4	0.64364266
26	0x3ddbee75	0.107388414
27	0x3f0fe53e	0.5620917
28	0xbf4175b6	-0.7557024
29	0xbf202790	-0.6256037
30	0xbac14a41	-0.0014746861
31	0xbd66b6cc	-0.056326672
32	0xbe6587ee	-0.22415134
33	0xbf3930f6	-0.72340333
34	0x3f4841ff	0.782257
35	0x3e84508c	0.25842702
36	0x3e7c5f74	0.24645787
37	0xb6d015ea	-6.201434e-06
38	0xbf0e2950	-0.5553179
39	0xbee4ba83	-0.44673547
40	0xbeef5331	-0.46743158
41	0xbf14d66c	-0.5813968
42	0xbe843fdb	-0.25829968
43	0x3f0e51b7	0.55593437
44	0xbe675e53	-0.22594576
45	0xbeba4267	-0.36378786
46	0xbe260266	-0.16211852
47	0x3f1d2798	0.6138854
48	0xbea1a2fb	-0.31569657
49	0x3ed473b5	0.41494527

exp_avg_sq f4 [50, 1]
0	0x3d6acb90	0.05732304
1	0x3da0a195	0.07843319
2	0x3e016c4a	0.12638965
3	0x3b55fba6	0.0032651215
4	0x3d15dfca	0.036590375
5	0x3d853231	0.06503714
6	0x3e1082e7	0.14112435
7	0x3dfb9f7f	0.12286281
8	0x3c5856a4	0.0132042505
9	0x3e0bc261	0.13648368
10	0x3d74cda1	0.059766416
11	0x3df37ece	0.118894204
12	0x3d8f9059	0.07009954
13	0x3b1453ff	0.0022633073
14	0x3dcf4875	0.10121242
15	0x393ea4fd	0.00018181275
16	0x3de3d3c9	0.11124379
17	0x3dd50a0b	0.10402306
18	0x3deabfa1	0.114623316
19	0x3e10815f	0.14111851
20	0x3d997fe1	0.07495094
21	0x3de2ffe1	0.11083961
22	0x3df8fc00	0.1215744
23	0x3da39eb7	0.07989257
24	0x35b0c6b2	1.317085e-06
25	0x3da7f004	0.08200076
26	0x3d779834	0.060447887
27	0x3cad686d	0.021167958
28	0x3d83c6df	0.06434416
29	0x3c2087e7	0.009798027
30	0x3c0a1a77	0.008429161
31	0x3d86afdb	0.065765105
32	0x3c508524	0.012727056
33	0x37c8ef11	2.3953182e-05
34	0x3dc8d5fa	0.09806438
35	0x3d6418ce	0.055687718
36	0x3df6c19a	0.12048645
37	0x3dbe6826	0.092972085
38	0x3deebe1b	0.116573535
39	0x3b514527	0.0031932087
40	0x3de95f9b	0.113951884
41	0x3b39a06f	0.0028324386
42	0x3cc4d311	0.024026426
43	0x3da658c2	0.08122398
44	0x3a8cf657	0.0010754567
45	0x3ddfec79	0.109337755
46	0x3d4e5a80	0.050379276
47	0x3a11331d	0.00055389275
48	0x3da72ed6	0.0816323
49	0x38d24696	0.00010026728

exp_avg f4 [50, 1]
0	0xbef5b20f	-0.4798741
1	0x3f12e050	0.57373524
2	0xbf3f5d09	-0.74751335
3	0x3d857e7a	0.06518264
4	0xbebd1e3a	-0.36937124
5	0xbf03ffcc	-0.5156219
6	0xbf4c1bd2	-0.7972995
7	0x3f3cf4b6	0.738109
8	0xbe45da3b	-0.1932153
9	0xbf485120	-0.78248787
10	0xbef99cdd	-0.4875249
11	0x3f38dac7	0.7220883
12	0xbf0907e6	-0.5352768
13	0xbd43ae3a	-0.047773577
14	0xbf29cd14	-0.6632855
15	0x398df470	0.00027075736
16	0xbf3211ec	-0.69558597
17	0xbf2bb626	-0.6707481
18	0xbf35ba29	-0.7098718
19	0xbf4c2748	-0.7974744
20	0x3f0e8ffb	0.55688447
21	0xbf3252ab	-0.6965739
22	0xbf3befb8	-0.73412657
23	0xbf14e11c	-0.5815599
24	0xb82c3cf8	-4.1064777e-05
25	0xbf15db1c	-0.5853746
26	0x3efd47f0	0.49468946
27	0xbe85fc5b	-0.26169094
28	0xbf02b3a3	-0.51055354
29	0xbe2138eb	-0.15744369
30	0xbe131120	-0.14362001
31	0xbf046ab7	-0.51725334
32	0xbe423ffa	-0.18969718
33	0xb7b24012	-2.1249089e-05
34	0x3f26f9a0	0.6522465
35	0xbef1dc41	-0.47238353
36	0x3f3acd29	0.729693
37	0xbf216701	-0.63047796
38	0xbf3709d1	-0.71499354
39	0xbd84a03f	-0.06475877
40	0x3f34d003	0.706299
41	0xbd6965c1	-0.056981806
42	0x3e929d6c	0.28635728
43	0x3f16356e	0.5867528
44	0xbca8463d	-0.020541305
45	0xbf314c59	-0.6925712
46	0x3ee2be4b	0.44285807
47	0xbbab06c2	-0.0052193115
48	0xbf16b545	-0.58870345
49	0xb99f1c71	-0.00030348034

exp_avg_sq f4 [50]
0	0x3d96b481	0.07358647
1	0x3d7c67af	0.061622318
2	0x3dba44fb	0.09095188
3	0x3d736b84	0.059428707
4	0x3b68b590	0.003550861
5	0x3cdb53be	0.02677333
6	0x3c13f1b4	0.0090297945
7	0x3cc9e8e4	0.024647184
8	0x3d0b7fca	0.034057416
9	0x3bdbd232	0.006708407
10	0x3b49fe13	0.0030821606
11	0x3b864dcc	0.0040986296
12	0x38dbc444	0.00010479291
13	0x3c0adc80	0.008475423
14	0x3c235937	0.009970001
15	0x3aae71d5	0.0013309071
16	0x3c1fa535	0.009743978
17	0x3d5c340e	0.05376058
18	0x3d55e870	0.052223623
19	0x3d8dc94e	0.069231614
20	0x354c6640	7.6144715e-07
21	0x3ac33336	0.0014892581
22	0x3e01476e	0.12624905
23	0x3da4b445	0.08042196
24	0x340d11f4	1.313818e-07
25	0x3bfa96ab	0.0076473556
26	0x3e099f6c	0.13439721
27	0x37ba1cf4	2.218641e-05
28	0x3bffb2b8	0.0078032874
29	0x3d31816b	0.043336313
30	0x3dccf93a	0.10008474
31	0x3da7512e	0.08169781
32	0x3c18c028	0.009323157
33	0x3ce0af7b	0.027427426
34	0x3b3e2bfc	0.0029017916
35	0x3b849917	0.00404657
36	0x3cbee33e	0.023301717
37	0x3dcff458	0.10154027
38	0x3c53be86	0.012923842
39	0x397efe66	0.00024318098
40	0x3cc6fee9	0.024291473
41	0x3e0935c6	0.13399419
42	0x3b0b1138	0.002121998
43	0x3d0a47fc	0.033760056
44	0x3df1db36	0.11809389
45	0x3bfd0040	0.007720977
46	0x3d903afd	0.07042501
47	0x3da1e2aa	0.07904561
48	0x3976a3b8	0.00023521378
49	0x3ca44e83	0.020056969

exp_avg f4 [50]
0	0xbf0d8f96	-0.5529722
1	0x3effdc38	0.499727
2	0xbf1fbcb6	-0.62397325
3	0x3efa7f23	0.48925123
4	0xbd91432b	-0.070928894
5	0x3e9b8a46	0.30378932
6	0xbe172d17	-0.14763294
7	0x3e93af2c	0.28844583
8	0xbeb43cf3	-0.3520275
9	0xbdf31770	-0.11869705
10	0xbd7ff064	-0.062485114
11	0xbda46f58	-0.0802905
12	0xb6ef5128	-7.132203e-06
13	0xbe10a05e	-0.14123675
14	0x3e225b13	0.15855055
15	0x3cd65952	0.026165638
16	0x3e1fb6a5	0.15597017
17	0x3eec6c67	0.46176454
18	0x3ee85f0b	0.45385012
19	0xbf08c138	-0.5341983
20	0x34fad13d	4.671837e-07
21	0x3cf4bd15	0.029875318
22	0xbf3fc6d0	-0.7491274
23	0x3f14f1d4	0.581815
24	0xb25f4708	-1.2996459e-08
25	0xbe0602b6	-0.13086972
26	0xbf46879b	-0.7755067
27	0x36875791	4.0335076e-06
28	0xbe08278e	-0.13296339
29	0xbed03896	-0.40668172
30	0x3f288e35	0.6584199
31	0x3f16534c	0.5872085
32	0xbe1acb62	-0.15116647
33	0x3e9dc9c6	0.30818003
34	0xbd7243e3	-0.059146773
35	0x3da30369	0.07959635
36	0x3e8e9770	0.27849913
37	0xbf29e1a1	-0.6635991
38	0xbe423493	-0.18965368
39	0xba7e5084	-0.0009701329
40	0x3e92621b	0.28590474
41	0x3f46407c	0.77442145
42	0x3d330e5b	0.043714862
43	0x3eb34391	0.35012487
44	0x3f38d217	0.7219557
45	0x3e06e439	0.13172998
46	0x3f0a1fe1	0.53954893
47	0xbf1382f3	-0.5762169
48	0xba61e1d8	-0.0008616722
49	0xbe81a87a	-0.2532385

exp_avg_sq f4 [50]
0	0x3d4d658f	0.050145682
1	0x3d140382	0.036136158
2	0x3c3df8df	0.01159498
3	0x3d1a5e6f	0.037687715
4	0x3d424dc7	0.047437456
5	0x3d341efe	0.04397487
6	0x3db8215e	0.08990739
7	0x3b20cca1	0.002453603
8	0x3acbf68a	0.0015561145
9	0x3de619cd	0.1123539
10	0x3916f10b	0.0001439491
11	0x3d2cabf1	0.042156164
12	0x3d74f36e	0.059802465
13	0x3d23167a	0.039816357
14	0x3cd16c7a	0.025564421
15	0x3cdf5293	0.027261054
16	0x3c2b7262	0.010464283
17	0x3c3a4df2	0.011371123
18	0x3c6148d0	0.01375027
19	0x3895dc28	7.145881e-05
20	0x3d68eef2	0.0568685
21	0x3d2adb4c	0.041713044
22	0x3de8ed52	0.1137339
23	0x3cc0d259	0.023537802
24	0x3ad9fd4c	0.0016631274
25	0x3d3fc0ec	0.046814844
26	0x3d39866c	0.04529421
27	0x3e0b9785	0.13632019
28	0x3e081749	0.13290133
29	0x3e019271	0.12653519
30	0x3a3d5f6c	0.0007223997
31	0x37a3edcc	1.9541847e-05
32	0x3c8d1d1d	0.017225796
33	0x3c622b82	0.013804318
34	0x3dcbc113	0.09948935
35	0x3c6262b0	0.013817474
36	0x3d80000e	0.062500104
37	0x3a6527a2	0.00087415625
38	0x3d23ffbc	0.04003881
39	0x3b22c3a0	0.002483584
40	0x3da53c6b	0.080681644
41	0x3982b2c8	0.00024928735
42	0x3da284fa	0.079355195
43	0x3e042520	0.12904787
44	0x3db5b12e	0.08871685
45	0x3cc9d399	0.02463703
46	0x3cd78e05	0.026312837
47	0x3d3d0260	0.046144843
48	0x3d118804	0.035530105
49	0x3de53b6a	0.11192973

exp_avg f4 [50]
0	0x3ee2dbcf	0.44308326
1	0xbebac595	-0.36478868
2	0x3e349c0f	0.17637657
3	0x3ebfa23f	0.3742847
4	0x3edb8ac1	0.42879298
5	0xbed1f9f0	-0.41011
6	0xbf1e98bd	-0.6195181
7	0xbd4ea440	-0.05044961
8	0xbd0078cb	-0.031365197
9	0x3f33b7c6	0.7020229
10	0xb7fd3fc3	-3.0189642e-05
11	0xbecd1b28	-0.4005978
12	0x3efbb27e	0.49159616
13	0x3ec5fe3f	0.38670537
14	0xbe9705cc	-0.2949661
15	0xbe9d4b82	-0.3072167
16	0xbe2813bb	-0.16413777
17	0xbe31f6a0	-0.17379236
18	0x3e4a7a74	0.19773275
19	0xb5d3c1e8	-1.5777159e-06
20	0xbef4659a	-0.47733766
21	0x3ecb907f	0.3975868
22	0x3f34f000	0.7067871
23	0xbe8f594d	-0.2799782
24	0x3d0b1431	0.033954803
25	0xbeda27cd	-0.4260849
26	0x3ed5a2b5	0.41725698
27	0xbf4818f8	-0.781631
28	0xbf456061	-0.7710019
29	0xbf3ffad2	-0.74992096
30	0xbc389f07	-0.011268384
31	0x34990973	2.8505346e-07
32	0xbe6ad1ce	-0.22931597
33	0x3e4b0989	0.19827856
34	0x3f27d5db	0.6556069
35	0x3e4b0bc9	0.19828714
36	0xbf00f84e	-0.5037888
37	0x3c7816fb	0.015142198
38	0xbec6b781	-0.38811877
39	0xbd513e70	-0.051084936
40	0x3f154950	0.5831499
41	0x3a8a15cd	0.0010535062
42	0xbf13c6b6	-0.57725084
43	0x3f41fcc9	0.75776345
44	0xbf1d777b	-0.6151044
45	0xbe939246	-0.28822535
46	0x3e99eb46	0.30062312
47	0xbed84197	-0.4223754
48	0xbeb8b512	-0.36075646
49	0x3f33702b	0.7009303

exp_avg_sq f4 [50, 1]
0	0x3c828885	0.015934238
1	0x3d405cb9	0.046963427
2	0x3d3cb9fe	0.046075813
3	0x3be9076a	0.0071114795
4	0x3bb1e1aa	0.0054285126
5	0x3bc8e70a	0.0061310576
6	0x3c741d07	0.014899499
7	0x3bf0bfa3	0.0073470636
8	0x3d5161d3	0.051118683
9	0x3a914767	0.0011083902
10	0x3dd8d663	0.10587766
11	0x3ca8050c	0.020510219
12	0x3c0e3c09	0.008681306
13	0x3cc35987	0.0238464
14	0x3d2824ab	0.041050594
15	0x39f10f44	0.00045978476
16	0x38b69f8d	8.708155e-05
17	0x3bd454fd	0.006479858
18	0x3d3eb2a7	0.046557095
19	0x3d322c96	0.04349955
20	0x3d351c87	0.04421666
21	0x3d86cd09	0.06582076
22	0x3c8b1b2c	0.01698073
23	0x3cf8b5c1	0.030360105
24	0x38130c21	3.5058827e-05
25	0x39773a58	0.0002357749
26	0x3d25f4e3	0.040516745
27	0x3da48ba4	0.08034447
28	0x3c72ab47	0.0148113435
29	0x3dad4389	0.08460147
30	0x39f2e1c7	0.00046326054
31	0x3e10332b	0.14082019
32	0x3cc97636	0.0245925
33	0x3d6d50bb	0.05793832
34	0x3df62790	0.12019265
35	0x3b4aad10	0.0030925907
36	0x3c045055	0.008075793
37	0x3c1389ec	0.009005051
38	0x3db399cd	0.087695695
39	0x3d0edc9e	0.034878366
40	0x3d03a87f	0.032143112
41	0x38b20f67	8.49057e-05
42	0x3d06d1b2	0.032914825
43	0x3d0df130	0.034653842
44	0x39135a05	0.00014052547
45	0x3846bbb0	4.7381676e-05
46	0x38d9184e	0.000103518934
47	0x3ca95344	0.020669587
48	0x3cda3d07	0.026640428
49	0x3c8b781e	0.01702505

exp_avg f4 [50, 1]
0	0xbe603086	-0.2189351
1	0xbeda54bf	-0.4264278
2	0xbed7da31	-0.42158654
3	0x3e00a32c	0.12562245
4	0xbdcb735d	-0.09934113
5	0x3de35d14	0.111017376
6	0xbe560a91	-0.20902468
7	0xbe032b56	-0.128095
8	0x3ee55c40	0.44796944
9	0x3cae37cb	0.021266839
10	0xbf2dff40	-0.67967606
11	0xbe83bea7	-0.25731394
12	0x3e144bab	0.1448199
13	0xbe90d381	-0.28286365
14	0xbec9dbe2	-0.3942557
15	0xbb99afef	-0.0046901624
16	0x3911154f	0.00013836216
17	0xbdefefbd	-0.11715648
18	0xbed8b58c	-0.4232601
19	0xbed06b8c	-0.40707052
20	0xbed2652b	-0.4109281
21	0xbf04e596	-0.5191282
22	0xbe68e88f	-0.22744964
23	0x3ea81db9	0.32835177
24	0xb59596f4	-1.1145298e-06
25	0x3a6dd6f6	0.0009072864
26	0x3ec7a6eb	0.38994536
27	0x3f14845d	0.5801447
28	0xbe561622	-0.2090688
29	0xbf195565	-0.59895927
30	0xbbb1e753	-0.0054291873
31	0x3f4bb670	0.7957525
32	0xbe93f064	-0.2889434
33	0x3ef6e089	0.48218182
34	0x3f3a633c	0.7280767
35	0xbd7eaf7c	-0.062179074
36	0xbe0bc2cc	-0.13648528
37	0xbe168a6a	-0.14701238
38	0x3f1c7e20	0.6112995
39	0x3eb6dcb0	0.35715246
40	0xbeae8dac	-0.34092462
41	0xb7d9b1b6	-2.5951169e-05
42	0xbeb0fba7	-0.34566996
43	0x3eb51830	0.35370016
44	0xb9003515	-0.00012226806
45	0xb633215e	-2.66925e-06
46	0x375ea9e1	1.3271784e-05
47	0xbe84296e	-0.25812858
48	0xbe9afcc7	-0.3027098
49	0x3e687191	0.22699572

exp_avg_sq f4 [1, 50]
0	0x39e57ee9	0.0004377284
1	0x371d06cb	9.359511e-06
2	0x3a4b8a4f	0.0007764445
3	0x394ca167	0.00019515083
4	0x37ed5961	2.8294222e-05
5	0x3901b818	0.00012370979
6	0x391171a6	0.00013870615
7	0x3914d3c3	0.00014193267
8	0x37b9bd3b	2.2141836e-05
9	0x373c8539	1.12366915e-05
10	0x380d45b6	3.3681943e-05
11	0x3a3c48db	0.0007182487
12	0x39d02377	0.00039699275
13	0x39901d18	0.00027487497
14	0x38a29d43	7.754054e-05
15	0x38f481a2	0.00011658973
16	0x36faa7ac	7.4701e-06
17	0x38d149f0	9.9796685e-05
18	0x39bfde02	0.00036595768
19	0x3951460b	0.00019957886
20	0x36e06efb	6.68864e-06
21	0x39102ad9	0.00013748872
22	0x376dc792	1.4172767e-05
23	0x3a091c76	0.0005230376
24	0x36cecad3	6.1628903e-06
25	0x390330f3	0.00012511369
26	0x3868e8e7	5.5530018e-05
27	0x3910362e	0.00013753094
28	0x39422495	0.0001851491
29	0x37ed6320	2.829876e-05
30	0x390c2482	0.0001336504
31	0x37d8f3af	2.586268e-05
32	0x3614470b	2.209507e-06
33	0x38d63817	0.00010214763
34	0x397e0cfb	0.00024228163
35	0x3a476216	0.00076058635
36	0x394ffe67	0.0001983583
37	0x37920bff	1.7410142e-05
38	0x377e23c4	1.5147907e-05
39	0x39346802	0.00017204884
40	0x379e4527	1.886727e-05
41	0x3a9dec0e	0.0012048499
42	0x37d7c964	2.5723777e-05
43	0x389ad73d	7.3833835e-05
44	0x370214d2	7.753451e-06
45	0x399087c3	0.0002756697
46	0x3a4dd2f8	0.0007851566
47	0x3761b667	1.3453514e-05
48	0x36fc8e51	7.526753e-06
49	0x36f64a23	7.340002e-06

exp_avg f4 [1, 50]
0	0x3bde72fe	0.0067886105
1	0xb6bd79e9	-5.646831e-06
2	0xbc54dd7f	-0.012992262
3	0xba42c715	-0.0007430178
4	0x3991965b	0.0002776858
5	0xb965c2dd	-0.00021911734
6	0x37fefbf5	3.0396486e-05
7	0x39353c2c	0.00017283921
8	0xb8c4ef8a	-9.390626e-05
9	0xb55bc262	-8.186672e-07
10	0xb95883b3	-0.00020648427
11	0x3c37ab04	0.011210207
12	0x3b992385	0.0046734237
13	0x39a59500	0.00031582266
14	0xb8dc9fb8	-0.000105201674
15	0xb97b5a72	-0.00023970919
16	0xb8ba9460	-8.896808e-05
17	0x387fe729	6.1012022e-05
18	0xba484fb0	-0.0007641269
19	0x39531cdb	0.00020133278
20	0xb75cf1a5	-1.3169284e-05
21	0x3a593376	0.00082855613
22	0xb820666e	-3.8242368e-05
23	0xbbd9bcf4	-0.0066448394
24	0xb8b1c4ec	-8.476697e-05
25	0x3a4fa74b	0.0007921352
26	0xb85117f1	-4.985178e-05
27	0xb946710b	-0.00018924863
28	0x3982c769	0.00024944104
29	0x39d69f08	0.00040935748
30	0xb998b653	-0.0002912754
31	0x393a2782	0.0001775306
32	0x38b1918c	8.467128e-05
33	0x39c9b1db	0.0003847022
34	0xbab0fe13	-0.0013503454
35	0xbc2678ad	-0.010160607
36	0x3a8b8bd0	0.0010646526
37	0x3996aafc	0.00028737623
38	0x3994287d	0.00028258926
39	0x3acc97b3	0.0015609175
40	0x39aa909a	0.00032532663
41	0xbca5ed7b	-0.020254841
42	0xb92a767a	-0.000162566
43	0xb98ad792	-0.00026482024
44	0x38ec5f89	0.00011271152
45	0xbac872db	-0.0015293019
46	0x3c53496e	0.012895925
47	0x398eda12	0.00027246826
48	0xb881f045	-6.195953e-05
49	0x393475db	0.00017210042

exp_avg_sq f4 [50, 1]
0	0x3c7190bb	0.014743979
1	0x3ae8af91	0.0017752518
2	0x3ae06ac6	0.0017121665
3	0x3d979bb0	0.07402742
4	0x3e0187c8	0.12649453
5	0x3ddf8bf0	0.10915363
6	0x3d9e7db0	0.07738817
7	0x3a16f78c	0.0005758933
8	0x3ccb274a	0.024799008
9	0x3d96e5cb	0.07368048
10	0x3c40b00c	0.011760723
11	0x3d3cf26b	0.046129625
12	0x38055a85	3.1793974e-05
13	0x3be443e3	0.0069661005
14	0x3e031f59	0.12804927
15	0x3d8bfbb1	0.06835116
16	0x3cc30c5f	0.02380961
17	0x3a8e02ce	0.0010834576
18	0x3bf29485	0.007402959
19	0x3ab86b55	0.0014070073
20	0x3dc42597	0.09577482
21	0x3d852000	0.06500244
22	0x3a5a4ef3	0.00083278044
23	0x3dc26338	0.09491581
24	0x3c5cf32e	0.013485713
25	0x3e12372b	0.14278857
26	0x3cb6c6c7	0.022311581
27	0x3d65dcea	0.056118883
28	0x3d5b6095	0.053558905
29	0x3d3f35b0	0.04668206
30	0x3cdbf5c6	0.026850592
31	0x39188657	0.00014545895
32	0x3dc73ac7	0.09728008
33	0x3da20bee	0.07912432
34	0x3cb44b8d	0.022008682
35	0x3e00ab82	0.12565425
36	0x3b9783c9	0.0046238643
37	0x3da45090	0.080231786
38	0x3d3d6291	0.04623658
39	0x3ca19998	0.01972656
40	0x3c54842d	0.012970966
41	0x3d195341	0.037432913
42	0x3ca782d9	0.020448135
43	0x3d53220d	0.051546145
44	0x39c402fd	0.0003738626
45	0x3b3315d5	0.0027326245
46	0x3dfb40b7	0.12268203
47	0x3d13a3e5	0.036044974
48	0x3d435119	0.047684763
49	0x3ba22278	0.0049479567

exp_avg f4 [50, 1]
0	0x3e55d87b	0.20883362
1	0xbd144184	-0.036195293
2	0xbd12b680	-0.035818577
3	0xbf0e5134	-0.55592656
4	0x3f400e94	0.75022244
5	0xbf3101f8	-0.6914363
6	0xbf11d615	-0.5696729
7	0xbc02f42d	-0.007992786
8	0xbe94398d	-0.28950158
9	0xbf0db9af	-0.55361456
10	0xbe35e948	-0.17764771
11	0xbed76da7	-0.42075846
12	0x3892de4d	7.003229e-05
13	0x3df8946c	0.12137684
14	0xbf415aea	-0.7552935
15	0xbf07a3c9	-0.5298429
16	0xbe9090d3	-0.28235492
17	0xbca30cdb	-0.01990359
18	0x3e0237b9	0.12716569
19	0xbce19674	-0.027537562
20	0xbf246287	-0.6421284
21	0x3f03d1b7	0.51491874
22	0xbc669045	-0.0140724825
23	0xbf23ed61	-0.64034086
24	0xbe47e3a2	-0.19520429
25	0x3f4d2e81	0.80149084
26	0xbe8aaefc	-0.27086627
27	0xbef20a94	-0.47273695
28	0xbeeb8548	-0.46000123
29	0x3ed99c36	0.42501992
30	0xbe9b6634	-0.30351412
31	0x38c21c01	9.255857e-05
32	0x3f25e634	0.6480439
33	0x3f13af43	0.57689303
34	0xbe89f05d	-0.26941195
35	0x3f3f0973	0.74623793
36	0x3db49b3f	0.08818673
37	0x3f14caea	0.5812212
38	0x3ed86c63	0.42270193
39	0x3e80c426	0.2514965
40	0x3e42bea7	0.1901804
41	0x3ebe79d8	0.37202334
42	0xbe835ac5	-0.2565519
43	0xbee6d20b	-0.45082125
44	0x3b572177	0.0032826343
45	0xbd6855e2	-0.05672253
46	0xbf3c5b00	-0.73576355
47	0x3eba97e7	0.36444017
48	0xbedc525b	-0.43031582
49	0x3dc0071f	0.09376358

exp_avg_sq f4 [1, 50]
0	0x390a388c	0.00013181771
1	0x37a36644	1.9478735e-05
2	0x3af9fb63	0.0019072111
3	0x3883b4af	6.280222e-05
4	0x38d9c7e1	0.00010384597
5	0x392e24e1	0.00016607672
6	0x38b9e781	8.8646084e-05
7	0x36d58684	6.3635543e-06
8	0x38cf4248	9.882875e-05
9	0x39287f58	0.00016069168
10	0x3b30e931	0.0026994462
11	0x3af2df79	0.0018529735
12	0x3b241db1	0.0025042112
13	0x388e72fd	6.792506e-05
14	0x38aeaab4	8.3287625e-05
15	0x37e03216	2.6726204e-05
16	0x3b32a672	0.0027259854
17	0x3a8d49b1	0.0010779408
18	0x398d0657	0.0002689834
19	0x38be076e	9.06129e-05
20	0x3a354cd6	0.00069160515
21	0x39a6720c	0.0003174696
22	0x391c4d7b	0.00014906183
23	0x38c7d8e6	9.52946e-05
24	0x3a0d2f11	0.00053857366
25	0x3b053041	0.002032295
26	0x37de1cd1	2.6477881e-05
27	0x3945551f	0.00018819094
28	0x3a1bf14c	0.0005948737
29	0x3800a99e	3.0675546e-05
30	0x39386609	0.00017585618
31	0x3a2d1acb	0.0006603419
32	0x386f3055	5.7027053e-05
33	0x3893fa34	7.05611e-05
34	0x392e498d	0.00016621333
35	0x38bdb7b9	9.046443e-05
36	0x3895f7bf	7.15102e-05
37	0x3a13c887	0.0005637486
38	0x3a77af95	0.0009448466
39	0x390284d3	0.00012447247
40	0x399e3bd5	0.00030180687
41	0x399e7882	0.00030225894
42	0x39ba3c78	0.00035521737
43	0x3936423c	0.00017381547
44	0x37d148ef	2.4948704e-05
45	0x389ffb74	7.6285476e-05
46	0x398133b5	0.00024643322
47	0x3a805609	0.0009791265
48	0x38c6dcc7	9.482499e-05
49	0x39962e6b	0.00028644814

exp_avg f4 [1, 50]
0	0x3b10de78	0.0022105258
1	0xb99a425b	-0.00029422608
2	0xbcdff293	-0.027337348
3	0xba0a7cba	-0.0005282868
4	0x3afd4d89	0.0019325475
5	0x3b2d91e3	0.002648466
6	0x3aaca580	0.0013171881
7	0xb90ea4ac	-0.0001360352
8	0x3b07a5c1	0.0020698162
9	0x3b0738b4	0.0020633163
10	0xbd2e32f2	-0.042529054
11	0x3d0d477e	0.03449201
12	0xbd201a80	-0.039087772
13	0x3a9d817d	0.001201674
14	0x3ac39e0f	0.0014924424
15	0x3908222b	0.00012982699
16	0xbd31666a	-0.04331056
17	0xbc23db5e	-0.010001032
18	0x3b43ba22	0.0029865582
19	0x3abded72	0.001449032
20	0x3bff75c7	0.0077960226
21	0x3b383942	0.00281103
22	0x3b02501e	0.001988418
23	0x3ae397f6	0.0017364013
24	0x3c13b1ff	0.009014606
25	0xbcfbe889	-0.03075053
26	0xb9f0531d	-0.0004583829
27	0x3b1f5356	0.0024311147
28	0xbad59fc0	-0.001629822
29	0x3a4fb7c6	0.0007923808
30	0x3b58462a	0.0033000805
31	0xba94c027	-0.001134877
32	0x3ab74b39	0.001398421
33	0x39be62f5	0.00036313353
34	0xba9ff689	-0.001220421
35	0x3ae2f9b0	0.0017316844
36	0xb9dc0ecf	-0.00041972703
37	0x39d2d793	0.00040214937
38	0xbbfb3022	-0.00766565
39	0x3b023a62	0.0019871225
40	0x3995336a	0.000284578
41	0x3b14ed49	0.002272444
42	0xbba4da6b	-0.0050309203
43	0xbaa8f703	-0.0012890998
44	0x39d3c335	0.00040390497
45	0x3ab36fe1	0.0013689959
46	0xba65dbda	-0.0008768417
47	0xbc5b218b	-0.0133746965
48	0x3add628e	0.0016890333
49	0x3b4b47aa	0.0031018057

exp_avg_sq f4 [1, 50]
0	0x37378c2d	1.0940287e-05
1	0x37c53771	2.3510047e-05
2	0x3991ec1f	0.0002783248
3	0x39d06d36	0.0003975422
4	0x3a2abec9	0.00065134146
5	0x378e52ea	1.6966329e-05
6	0x391119f5	0.00013837947
7	0x39bc066d	0.00035862942
8	0x38c4a51d	9.376763e-05
9	0x39337f52	0.00017118201
10	0x39db39cd	0.00041814
11	0x378cfb7d	1.6806409e-05
12	0x39d2050a	0.00040058076
13	0x3832a037	4.258772e-05
14	0x383f38fc	4.559102e-05
15	0x39a6b61c	0.0003179767
16	0x3a84609d	0.0010099594
17	0x39f33d3a	0.0004639419
18	0x3a948807	0.0011332043
19	0x39f6dc12	0.00047084742
20	0x3a936a06	0.0011246807
21	0x3a4c407d	0.0007791592
22	0x38421748	4.6274887e-05
23	0x35d71a77	1.602645e-06
24	0x3973091c	0.0002317768
25	0x39091280	0.0001307223
26	0x39b04cff	0.00033626702
27	0x3a3d1e44	0.0007214288
28	0x38471a12	4.7469577e-05
29	0x391d426b	0.0001499743
30	0x38a32ea7	7.781135e-05
31	0x3a35fe5a	0.00069425034
32	0x37a2e04e	1.9416355e-05
33	0x3761ca58	1.3458157e-05
34	0x39d37475	0.00040331823
35	0x39ae33fb	0.00033226595
36	0x3787a7db	1.6171418e-05
37	0x3969e5ba	0.00022306191
38	0x390ffa15	0.00013730706
39	0x3611494e	2.1649353e-06
40	0x37afe267	2.0967052e-05
41	0x36f10bf9	7.1837535e-06
42	0x37b02168	2.0996391e-05
43	0x3a36f999	0.0006979942
44	0x39289f9d	0.00016081189
45	0x38abf9b1	8.200424e-05
46	0x377c8872	1.5052139e-05
47	0x3a34212e	0.0006871399
48	0x391a5dc8	0.0001472152
49	0x391abbe4	0.00014756579

exp_avg f4 [1, 50]
0	0xb998ecb5	-0.0002916806
1	0xb8921741	-6.966154e-05
2	0xbb519b04	-0.0031983266
3	0x3b7ee41f	0.0038893295
4	0x3bbcc2c7	0.005760524
5	0x378c19b6	1.6701273e-05
6	0xba91afdd	-0.0011115033
7	0xbbb711c7	-0.005586836
8	0x3a28b3a3	0.00064354594
9	0x3670375d	3.5795013e-06
10	0x3adbe3ee	0.0016776302
11	0xb9a193c6	-0.00030818413
12	0x3b85c000	0.004081726
13	0xba131212	-0.00056102977
14	0xba566b9a	-0.0008179486
15	0x3a8c44e8	0.0010701688
16	0x3c8e13c1	0.017343404
17	0xbc08c0eb	-0.0083467765
18	0x3c66a1ce	0.014076663
19	0x3a216b2f	0.0006157634
20	0x3c770bae	0.015078468
21	0x3c0862bc	0.008324321
22	0xb9cea47d	-0.00039413935
23	0x375e4aad	1.3249618e-05
24	0xb9744fae	-0.00023299336
25	0xba376d1e	-0.0006997156
26	0xbaa0b32a	-0.0012260426
27	0xbc0052ec	-0.00783227
28	0xba35ee93	-0.00069401524
29	0xbb220832	-0.0024724123
30	0xb9e1252f	-0.00042943048
31	0xbc23573d	-0.00996953
32	0xb9d7c049	-0.0004115126
33	0xb9849e3b	-0.00025294893
34	0xba4dbe92	-0.00078485266
35	0xb8ca1475	-9.635921e-05
36	0xb98637f4	-0.0002560016
37	0xbaadefed	-0.0013270356
38	0xba4fb78d	-0.00079237745
39	0xb8646f7e	-5.446327e-05
40	0xba05706f	-0.0005090301
41	0xb8642173	-5.4390588e-05
42	0xb9f2e19c	-0.0004632593
43	0xbc0beab8	-0.008539848
44	0xba4884c7	-0.000764918
45	0xb99fdd25	-0.0003049161
46	0xb8e2df38	-0.000108180975
47	0x3bd6019a	0.0065309526
48	0xbae8e9be	-0.0017769856
49	0x39b2ffd2	0.00034141407

exp_avg_sq f4 [1, 50]
0	0x39948e4a	0.00028334773
1	0x3a595c4a	0.0008291645
2	0x37ccc852	2.4411976e-05
3	0x38a5e33c	7.910139e-05
4	0x3956416c	0.00020433002
5	0x3980e5b6	0.0002458521
6	0x36f9a989	7.4405148e-06
7	0x3a298a56	0.0006467452
8	0x3a033180	0.00050046295
9	0x3837e25f	4.3841424e-05
10	0x3a42fc93	0.0007438149
11	0x39ebea3b	0.00044997208
12	0x377aa9af	1.4940669e-05
13	0x397b0500	0.00023939088
14	0x389afa7a	7.389947e-05
15	0x3a3fb060	0.00073123537
16	0x3a39d537	0.00070889614
17	0x3a138311	0.00056271354
18	0x3938643f	0.00017584952
19	0x39e282d0	0.00043203542
20	0x39868cb3	0.000256633
21	0x39dd25fc	0.00042180705
22	0x389e53a9	7.54961e-05
23	0x370c180f	8.350252e-06
24	0x39ab1aa9	0.00032635525
25	0x389a0377	7.3439376e-05
26	0x39233443	0.0001556436
27	0x38b873ac	8.795349e-05
28	0x381c69fb	3.7292e-05
29	0x38029d5c	3.1140968e-05
30	0x38351d68	4.318115e-05
31	0x39caa432	0.00038650777
32	0x391b0676	0.00014784359
33	0x38291a3c	4.0317173e-05
34	0x37cf6ef6	2.4727993e-05
35	0x38ebd03c	0.0001124446
36	0x3ab56f5e	0.0013842394
37	0x391c1191	0.00014883863
38	0x398bf26a	0.0002669276
39	0x399b687c	0.0002964175
40	0x3680335a	3.8206754e-06
41	0x3a9af9c8	0.0011823708
42	0x38b9a527	8.8522494e-05
43	0x3a0e887a	0.0005437207
44	0x39d91756	0.00041406852
45	0x380e287f	3.3893153e-05
46	0x395a250e	0.00020803904
47	0x3a3a0cb0	0.00070972275
48	0x370888c7	8.138078e-06
49	0x39de3ded	0.00042389278

exp_avg f4 [1, 50]
0	0x39670353	0.00022031115
1	0x3c082916	0.008310577
2	0xb65a557b	-3.2534288e-06
3	0xb9f3c333	-0.00046494007
4	0xba655e89	-0.00087497436
5	0xbb44f8d8	-0.003005555
6	0xb8c9e645	-9.627318e-05
7	0x3ba913be	0.005159824
8	0x3b3933e3	0.0028259687
9	0xb9c36e03	-0.00037275263
10	0x3be7c935	0.0070735463
11	0xbbf5d0e9	-0.0075017107
12	0xb95cf4e1	-0.0002107206
13	0xba85902e	-0.0010190064
14	0xb8f1985b	-0.00011520154
15	0x3bc68b78	0.0060591064
16	0x3bc40fb2	0.0059833163
17	0xbc2da228	-0.010597743
18	0xba9416f9	-0.001129835
19	0x3b1c43f0	0.0023844205
20	0xba6ccd95	-0.00090333197
21	0xbc03c36e	-0.0080422
22	0xba53a627	-0.000807377
23	0xb93b2655	-0.0001784799
24	0xb9353050	-0.00017279503
25	0xba7192b1	-0.0009215279
26	0xba61792a	-0.00086011237
27	0xba2b1f8f	-0.0006527835
28	0xb9791ec5	-0.00023757953
29	0xba2a82fe	-0.00065045047
30	0xb9d5396f	-0.00040669317
31	0xb9d405a5	-0.00040439997
32	0xba9792e4	-0.0011564163
33	0xb94561eb	-0.00018823861
34	0xb9bb31c7	-0.00035704506
35	0xba424953	-0.0007411439
36	0x3cafc073	0.021454072
37	0xbacb541b	-0.0015512736
38	0xbab009dc	-0.0013430673
39	0xbb604592	-0.0034221155
40	0xb8f5851b	-0.00011707303
41	0x3c89adfd	0.016806597
42	0xba1766c1	-0.00057755044
43	0x3b82bc43	0.0039897277
44	0xbbda9668	-0.006670762
45	0xb9e9541f	-0.00044503898
46	0xba9b8a7b	-0.0011866832
47	0x3bc606fb	0.0060433126
48	0xb93c42e2	-0.00017953993
49	0x3ab5e56b	0.0013877576

exp_avg_sq f4 [50]
0	0x3df3f7e6	0.11912517
1	0x3d836d48	0.06417328
2	0x3ca9dd86	0.020735513
3	0x3c2f148c	0.010686051
4	0x3c926805	0.017871866
5	0x3d9e14cb	0.0771881
6	0x3d973365	0.073828496
7	0x383879ee	4.3982574e-05
8	0x3c9974c2	0.018732432
9	0x3decf994	0.11571041
10	0x3db6740a	0.089088514
11	0x39b2927d	0.00034059948
12	0x3282afcb	1.5213933e-08
13	0x3d184a04	0.03717996
14	0x3dbc40c6	0.09192042
15	0x3d1871f4	0.03721805
16	0x3d96d1f5	0.07364265
17	0x3ce6d748	0.028178826
18	0x3dd311b2	0.103061095
19	0x3cf87297	0.030328078
20	0x3a9a0974	0.0011752085
21	0x3d761207	0.060075786
22	0x3d297ff3	0.041381788
23	0x3bbfb103	0.005849959
24	0x3a490453	0.0007668186
25	0x3dfff573	0.124979876
26	0x3d86ed98	0.06588286
27	0x39cbcafa	0.00038870407
28	0x3d863d01	0.06554604
29	0x3d5f14cd	0.054463197
30	0x3c8aa6da	0.016925264
31	0x3d8e85d9	0.06959123
32	0x3c48608c	0.01223005
33	0x3dd33061	0.10311962
34	0x3c226c61	0.009913535
35	0x3c92e94c	0.01793351
36	0x3c694d1d	0.014239577
37	0x3df37fa4	0.1188958
38	0x3d45cd60	0.048291564
39	0x3ab7ce93	0.0014023356
40	0x3df87a2f	0.1213268
41	0x3dd98320	0.10620713
42	0x3c819d39	0.01582204
43	0x3ca0c7f9	0.019626604
44	0x3c41e5da	0.011834586
45	0x3dcc1750	0.09965384
46	0x3a06e923	0.00051464344
47	0x3d96379a	0.07334824
48	0x3c892f53	0.016746199
49	0x3535511c	6.7545784e-07

exp_avg f4 [50]
0	0xbf39c04e	-0.7255906
1	0xbf02e190	-0.5112543
2	0x3e846ac1	0.25862697
3	0x3e2a5ed0	0.1663773
4	0x3e70cee0	0.23516417
5	0x3f119557	0.568685
6	0xbf0ddfa1	-0.55419356
7	0x370a1bf9	8.231954e-06
8	0xbe785300	-0.24250412
9	0xbf36bc56	-0.7138113
10	0x3f1ddc0a	0.6166388
11	0x3b1fc799	0.0024380444
12	0x326588d2	1.3360664e-08
13	0x3ebdff58	0.37108874
14	0x3f20a4f5	0.62751704
15	0x3ebe0430	0.3711257
16	0x3f0da5f5	0.55331355
17	0x3ea05b93	0.31319866
18	0xbf2b52ab	-0.66923016
19	0x3ea819be	0.3283214
20	0x3cb8c1dc	0.022553377
21	0xbefc4cac	-0.49277246
22	0xbeca9c88	-0.3957255
23	0xbddb038f	-0.10694038
24	0xbc4ccfac	-0.012500685
25	0xbf3eb7f7	-0.7449946
26	0xbf04f71f	-0.51939577
27	0xbb679e61	-0.0035342204
28	0x3f048bf4	0.5177605
29	0xbeee3584	-0.46525204
30	0x3e6884ca	0.22706905
31	0x3f092589	0.535729
32	0xbe3ae4f7	-0.18251406
33	0x3f2b59f9	0.6693416
34	0xbe21b138	-0.1579026
35	0x3e7156e2	0.235683
36	0xbe4f4869	-0.20242466
37	0x3f3991c5	0.7248805
38	0x3eddead1	0.43343213
39	0x3ce1bf5a	0.027557064
40	0xbf3b9777	-0.7327799
41	0x3f2e3dcb	0.6806304
42	0x3e5e6ec2	0.21721938
43	0xbe8002a1	-0.25002006
44	0xbe36a55e	-0.1783652
45	0x3f282614	0.656831
46	0x3bcf5c7d	0.006328164
47	0x3f0d5376	0.55205476
48	0xbe66c9c3	-0.22537903
49	0x34a60b96	3.092834e-07

exp_avg_sq f4 [50, 1]
0	0x398e5edb	0.00027155023
1	0x3dbfe51a	0.093698695
2	0x3e0f3371	0.13984467
3	0x3d91234a	0.07086809
4	0x3dd622bd	0.104558446
5	0x3c8955d5	0.01676456
6	0x392f4b45	0.0001671734
7	0x3c645870	0.013937101
8	0x3c6960c7	0.014244265
9	0x3c2288c9	0.009920307
10	0x3d8a0cbe	0.06740712
11	0x3d79e53a	0.061009623
12	0x3add31dc	0.0016875821
13	0x3c86dd6a	0.016463
14	0x3d953bbd	0.07286785
15	0x3a3dfa85	0.0007247108
16	0x3c3a8140	0.011383355
17	0x3dc27c3b	0.09496351
18	0x3cde3525	0.02712495
19	0x3e0ae047	0.13562118
20	0x3de25e49	0.1105314
21	0x3de1dbb0	0.1102823
22	0x3d0c9356	0.034320198
23	0x3dab3e22	0.0836146
24	0x3c07c36c	0.008286338
25	0x3d4b2e1a	0.049604513
26	0x3b9840bc	0.004646389
27	0x3ad4968b	0.0016219182
28	0x3d366c97	0.044537153
29	0x3df66be6	0.12032299
30	0x3ba26a1d	0.0049564973
31	0x3adf7aae	0.0017050111
32	0x3c083d40	0.008315384
33	0x3da34b72	0.079733744
34	0x3d0209ba	0.031747557
35	0x3cf5a403	0.029985433
36	0x3d0e1082	0.03468371
37	0x3b194868	0.0023389105
38	0x3b37b59e	0.0028031836
39	0x3de453ad	0.111487724
40	0x3cc9ba06	0.024624836
41	0x3dc7306e	0.09726034
42	0x3c846a2d	0.01616391
43	0x38fa4bc4	0.000119350414
44	0x3bd24194	0.006416509
45	0x398b42d4	0.00026561937
46	0x3d668eca	0.056288518
47	0x3c479437	0.012181333
48	0x3d412ad5	0.04715999
49	0x3d75c5bb	0.060003024

exp_avg f4 [50, 1]
0	0xbab472e5	-0.0013767151
1	0xbf22464a	-0.633885
2	0x3f4aeb29	0.79265076
3	0xbf0a9b53	-0.54143256
4	0xbf2cb914	-0.67469907
5	0xbe664aaa	-0.2248942
6	0xb947e395	-0.000190629
7	0xbe4c622f	-0.19959329
8	0x3e4f12e5	0.20222051
9	0xbe21c2df	-0.15796994
10	0xbf06e3fe	-0.5269164
11	0x3efe62df	0.49684808
12	0x3d0cba93	0.03435762
13	0x3e645df0	0.2230146
14	0x3f0cbc58	0.5497489
15	0x3c3be5fd	0.011468408
16	0x3e328774	0.17434484
17	0xbf237172	-0.6384498
18	0x3e9cac2c	0.30600107
19	0x3f478f74	0.7795327
20	0xbf322777	-0.6959147
21	0xbf320b85	-0.6954883
22	0xbeb51348	-0.35366273
23	0x3f18522b	0.5950038
24	0x3e0e25fb	0.13881676
25	0xbee17f3a	-0.4404238
26	0x3db60044	0.088867694
27	0xbd06a599	-0.03287277
28	0xbed380fd	-0.41309348
29	0xbf3ac376	-0.729545
30	0xbdbfc769	-0.09364206
31	0xbd0eaa35	-0.03483029
32	0x3e0eb941	0.13937856
33	0xbf14271d	-0.5787218
34	0xbeacbc1a	-0.3373726
35	0xbea6a011	-0.32543996
36	0xbeb60621	-0.3555155
37	0xbd4464fb	-0.047947865
38	0x3d6af950	0.05736667
39	0x3f32ffc2	0.69921505
40	0x3e93bbe2	0.2885428
41	0xbf2615af	-0.64876837
42	0x3e614262	0.2199798
43	0xb7a8bbe9	-2.0114663e-05
44	0xbdeb846a	-0.11499865
45	0x3aa8ea8b	0.0012887282
46	0xbef2c99e	-0.47419447
47	0x3e3b06a1	0.18264247
48	0x3edaf5d1	0.42765668
49	0x3efbe4e1	0.49198058
