experiments/rotation/checkpoints/checkpoints_weight_decay_mse/checkpoint_dim-2_ntrain-12_weightdecay-0_seed-1683final.pkl (torch_old, 26260 bytes, 36 tensors)

ffs.0.0.weight f4 [50, 1]
000000 3f 87 af bf 94 73 a8 be 22 6c bc be 60 56 9f bf
       -1.3713149 -0.3290068 -0.3680125 -1.2448235
000010 2a 06 cf 3e ae 5f 95 3f 9b 46 aa 3f a5 36 8a 3f
       0.4043439 1.1669824 1.3302797 1.0797926
000020 5d 73 e4 3e dc 7c 0e bf 83 9c bf 3e 5e 2f 99 3f
       0.44619265 -0.5565927 0.37424096 1.196758
000030 90 44 99 3f 3f 82 a8 bf 44 93 e6 3f 38 95 a9 3f
       1.1974049 -1.3164748 1.8013692 1.3248663
000040 dc bd d5 3e 2a ea f4 3e ed 84 a3 bf fe fa 9c bf
       0.41746414 0.47834903 -1.2774941 -1.2264097
000050 29 8b ab 3e 40 32 da 3e d4 98 e6 be 6d ad a3 bf
       0.33504608 0.42616463 -0.45038474 -1.27873
000060 ec e8 af bf 65 00 80 be 9e 8f 88 bf d0 cf eb be
       -1.3742957 -0.250003 -1.0668828 -0.46056986
000070 fa 36 cb be 55 d1 87 be 67 5c de 3e 09 37 0b 3f
       -0.3969038 -0.26526895 0.43429872 0.5438085
000080 7c 5f a2 3f 53 b9 be be bd bd 9e 3f 19 8e eb 3f
       1.268539 -0.37250766 1.2401654 1.840274
000090 4b ab dd 3e 5f bc bd 3e 24 d0 b1 3e 46 08 b8 3e
       0.4329475 0.37057778 0.3472911 0.35943812
0000a0 2f cb b9 3e 7b 75 ab bf bc 2f da 3e 55 d8 b7 3e
       0.3628783 -1.3395227 0.42614543 0.35907236
0000b0 2c a4 c2 bf e0 aa cc be 08 28 bc be 76 6d d0 3e
       -1.5206351 -0.39974117 -0.3674929 0.40708512
0000c0 6b 6b ce 3f 8f 1a cd bf
       1.6126531 -1.602373

ffs.0.0.bias f4 [50]
000000 0c 2b 02 c0 26 e8 20 3f 1b fc 67 3d aa 98 5f bf
       -2.0338774 0.6285423 0.05663691 -0.8734232
000010 94 62 29 3f 7c 4e ba bf 44 40 3b 3f ea 3e 83 bf
       0.66166043 -1.4555202 0.73144937 -1.0253575
000020 b5 c3 2e 3f a8 76 c4 bf 21 16 5a 3e 3e 2a 3c 3f
       0.68267375 -1.5348711 0.21297504 0.73501956
000030 82 d5 a2 bf 27 57 f7 3f 48 72 63 40 ff e2 e0 3f
       -1.2721407 1.9323472 3.5538502 1.7569274
000040 02 1b 35 3f 39 e2 8f 3f 13 2a 30 bf 63 85 12 bf
       0.70744336 1.1240913 -0.688142 -0.5723478
000050 97 c5 1e bf 60 cd c6 3e f0 89 94 bf a3 bd 42 bf
       -0.6202025 0.38828564 -1.1604595 -0.7607061
000060 60 1a a2 be 56 3e 02 3f 37 b5 32 bf 62 b6 89 bf
       -0.31660748 0.5087637 -0.6980776 -1.0758784
000070 84 0e 22 bf e5 45 b8 bc 2e 94 1d 3f eb f8 ba 3f
       -0.633034 -0.022494266 0.6155423 1.4607214
000080 0b 8f 97 3f 7a 9e 59 be a0 44 c1 bf 2f a0 6b 40
       1.1840528 -0.2125186 -1.5099068 3.6816518
000090 ac c5 dc be 41 9a ca 3d 13 03 28 bf c4 0f 10 bf
       -0.43119562 0.09892703 -0.6562969 -0.56274056
0000a0 80 aa 91 be df 64 e6 3f 4c 61 4a 3f d5 85 88 ba
       -0.28450394 1.7999533 0.79054713 -0.0010415862
0000b0 5a f0 27 c0 20 ee 1e bf a1 e9 c0 3e 11 88 24 3f
       -2.624045 -0.620821 0.37678245 0.6427012
0000c0 21 59 3c 40 2f 0b b3 be
       2.94294 -0.3496947

ffs.0.2.weight f4 [1, 50]
000000 69 1a 36 bf bd 7e 49 3e fc fb a6 3e 15 a4 df be
       -0.7113405 0.19677253 0.32614124 -0.43679872
000010 ab 93 2e be bb 1b d1 be ed 1d 35 3e 00 59 db be
       -0.17048518 -0.4084147 0.17687197 -0.4284134
000020 cb 7e ec bd 57 60 e4 3e ca f1 21 be bd 61 4d 3e
       -0.11547621 0.4460475 -0.15814891 0.20056815
000030 b3 9f f2 be 66 f4 ca 3e 55 f1 00 3f d8 26 d0 3e
       -0.47387466 0.39639586 0.50368243 0.40654635
000040 df b6 2d be 68 f1 0e be 70 9b 86 be 2b 02 92 be
       -0.16964291 -0.13959277 -0.26290464 -0.2851728
000050 fc 29 47 be 9a d9 c4 bd 50 47 64 3e c7 e0 6f be
       -0.1944961 -0.09611817 0.22292829 -0.2342559
000060 7b a0 37 be 4e 4d c5 3d 0e 4b c3 bd 5d f5 35 3e
       -0.17932312 0.09633885 -0.095358 0.1776938
000070 15 99 9e 3e fc d7 34 3e 04 8c 08 be 59 87 12 be
       0.30976167 0.17660517 -0.13334662 -0.14309444
000080 56 9f be 3e ac 2d b5 3e 71 19 08 bf 6f 31 c7 3e
       0.3723094 0.35386407 -0.5316382 0.38904902
000090 f4 18 89 be e7 da 29 be da ea 21 be 48 7e 9f be
       -0.2677685 -0.16587411 -0.15812245 -0.31151032
0000a0 15 92 48 be a4 8f c4 3e d8 7b 0e be 46 fd 5d be
       -0.19586976 0.3839084 -0.1391443 -0.21678647
0000b0 a1 4a 38 bf bd d5 53 3e ec d7 ea 3d a7 08 28 be
       -0.71988875 0.20687003 0.11466965 -0.1640955
0000c0 c5 44 8e 3e 47 26 4d be
       0.27786842 -0.20034133

ffs.1.0.weight f4 [50, 1]
000000 ff 5d c1 3f df 1c 02 40 d1 2b 1f bf 91 f5 af be
       1.510681 2.0330122 -0.62176234 -0.3436704
000010 e0 fd aa 3e 73 53 ea 3f 5a 0a ed be 35 fd af 3f
       0.33396816 1.8306717 -0.4629696 1.3749148
000020 d1 82 c0 3e 66 ce ad bf 73 5a 80 3e 19 b3 ad 3e
       0.37599805 -1.3578613 0.25069007 0.33925703
000030 ca e5 aa be 46 8a 82 bf 82 ca 1a 3e 85 08 84 3f
       -0.3337844 -1.0198448 0.15116313 1.03151
000040 74 a5 2e 3e fe 3f de 3e 41 61 b8 3f 85 67 8c 3f
       0.17055303 0.43408197 1.440468 1.0969092
000050 89 f3 05 3a 04 59 01 3f 73 8f ba be 55 18 f2 3e
       0.0005109837 0.5052645 -0.36437568 0.4728419
000060 ab c5 95 3f c3 fe 18 bf 32 4a 97 be b1 42 f5 bd
       1.1700948 -0.59763736 -0.29548794 -0.11975611
000070 e2 fb 15 bf d7 db 97 3e f6 cb aa bf ec 4f 9f 3f
       -0.5858747 0.29659912 -1.3343494 1.2446265
000080 dc 12 a1 3e fc a6 74 3e e6 48 7b bf be 88 17 bf
       0.314597 0.23891824 -0.9815811 -0.59193027
000090 14 20 bf be b4 7e 84 3e 89 62 94 3f c3 37 bd be
       -0.3732916 0.25877917 1.159257 -0.36956605
0000a0 ba 70 d8 3f 6d 58 d0 be 9e 05 ee 3e b6 ad b9 3f
       1.6909401 -0.40692464 0.4648866 1.4506137
0000b0 74 50 78 be 73 79 05 bf 3e 12 57 bf 6b 84 a2 bf
       -0.2424944 -0.5213844 -0.8401221 -1.2696661
0000c0 62 53 dd 3e 8b 3a eb be
       0.4322768 -0.45943102

ffs.1.0.bias f4 [50]
000000 e2 50 8a 3f 33 d4 f5 3d c1 09 b6 bf b5 05 67 3e
       1.0805933 0.120033644 -1.4221727 0.22560771
000010 27 f7 5d bb 28 5b a3 40 31 ed 36 bf 6a 13 1a 3f
       -0.0033869238 5.1048775 -0.71455675 0.60185874
000020 3f 1e 9a 3e de 46 66 bd 31 fd 72 bf 47 42 95 bf
       0.301012 -0.056219928 -0.9491759 -1.1660851
000030 98 70 d9 3e c3 fa 9a 3f 3d 0d 7a bf 9d ea 79 bf
       0.42468715 1.2107776 -0.9767645 -0.97623616
000040 03 a7 4d bf 31 0a 7d bf 7f f4 26 3f 77 40 12 bf
       -0.80332965 -0.98843676 0.6521682 -0.57129616
000050 6b bf 0e bf 97 f7 68 3f 29 34 96 3f 79 2c 3a 3f
       -0.5576083 0.9100279 1.1734668 0.7272411
000060 d7 ed 7f be f4 44 a8 bf 8a 67 67 3f cb 34 60 bf
       -0.24993072 -1.3146043 0.90392363 -0.87580556
000070 cd 9c 9d bf ed 86 e5 3e ef 19 8c be 67 22 c7 bd
       -1.2313477 0.44829503 -0.27363536 -0.097233586
000080 6d 9f ad be 60 d9 dc be 3f af 84 3f 61 e6 a6 bf
       -0.33910695 -0.43134594 1.0365981 -1.3039056
000090 7f 7b 0e bf 78 e1 61 bd 86 d8 b3 be 49 9b 2a 3f
       -0.5565719 -0.055146664 -0.35126132 0.66643196
0000a0 1f 55 cd 3f ea 20 86 be b9 5c 28 3f 17 e6 d2 3e
       1.6041602 -0.26196986 0.65766484 0.4119117
0000b0 05 5f df 3e 8a ac 83 bf b4 c8 56 3f d6 8c f4 3d
       0.43627182 -1.028703 0.839 0.11940925
0000c0 c5 a9 e3 3e a2 d7 00 bf
       0.4446546 -0.5032903

ffs.1.2.weight f4 [1, 50]
000000 69 27 e3 be ee d1 f9 be b8 98 43 be b3 10 29 be
       -0.44366005 -0.48792976 -0.19101226 -0.16510276
000010 f8 2d 8e 3e 4f ea 96 3f e8 22 96 be 38 f5 a4 be
       0.27769446 1.1790255 -0.29323506 -0.32218337
000020 36 1b 8e 3e 30 a1 1f 3e bc 34 01 3e 43 15 50 3d
       0.27755135 0.15588832 0.12617773 0.050801527
000030 05 3a 1d be 09 93 d6 3d 48 51 bc 3c 43 85 0d be
       -0.15354164 0.104772635 0.022987977 -0.13820367
000040 ff 43 a8 3d a6 9f 2a 3c 8b 22 cf be 55 1a 96 be
       0.08216094 0.01041404 -0.40456042 -0.29316965
000050 38 81 d5 3c d0 b4 c2 3e 41 9a eb bc a1 13 d9 3e
       0.026062593 0.38028574 -0.028760077 0.42397788
000060 d0 32 00 be c3 01 44 be d6 16 03 3d d3 6f 6c bd
       -0.12519383 -0.19141297 0.0320042 -0.05772383
000070 b5 e0 85 be 67 d7 fa 3d f0 20 da 3d a0 8b b8 be
       -0.26148 0.12248116 0.106508136 -0.36044025
000080 29 01 a8 3e 99 f1 2e 3e 65 67 db 3d 04 c9 86 be
       0.32813385 0.1708435 0.1071308 -0.26325238
000090 06 82 53 be 5e 01 46 3e 41 29 8b be 2c f7 35 bd
       -0.20655069 0.19336459 -0.27179912 -0.044425175
0000a0 8f 88 17 bf 2f 19 fe bd ea 0b 9f 3e d3 21 01 bf
       -0.59192747 -0.12407147 0.31063777 -0.50442237
0000b0 04 17 2d be 85 22 c5 be 9a 55 25 3d 58 ef 11 3e
       -0.16903311 -0.385029 0.04036484 0.14251459
0000c0 cf ce a0 3e 53 94 4e be
       0.31407782 -0.20173769

ffs.2.0.weight f4 [50, 1]
000000 6f 86 aa be 05 18 c8 3f 3a d6 c7 bf dc 8f 37 3f
       -0.3330569 1.563233 -1.5612252 0.71703887
000010 61 7e de 3f 49 9d 0d bf dc dd af 3f c7 e4 57 bf
       1.7382318 -0.55318123 1.3739581 -0.8433346
000020 bc 4c d7 bf 99 1a ad bf 8d 82 79 3e 1d 5e 9f be
       -1.6820292 -1.3523742 0.24366207 -0.3112649
000030 bf 9d be 3e 9f 13 eb be 2e 65 6e 3f 63 29 06 bf
       0.37229726 -0.45913407 0.9312314 -0.524069
000040 54 ef f6 3f 21 7f b7 be c6 f8 ba 3e e5 6a 1f bf
       1.9291787 -0.3583918 0.36517924 -0.62272483
000050 dd 1c 5d 3f 48 0e 2e 3f 6e ef d1 3e 52 9d c7 3f
       0.86372167 0.6799054 0.41002983 1.5594885
000060 6e fd ab 3f 27 44 ce bf 00 81 ba 3e 97 28 aa be
       1.3436716 -1.6114548 0.36426544 -0.33234093
000070 10 00 42 be 38 c5 14 bf 69 54 33 3f b2 47 c7 3f
       -0.18945336 -0.5811343 0.70050675 1.5568755
000080 80 17 02 3f a3 ed b0 3f f9 07 15 bf 53 13 09 bf
       0.5081711 1.3822521 -0.5821529 -0.5354511
000090 8f 4e c2 3e 71 3a 0d bf 9a e5 f4 be 9b 8f 05 bf
       0.3795056 -0.551673 -0.47831422 -0.5217225
0000a0 34 30 d3 3f b7 ca b6 be 19 ef e8 3e 06 36 c8 be
       1.6499085 -0.35701534 0.45494917 -0.39103717
0000b0 60 bf 0c bf 67 b5 49 40 db 4e f5 3f a5 e4 9a 3e
       -0.54979515 3.151697 1.916469 0.30252567
0000c0 09 be c2 bf fc f3 d6 3e
       -1.5214244 0.4198302

ffs.2.0.bias f4 [50]
000000 2c 80 14 3f 6f 52 d7 3e f3 20 ab 3e 9f cd b8 3f
       0.58008075 0.4205508 0.33423576 1.443775
000010 94 77 bb 3e c7 22 58 bf c4 fe 8f 3e 69 30 eb bf
       0.36614668 -0.84428066 0.28124058 -1.8374149
000020 f3 78 b8 be 3b 01 60 3e ce 43 4d bf 2b 79 1c 3f
       -0.36029777 0.2187547 -0.80181587 0.6112239
000030 09 4e 02 bf d4 0e 64 bd 83 b7 37 bf 5c 4d be ba
       -0.5090032 -0.055678204 -0.7176439 -0.0014518904
000040 ac 8f 13 3f 6f 98 4e 3f c4 66 44 be 3f 35 91 bf
       0.576411 0.80701345 -0.19179827 -1.1344374
000050 b1 5d f0 3f 05 98 aa 3f 3e 2a 8d be f7 db 15 3f
       1.8778592 1.3327643 -0.2757129 0.58538765
000060 78 8f 43 40 ef 46 81 bc fc dd fd be f6 5a b5 bd
       3.0556316 -0.015780894 -0.49583423 -0.0885524
000070 47 02 1f 3f 92 5a 9c 3c d9 dc b1 3f 5e 38 fe bd
       0.6211285 0.019086156 1.3895522 -0.12413095
000080 c1 4d 22 3f a2 2d 49 40 bd 0c 7e bf 19 36 72 bf
       0.63399893 3.1434102 -0.9923819 -0.94613796
000090 5b 2d 4a 3d 0c 30 5c bf 6f 08 00 bf e6 34 26 bf
       0.04935966 -0.86010814 -0.5001287 -0.64924467
0000a0 3f 7f 4e 3f b8 63 a9 3e 66 d0 93 3e ad 39 03 3e
       0.8066291 0.33083892 0.28869933 0.1281497
0000b0 96 59 0f bf 91 78 85 40 ae 86 56 bc 82 42 d2 be
       -0.5599607 4.1709676 -0.013093634 -0.41066366
0000c0 ee d6 a8 3e a0 b1 11 3e
       0.32976478 0.14227915

ffs.2.2.weight f4 [1, 50]
000000 61 bc 14 3e bd 99 59 3e 01 9c 6a be b4 1a c9 be
       0.14524986 0.21250053 -0.22911073 -0.39278185
000010 70 a1 05 3f 07 b3 85 3e 6a cd 1a 3e 1a 30 ab 3e
       0.5219946 0.2611315 0.15117422 0.33435136
000020 c9 e1 70 be ab 87 1f bd 0c a1 23 be 42 81 b7 3d
       -0.2352363 -0.038947742 -0.15979403 0.08960201
000030 10 12 50 be de 1f 80 3d e2 2e 61 3d c5 c1 5d bd
       -0.2031939 0.06256078 0.05497635 -0.05413987
000040 29 ca 2b 3f b9 c6 db bd 4d e8 01 bc 13 8b 8b 3e
       0.67105347 -0.10731263 -0.00792892 0.27254543
000050 fd b0 ab be ed a8 98 be 10 58 3b be 85 33 62 3e
       -0.3353347 -0.2981638 -0.18295312 0.22089966
000060 5c c9 a8 be b2 fb 32 be d5 4e 32 be fa 62 e0 3d
       -0.32966125 -0.17478827 -0.17412885 0.10956378
000070 b9 31 ca 3d 86 4b e0 3b 61 45 c3 be 5c 68 96 3e
       0.09872765 0.0068449406 -0.3813887 0.29376495
000080 1d 71 8e be 5a 25 ce be 9d 8d 05 3e 0a 80 f0 3d
       -0.27820674 -0.40262872 0.13042302 0.117431715
000090 0e 53 a3 bd a0 54 fd 3d 24 87 28 3e 26 69 35 3e
       -0.07974826 0.123696566 0.16457802 0.17715892
0000a0 ec df 87 3e 41 3a 80 3d e8 f3 93 be 3e 85 63 3d
       0.26538026 0.06261111 -0.28897023 0.05554699
0000b0 da 3a 7f 3d 7c 63 19 3f 69 bf 0d 3f b7 73 7b bd
       0.062311985 0.59917426 0.55370194 -0.06138965
0000c0 7d 91 43 bd d9 1a 10 be
       -0.04774617 -0.14072742

ffs.3.0.weight f4 [50, 1]
000000 99 2c b2 bf 9b 66 c7 be 8c 32 8e bf ca 9c 88 3e
       -1.391986 -0.3894547 -1.1109176 0.2668212
000010 97 9d f3 be 13 d8 65 3f 4c c2 93 3e 9a 25 02 3f
       -0.4758117 0.8978283 0.28859174 0.50838625
000020 69 5f e1 3f b8 05 be 3e 97 c7 50 3f 22 4f ea be
       1.7607242 0.37113738 0.8155455 -0.457635
000030 bc ae 7c bf 4f a9 ab 3e ab 71 b0 3f 03 0d 95 3e
       -0.98704123 0.3352761 1.3784689 0.2911149
000040 70 74 2f 3f cd 90 5e 3f 8f d5 09 3f cc 1c 8c bd
       0.68537045 0.869397 0.5384149 -0.0684143
000050 07 c1 ea 3e 1b 10 ba 3f bd 6e d5 3e 99 a3 22 3f
       0.45850393 1.4536165 0.4168605 0.6353088
000060 66 9a 7c 3e 4c c1 6f 3f 4f b5 57 bf 4e 9b a9 3e
       0.24668273 0.9365432 -0.8426103 0.331263
000070 e4 fa a5 bf 7c 16 c1 be db 65 33 3c f1 45 09 3f
       -1.2967191 -0.37712467 0.010949577 0.5362235
000080 9d a4 25 3f 44 10 6c be 94 05 ca be 7c 0d 09 40
       0.64704305 -0.2305308 -0.3945738 2.141448
000090 cc 50 37 3f 81 df d1 3f 88 eb 33 bf 18 8e f2 bf
       0.7160766 1.6396333 -0.7028127 -1.8949614
0000a0 14 4d 29 3f 60 08 85 3c 8a 6b 73 be b4 b0 8d 3f
       0.66133237 0.016239345 -0.23771492 1.106955
0000b0 62 c2 84 bf 5c c6 3e bf a7 98 6a bf 15 b0 04 3e
       -1.0371821 -0.7452142 -0.9163918 0.12957795
0000c0 f3 07 76 3e 2e c6 df be
       0.2402647 -0.43705887

ffs.3.0.bias f4 [50]
000000 2e 48 e1 3f fe 99 ab 3e c3 f8 02 bf 59 93 81 3f
       1.7600152 0.33515924 -0.5116083 1.0123092
000010 e7 46 52 bf d5 81 87 bf 51 7f 87 3f f6 ef 8f bf
       -0.8213944 -1.0586497 1.0585729 -1.1245105
000020 12 30 e2 bf ed 41 ea 3f df 7b e5 3e 3c 1a 3d bf
       -1.767092 1.8301369 0.4482107 -0.73868155
000030 f5 fc d4 3f 12 42 74 3f 02 e3 ce bf 8e 9d 80 3f
       1.6639696 0.95413315 -1.6163027 1.0048082
000040 ea f3 88 3e 93 9b 90 3f cb 41 a8 bf b8 4e de 3d
       0.26748592 1.1297477 -1.3145078 0.10854858
000050 7f a2 27 bf af 49 27 bf 83 6d 46 bf b1 e2 f3 be
       -0.65482324 -0.6534681 -0.7751085 -0.4763389
000060 03 9c 2e bf ca e5 ec be 5f d8 00 bf 08 6f d4 3f
       -0.68206805 -0.46269065 -0.50330156 1.6596384
000070 34 f4 d6 3f 5e 2b 45 bf 60 70 70 3d b2 3f 97 3f
       1.6793275 -0.770193 0.05870092 1.1816313
000080 74 8d 89 3e 37 4d 9f bf 2c 77 61 bf df f2 66 bf
       0.26865733 -1.2445439 -0.88072467 -0.9021434
000090 1c ee 0a 3b fe dd 54 bf ee b4 97 bf bd 8a 01 c0
       0.0021199053 -0.83151233 -1.185209 -2.024093
0000a0 a0 f7 21 3f 95 d3 18 bc 7f fe c1 bf af 4b d5 3e
       0.6326847 -0.009327789 -1.5155791 0.41659304
0000b0 d4 28 42 3f bf 33 29 bf d2 04 34 3f 5d c7 32 3f
       0.7584355 -0.66094583 0.70319855 0.69835454
0000c0 3f 8b 9b 3f dd ad 0e bf
       1.215187 -0.55734044

ffs.3.2.weight f4 [1, 50]
000000 91 56 e8 3e f3 98 35 be 6d 3e a1 be 13 c8 bb 3e
       0.45378545 -0.17734127 -0.3149294 0.36676082
000010 ca d4 4b be c2 3a ef be f6 57 3d 3e 14 80 09 bf
       -0.19905391 -0.46724516 0.18490586 -0.53711057
000020 a2 07 db be 40 82 e5 3e 8d 6d 9e 3e 9d 7e c5 be
       -0.4277926 0.44825935 0.30942956 -0.3857316
000030 ac f5 bf 3e fd 74 e4 3e 65 8e f7 be 89 ec 41 3e
       0.3749212 0.44620505 -0.48350826 0.18937887
000040 fd aa 50 3e 45 15 04 3f 07 7b 16 bf 43 b8 39 be
       0.20377727 0.51594955 -0.58781475 -0.18136697
000050 91 4c da be e6 7b b8 be 35 ad ed bd d4 28 5a be
       -0.4263654 -0.36032027 -0.11605302 -0.21304637
000060 aa 17 98 bc 42 18 71 be b2 69 56 be 35 1d a9 3e
       -0.018565971 -0.2354441 -0.20938757 0.33030096
000070 16 e6 c9 3e f7 b0 de be e4 88 e1 be 55 a1 e5 3e
       0.39433354 -0.43494388 -0.44049752 0.4484965
000080 60 6e a2 3d 85 cd d4 be d4 21 f5 be 91 8b c9 be
       0.079312086 -0.4156305 -0.4787737 -0.39364293
000090 6a ff 07 3d 53 65 ec be bc 25 fa be 6b e2 4c bf
       0.033202566 -0.46171054 -0.48856914 -0.80032986
0000a0 cd 12 be 3e 1a 2d 1d be fe 09 dc be 28 0c 0c 3e
       0.3712372 -0.15349236 -0.42976373 0.13676512
0000b0 68 9f 54 3e 36 54 f8 be d9 44 81 3e c2 6f d1 be
       0.20763934 -0.48501748 0.2524784 -0.40905577
0000c0 19 df e8 3e 89 49 b5 be
       0.4548271 -0.35407665

exp_avg_sq f4 [50, 1]
000000 a0 89 3f 30 dd 00 d8 2e c4 b8 02 30 1e 87 2a 2f
       6.968097e-10 9.822696e-11 4.755629e-10 1.5509413e-10
000010 d2 0b 21 30 3d b8 1e 32 18 e0 8a 30 c8 5b 98 2f
       5.8588256e-10 9.238701e-09 1.0104513e-09 2.7713853e-10
000020 4e 43 4b 30 d4 68 01 2e 0a a1 29 2e 34 ca 27 2c
       7.3946615e-10 2.942431e-11 3.8569183e-11 2.3844373e-12
000030 36 33 e1 2e 64 9b f3 28 fb 03 03 2c 02 c5 65 2b
       1.0240912e-10 2.704581e-14 1.861843e-12 8.1630547e-13
000040 eb 58 fb 2d c8 ba fa 29 37 6f e2 2f ee 06 1a 2e
       2.8574884e-11 1.11346316e-13 4.1188183e-10 3.50217e-11
000050 47 3e d0 2c c2 95 f9 30 e7 6b 2f 2b f8 32 12 31
       5.9186297e-12 1.8159698e-09 6.2322234e-13 2.1274769e-09
000060 e2 22 7a 2d fa 4d 03 30 0e 4f 21 2c a5 3f 00 2e
       1.42186e-11 4.7768334e-10 2.292336e-12 2.9160358e-11
000070 37 12 76 30 5f 4e 32 2f da 56 b5 2d c6 86 1f 2f
       8.9520164e-10 1.6216849e-10 2.0615887e-11 1.4508847e-10
000080 01 fd 19 30 48 ee 31 2f 5c 82 a9 2a ac 76 7a 30
       5.6020616e-10 1.6182711e-10 3.0110886e-13 9.1118113e-10
000090 c8 76 03 30 ee b2 a4 2f 5d 33 6a 2e 5d 37 ab 2c
       4.782632e-10 2.9958563e-10 5.325106e-11 4.866259e-12
0000a0 28 fa c3 30 8c 3e 17 2f 29 db 97 30 c3 6f fb 2f
       1.4259216e-09 1.3755591e-10 1.1048985e-09 4.5736046e-10
0000b0 c5 f5 2b 2f 30 01 03 31 7e 50 d4 2a 4f 9b b5 2d
       1.5639674e-10 1.9063684e-09 3.7714618e-13 2.0646288e-11
0000c0 a4 b6 8a 30 a5 7d e8 2f
       1.0092731e-09 4.228983e-10

exp_avg f4 [50, 1]
000000 85 f0 61 b1 e4 c2 fd 33 4f 13 b5 32 55 7e 3a b1
       -3.2878529e-09 1.1816681e-07 2.1079954e-08 -2.7138374e-09
000010 26 86 d7 b2 9c 47 53 b4 19 d2 02 33 7d 18 b5 b0
       -2.5090298e-08 -1.9676958e-07 3.0459066e-08 -1.3176443e-09
000020 5f f1 11 b3 46 5c 66 b2 03 35 b2 b0 5a bd e7 31
       -3.397997e-08 -1.3408743e-08 -1.2966271e-09 6.7445116e-09
000030 ec 27 00 b2 03 d2 21 32 07 88 a4 b1 22 61 45 b2
       -7.459658e-09 9.4191845e-09 -4.7884927e-09 -1.1488995e-08
000040 a7 43 94 b2 58 e9 1b 31 ec c9 fb 32 7c cb 91 b2
       -1.7260232e-08 2.268811e-09 2.931207e-08 -1.6972756e-08
000050 5b da 91 b2 8f c8 23 b3 49 41 9b b1 02 86 0e b3
       -1.6979518e-08 -3.8133802e-08 -4.518516e-09 -3.318383e-08
000060 4b cb 8b b1 9f 18 a5 32 11 21 04 31 b2 1c 40 33
       -4.068544e-09 1.9219724e-08 1.9227324e-09 4.4729582e-08
000070 bb 39 92 32 70 14 68 b3 36 09 8b b1 bd 36 7c 31
       1.702289e-08 -5.4035297e-08 -4.0464796e-09 3.6701941e-09
000080 f6 d3 ad b1 9e 5a f0 b2 e7 97 44 32 ef 79 01 33
       -5.05906e-09 -2.7980885e-08 1.144324e-08 3.014605e-08
000090 3f a3 80 33 74 6d 5d b3 62 e0 0f b2 30 d4 e2 b1
       5.990159e-08 -5.155512e-08 -8.374714e-09 -6.6015886e-09
0000a0 96 d6 a0 31 30 ca c6 30 37 14 99 b2 8e 49 91 33
       4.6810085e-09 1.4463861e-09 -1.7820737e-08 6.765468e-08
0000b0 0c cc de 32 16 c9 67 33 91 5a 07 32 aa ae 9b b1
       2.5936991e-08 5.3966765e-08 7.878627e-09 -4.5309507e-09
0000c0 9d 94 2b b2 58 7f 8d b1
       -9.987301e-09 -4.1181174e-09

exp_avg_sq f4 [1, 50]
000000 43 aa 2d 34 b5 aa 1e 33 c6 45 41 34 c1 4d 04 34
       1.6173821e-07 3.69425e-08 1.7999909e-07 1.2321745e-07
000010 84 c5 11 33 59 73 8f 33 da cd 18 33 9c 74 2a 33
       3.3940083e-08 6.679938e-08 3.557748e-08 3.9687265e-08
000020 86 ff 1d 34 0b b1 37 34 c2 60 c1 32 74 10 2f 34
       1.4714723e-07 1.7107611e-07 2.2512157e-08 1.630413e-07
000030 1c b8 fb 32 c6 a1 f9 33 4f 48 91 32 20 88 06 34
       2.9303969e-08 1.16243925e-07 1.6913104e-08 1.2529244e-07
000040 d0 1f 20 33 f2 5e 44 34 0e 92 3c 33 17 19 6f 33
       3.7281836e-08 1.8288463e-07 4.3904997e-08 5.5669343e-08
000050 d2 f8 12 34 9f 11 00 34 96 cf 21 33 e1 8f 31 33
       1.368783e-07 1.192734e-07 3.7674532e-08 4.134188e-08
000060 7f aa 22 34 17 28 2f 34 a6 03 01 33 c1 23 dd 33
       1.5149452e-07 1.631273e-07 3.003847e-08 1.0297618e-07
000070 b9 0d 26 34 f6 4f 0d 34 ef 0c 02 34 70 41 d4 32
       1.5464947e-07 1.3160738e-07 1.2111899e-07 2.4709806e-08
000080 0e f9 b6 33 83 d9 22 34 99 99 81 33 83 85 7e 33
       8.520338e-08 1.5166556e-07 6.03497e-08 5.926041e-08
000090 88 e0 70 33 ec 21 8d 33 a3 50 b3 33 98 e4 a4 33
       5.6083564e-08 6.5719945e-08 8.350005e-08 7.678426e-08
0000a0 ed 48 46 33 3a d1 17 34 8b b4 8d 33 b4 a2 07 34
       4.6166793e-08 1.4139087e-07 6.598665e-08 1.2632046e-07
0000b0 10 2c b7 33 49 9f c4 33 6b de d6 32 e3 56 19 33
       8.5296165e-08 9.155935e-08 2.5014023e-08 3.570211e-08
0000c0 25 8a 40 34 cc 3f 7e 33
       1.793165e-07 5.9197006e-08

exp_avg f4 [1, 50]
000000 42 3b 22 b6 9e 57 ae b5 75 e6 1b b6 a0 04 ee b5
       -2.4174374e-06 -1.298951e-06 -2.3230943e-06 -1.7733728e-06
000010 7b 35 a8 b5 14 9d e2 b5 ec 00 a7 b5 90 be d0 b5
       -1.253254e-06 -1.6884028e-06 -1.2442738e-06 -1.5552669e-06
000020 52 fd 0a b6 03 eb 19 b6 97 95 5f b5 e9 a6 22 b6
       -2.0711054e-06 -2.2935571e-06 -8.3291656e-07 -2.4237036e-06
000030 06 f6 7a b5 d9 dc 0c b6 5d 62 50 b5 60 f4 11 b6
       -9.349027e-07 -2.0990176e-06 -7.7629176e-07 -2.1748929e-06
000040 a0 c4 ab b5 8f d4 2b b6 e1 17 99 b5 79 c1 d6 b5
       -1.2797718e-06 -2.560471e-06 -1.1406338e-06 -1.600055e-06
000050 c8 60 ec b5 86 0d ed b5 ce bf 8d b5 53 f1 b7 b5
       -1.7611537e-06 -1.7661812e-06 -1.0561141e-06 -1.3704797e-06
000060 ea a8 a6 b5 ce 32 13 b6 ae 48 7e b5 88 f0 03 b6
       -1.2417124e-06 -2.193428e-06 -9.4728136e-07 -1.9660529e-06
000070 87 5c 1d b6 14 90 14 b6 37 4d ed b5 1a c3 91 b5
       -2.344868e-06 -2.2137583e-06 -1.7680348e-06 -1.0860124e-06
000080 eb 6f d1 b5 c5 ba 9d b5 49 1b db b5 36 e2 d6 b5
       -1.5604286e-06 -1.1751769e-06 -1.6324713e-06 -1.6010079e-06
000090 83 88 ad b5 b2 08 e1 b5 a4 29 f5 b5 d9 59 ee b5
       -1.2929235e-06 -1.6766337e-06 -1.8266041e-06 -1.7758531e-06
0000a0 5f 25 c4 b5 ae bd 18 b6 59 30 ba b5 c5 79 11 b6
       -1.4614014e-06 -2.2760173e-06 -1.3872151e-06 -2.1677563e-06
0000b0 cc ab f9 b5 20 cb 9f b6 5f 0d 96 b5 a6 bd 8b b5
       -1.8601945e-06 -4.762216e-06 -1.1179762e-06 -1.0411502e-06
0000c0 91 fa 1b b6 31 47 b1 b5
       -2.3242649e-06 -1.3208247e-06

exp_avg_sq f4 [1, 50]
000000 76 79 7f 33 51 c6 1c 34 c1 5c e0 33 a8 f6 d1 33
       5.9482282e-08 1.4600779e-07 1.0447685e-07 9.7771874e-08
000010 a0 19 b5 33 17 0b e8 31 f3 5d 35 33 05 3b 31 32
       8.4331305e-08 6.7533494e-09 4.2227793e-08 1.03161755e-08
000020 d4 31 b0 33 77 24 f9 32 6d 9f 78 33 da 72 42 33
       8.204702e-08 2.9003997e-08 5.7886997e-08 4.52736e-08
000030 a7 54 0b 32 94 7b 68 34 91 65 e9 33 f6 50 a2 33
       8.110113e-09 2.1651641e-07 1.0868383e-07 7.5584396e-08
000040 db 61 b9 33 09 a3 ec 33 f3 60 e6 33 c2 5b ee 33
       8.6325336e-08 1.1019262e-07 1.07278446e-07 1.1099429e-07
000050 55 8d c3 32 a9 23 8b 33 33 42 1e 33 86 66 df 33
       2.2765258e-08 6.4791784e-08 3.684745e-08 1.04028956e-07
000060 ed 7e 08 34 f6 0e 0d 34 79 07 d4 33 9b 37 31 33
       1.2712162e-07 1.3137091e-07 9.8733786e-08 4.1261597e-08
000070 9f 64 80 33 e0 82 c2 33 bb bd a8 33 f0 cc 08 34
       5.978767e-08 9.057635e-08 7.8576214e-08 1.2740543e-07
000080 17 09 78 33 2e ec b6 33 1a be df 31 d3 96 ec 33
       5.7750267e-08 8.517996e-08 6.5117662e-09 1.1017041e-07
000090 57 e3 e2 32 7d 1a 5e 33 1f 0b b8 32 71 de cd 32
       2.6413245e-08 5.1712494e-08 2.1425477e-08 2.3966296e-08
0000a0 20 7e 11 33 f4 0c 64 34 bb 38 c4 33 16 24 4a 33
       3.3875153e-08 2.1238867e-07 9.1372804e-08 4.706461e-08
0000b0 c6 a8 55 33 d0 6a 82 33 39 71 0a 34 86 c1 b1 33
       4.9746426e-08 6.073026e-08 1.2893442e-07 8.2774065e-08
0000c0 71 ec d8 33 d8 d3 0b 34
       1.0101292e-07 1.3022452e-07

exp_avg f4 [1, 50]
000000 e7 a7 25 33 7d 8e 54 b3 a2 30 8d b3 5b fb 4c 33
       3.8569762e-08 -4.948969e-08 -6.5746704e-08 4.7726058e-08
000010 a3 dd 6b 33 a2 a6 b0 b3 2e 30 ee b3 33 32 a3 b3
       5.491678e-08 -8.225949e-08 -1.10915025e-07 -7.59941e-08
000020 52 d8 6d 33 cf 55 39 b4 3c c7 fe 32 26 7a c8 b3
       5.5377605e-08 -1.7260685e-07 2.9660093e-08 -9.3354444e-08
000030 ae 34 a5 b3 ca cb 3f 33 bd ab d6 b4 03 80 ab b3
       -7.6929936e-08 4.4655998e-08 -3.9985562e-07 -7.986093e-08
000040 c5 7b 78 33 98 9c bc 33 cc 9e 6c 33 06 d8 52 33
       5.7854567e-08 8.7829164e-08 5.5092457e-08 4.9090907e-08
000050 46 1a 14 ae bb 2f 1c 33 b8 ac 13 b4 ad af 69 33
       -3.367464e-11 3.636499e-08 -1.3753277e-07 5.4409316e-08
000060 41 a8 7d 33 56 b7 79 b3 00 3a ec 32 91 89 0e b4
       5.905918e-08 -5.8141573e-08 2.7500391e-08 -1.3274827e-07
000070 2d 6e db b3 3f 00 9a b3 5b fa 5b 33 a0 b0 fa 33
       -1.0218023e-07 -7.1712286e-08 5.1217608e-08 1.167366e-07
000080 a4 f0 bf b3 3b 37 a9 b3 db d1 af b3 7c a1 f3 b4
       -8.937903e-08 -7.879722e-08 -8.187245e-08 -4.5379772e-07
000090 0e bb ff b1 b1 0a ce 32 79 35 23 b1 4c 48 bd b0
       -7.4427424e-09 2.3986418e-08 -2.3750018e-09 -1.3772108e-09
0000a0 1c 8b 01 32 de c3 2a 33 07 fe 87 33 b9 b2 ab 32
       7.540418e-09 3.975935e-08 6.332635e-08 1.9988294e-08
0000b0 b8 67 ce 33 25 e1 d9 b3 d1 2a 62 b3 5f d7 66 33
       9.611489e-08 -1.01458035e-07 -5.2658667e-08 5.3746927e-08
0000c0 b1 67 5e b4 db 4f b7 33
       -2.0713084e-07 8.536127e-08

exp_avg_sq f4 [1, 50]
000000 32 9e 17 34 59 bf b6 33 10 b0 a6 33 ee d5 b9 33
       1.4120522e-07 8.5098414e-08 7.762003e-08 8.6536474e-08
000010 ce 04 19 33 18 fc ea 31 38 1a bc 33 e8 db ed 31
       3.562746e-08 6.838956e-09 8.7592014e-08 6.9226083e-09
000020 ec 0e 9c 31 fc bf 02 34 8e 24 0c 33 83 a6 22 33
       4.541894e-09 1.2177037e-07 3.2629536e-08 3.7870006e-08
000030 58 84 1a 34 8d 17 a9 33 bf b7 99 31 f5 6b b5 33
       1.4390514e-07 7.8739596e-08 4.4737756e-09 8.4481066e-08
000040 61 e8 06 33 4a 66 68 33 ce 09 b3 31 5a 16 77 33
       3.1410654e-08 5.410974e-08 5.2107003e-09 5.7529498e-08
000050 9a 4c 69 32 ce 7f 11 32 62 dc 4d 32 a4 1a 7d 32
       1.3579802e-08 8.46917e-09 1.198268e-08 1.4732596e-08
000060 32 f5 8a 32 be dc 53 32 18 d7 8d 33 ee c5 f9 33
       1.6176816e-08 1.2332007e-08 6.6049495e-08 1.1630969e-07
000070 a3 24 17 34 b9 2a 0e 33 7e eb 5a 33 ca 1e a5 33
       1.4076299e-07 3.3100807e-08 5.097126e-08 7.689012e-08
000080 ec 63 0c 33 14 0a 7a 32 74 de 00 33 67 79 d8 31
       3.268717e-08 1.4554207e-08 3.0004642e-08 6.3002292e-09
000090 df a8 c9 32 e7 bf f7 31 2f 07 0f 33 13 41 7a 33
       2.3476273e-08 7.210463e-09 3.3301315e-08 5.8266846e-08
0000a0 52 ca 40 33 e6 9d 4b 33 a8 c5 2a 32 56 52 ce 32
       4.4887493e-08 4.740823e-08 9.940244e-09 2.4018998e-08
0000b0 f6 dd ff 33 37 75 6b 33 54 fa f8 33 8d 4b a9 33
       1.1914737e-07 5.4821808e-08 1.1593934e-07 7.8834184e-08
0000c0 c7 a7 d5 33 5c 87 3d 33
       9.949104e-08 4.41281e-08

exp_avg f4 [1, 50]
000000 6e 35 16 36 b7 27 de 35 52 ea ff 35 f3 d3 02 36
       2.2382842e-06 1.6551847e-06 1.9067177e-06 1.949488e-06
000010 a5 52 6f 35 47 91 f9 34 da 98 04 36 bd 33 0c 35
       8.91547e-07 4.6485567e-07 1.9758504e-06 5.2229353e-07
000020 65 5f ee 34 64 0e 1e 36 31 8d 8a 35 8d 45 7c 35
       4.4400363e-07 2.355221e-06 1.0322893e-06 9.3978525e-07
000030 f6 31 19 36 4f 04 00 36 65 e7 dc 34 3e 7c 02 36
       2.2827858e-06 1.9075994e-06 4.1146555e-07 1.9443828e-06
000040 1b 1c 92 35 1d b2 be 35 fb 2e f0 34 75 a3 ba 35
       1.0886027e-06 1.4207941e-06 4.4737666e-07 1.3905652e-06
000050 69 3e 4a 35 5a 88 0b 35 59 60 3f 35 2b ac 45 35
       7.534168e-07 5.197995e-07 7.129325e-07 7.3638756e-07
000060 6a 45 61 35 f5 3b 1f 35 b4 c1 d7 35 77 cd 18 36
       8.392004e-07 5.9319365e-07 1.6075123e-06 2.2769361e-06
000070 46 81 16 36 e7 49 68 35 c4 f1 b5 35 b4 2c 04 36
       2.2426989e-06 8.6534277e-07 1.3555914e-06 1.9695553e-06
000080 0d 63 98 35 8a 9b 17 35 02 a8 55 35 3b a9 14 35
       1.135371e-06 5.647822e-07 7.9593167e-07 5.538056e-07
000090 03 a4 72 35 3f 47 0b 35 d5 07 67 35 75 3e 25 36
       9.0390694e-07 5.188521e-07 8.6065603e-07 2.462327e-06
0000a0 9a b3 b8 35 84 eb af 35 6d 0e ed 34 20 4b 3e 35
       1.3761339e-06 1.310706e-06 4.4155186e-07 7.0889837e-07
0000b0 b2 8d 0e 36 d9 da b6 35 a8 77 0c 36 b8 92 ec 35
       2.1242126e-06 1.362375e-06 2.0931275e-06 1.7626071e-06
0000c0 8d 0a 0a 36 e0 5a 8e 35
       2.0569744e-06 1.0606273e-06

exp_avg_sq f4 [50, 1]
000000 b4 6c a7 31 d8 ca 76 2f 7d ba b9 30 38 51 3d 30
       4.872698e-09 2.2445634e-10 1.3513525e-09 6.887322e-10
000010 e1 f2 3b 30 97 04 7b 2d d4 2c 9a 2e 1c eb 42 2b
       6.8375355e-10 1.4268717e-11 7.011072e-11 6.9248925e-13
000020 ce 9e a7 2f a7 f7 c1 31 9e f3 eb 2f 39 d3 19 2f
       3.048996e-10 5.645194e-09 4.2919351e-10 1.399031e-10
000030 08 f4 a4 2c 3d 4c 3d 2e 11 06 5a 31 db 35 bb 30
       4.6882533e-12 4.3041338e-11 3.1726624e-09 1.3621347e-09
000040 cf db 3c 30 3b 42 11 30 21 9b 3d 2f 10 76 5d 2f
       6.870637e-10 5.284481e-10 1.7244563e-10 2.0141777e-10
000050 e6 7b 6e 2f 37 fb 3c 2f cf d2 ba 30 37 59 26 2f
       2.1689991e-10 1.718775e-10 1.3593197e-09 1.5129308e-10
000060 2f 96 12 2e 1b 55 c4 2e 9e 62 49 2e bc a8 69 30
       3.3329946e-11 8.928166e-11 4.57897e-11 8.500469e-10
000070 85 db 19 31 aa 0a 14 30 35 b7 d8 2f 3f c2 1e 30
       2.2389213e-09 5.385724e-10 3.9420348e-10 5.7756105e-10
000080 9f 68 3f 30 da 61 14 31 12 a3 e1 2d 9d c9 03 31
       6.963407e-10 2.1592457e-09 2.5651956e-11 1.9177613e-09
000090 f4 0f da 2f e2 1f e7 2f 94 3d 0b 2f b8 97 19 30
       3.9665304e-10 4.204131e-10 1.2663853e-10 5.587668e-10
0000a0 87 eb c2 2f ff e6 ee 2d 99 8e 03 30 fa d9 33 30
       3.5455747e-10 2.716005e-11 4.7860166e-10 6.5429584e-10
0000b0 0f ad c8 31 c2 cd 87 30 6e fa e1 2e 1a cd 2b 30
       5.8404406e-09 9.881023e-10 1.02763006e-10 6.2500904e-10
0000c0 01 8c 7a 30 4d db cf 2d
       9.114843e-10 2.3630565e-11

exp_avg f4 [50, 1]
000000 26 14 6a b3 83 82 b8 b2 d8 67 fd b2 e2 b0 6c 33
       -5.4500696e-08 -2.1479769e-08 -2.9500299e-08 5.5108906e-08
000010 9e 76 b0 b0 9a 86 f1 b1 36 d4 d7 b2 61 55 fe b1
       -1.2839398e-09 -7.0293256e-09 -2.5125797e-08 -7.4020794e-09
000020 c5 28 d1 31 b3 20 9c 32 b9 5a 17 32 63 b8 d9 b2
       6.0873355e-09 1.817566e-08 8.809985e-09 -2.5345974e-08
000030 18 1a a7 b2 77 1f cc 30 38 64 2b 34 6c da 0d 32
       -1.9453225e-08 1.4851896e-09 1.5962075e-07 8.256944e-09
000040 e5 1d 50 2e 78 33 92 b1 be 17 13 33 9a dc 10 33
       4.7320276e-11 -4.2550106e-09 3.4247698e-08 3.372825e-08
000050 92 1a bc 32 dc de 0f 32 64 d3 bf 32 1b e2 04 33
       2.1898163e-08 8.374368e-09 2.2331456e-08 3.0939287e-08
000060 70 ed 8d 32 eb e5 54 b1 b1 7b 71 32 4a a3 0e 32
       1.6522534e-08 -3.0980754e-09 1.40561704e-08 8.3026155e-09
000070 e5 b2 6b 31 14 97 f5 31 51 4d ea 31 3a 56 aa b1
       3.429869e-09 7.147614e-09 6.819086e-09 -4.957454e-09
000080 e6 85 17 b3 7b 40 a3 b2 ba fb 95 b2 ad d0 ee 33
       -3.5279207e-08 -1.900502e-08 -1.7460355e-08 1.11206965e-07
000090 6d ca 30 33 fd 93 4a 32 cb d7 a4 32 4f 7d 26 33
       4.11623e-08 1.1791596e-08 1.9190244e-08 3.8763854e-08
0000a0 fe 58 b8 32 a2 57 2d 32 a6 24 c6 b0 11 fd 89 32
       2.1460888e-08 1.0089851e-08 -1.4416812e-09 1.606398e-08
0000b0 49 47 2d b4 42 5b 34 30 26 8a 6b b2 46 4b c6 2f
       -1.6137814e-07 6.5613304e-10 -1.3710212e-08 3.6069475e-10
0000c0 b1 a7 aa 33 bf 8f c5 32
       7.946745e-08 2.2999187e-08

exp_avg_sq f4 [50, 1]
000000 d1 27 1f 2f 18 45 1c 2e 31 8e 3a 2d b2 47 96 31
       1.4475111e-10 3.553166e-11 1.0604449e-11 4.3737254e-09
000010 f8 53 0f 2f 28 50 e7 30 7f 95 d9 2d 30 fa 5d 31
       1.3035606e-10 1.6830244e-09 2.4736433e-11 3.2301948e-09
000020 dc b3 02 2e bc ef 31 2b e1 41 42 2f be 29 7b 2e
       2.9718325e-11 6.321573e-13 1.7667602e-10 5.7107867e-11
000030 f8 5f 96 2f 94 4d 5d 2e cd e0 62 2b e1 a7 00 2e
       2.735303e-10 5.0318485e-11 8.0603303e-13 2.9252937e-11
000040 61 88 4e 2f 08 ac 42 2e f2 d8 35 2b 59 11 0a 31
       1.8784042e-10 4.4263287e-11 6.460519e-13 2.0091504e-09
000050 e5 80 5e 31 bf 39 2b 31 47 c5 a1 2f c4 f4 56 2e
       3.237852e-09 2.49166e-09 2.9425903e-10 4.8875362e-11
000060 43 c5 3c 31 05 f1 46 2d c5 9b 69 2f 11 9f 6c 2f
       2.746973e-09 1.1308514e-11 2.1246567e-10 2.1520587e-10
000070 cd 3d f2 2e c3 42 cb 2a 10 c5 8c 31 de d3 f4 2d
       1.1015864e-10 3.610637e-13 4.0969397e-09 2.7833676e-11
000080 f9 0c ee 30 66 08 8b 31 6e a1 f3 2f ff d0 ca 2f
       1.7320466e-09 4.0463872e-09 4.4316145e-10 3.6892087e-10
000090 a8 ca d6 2e dd 65 d1 2f b6 73 1b 30 4c 7f 3f 30
       9.767592e-11 3.8089257e-10 5.6553107e-10 6.9666295e-10
0000a0 c3 22 a0 2e f0 b6 25 2e b9 10 c9 30 8e b0 20 2e
       7.2821325e-11 3.7679138e-11 1.4629428e-09 3.65366e-11
0000b0 49 7b a4 2e b4 a0 0a 2f 14 6c 88 2e 92 9b 26 2e
       7.4797564e-11 1.260812e-10 6.2037625e-11 3.7882204e-11
0000c0 15 92 0a 2b 01 3a ac 2f
       4.923018e-13 3.1327832e-10

exp_avg f4 [50, 1]
000000 f2 12 b2 33 f8 35 a1 32 1b 67 89 32 f2 df 1a b5
       8.292217e-08 1.8767409e-08 1.5995786e-08 -5.7695354e-07
000010 8c 5c c3 33 8c 33 a8 34 fe ad e5 b1 c3 18 15 35
       9.097229e-08 3.1329944e-07 -6.684558e-09 5.554286e-07
000020 a5 7d 15 b3 84 98 62 31 00 f0 d2 b3 54 1c 64 33
       -3.480604e-08 3.2974024e-09 -9.822543e-08 5.311115e-08
000030 77 a8 eb b3 fc 8e 45 33 03 1e 01 b2 e7 a1 02 b3
       -1.0973684e-07 4.599768e-08 -7.515612e-09 -3.0415233e-08
000040 25 0e 72 34 ab fc 3c b3 de 3a d2 b1 b0 9b c3 34
       2.2543152e-07 -4.400196e-08 -6.118497e-09 3.6434858e-07
000050 96 b9 15 b5 88 57 e4 b4 d0 67 ef b3 a3 ba ac 32
       -5.577689e-07 -4.2531997e-07 -1.1148188e-07 2.0108308e-08
000060 cb c0 32 b5 9b e9 89 b1 34 6d d2 b3 e6 a9 e8 33
       -6.659072e-07 -4.0137826e-09 -9.798751e-08 1.0834246e-07
000070 a2 7a a9 33 97 00 3d 31 23 da 13 b5 94 a5 f4 b1
       7.8919825e-08 2.7503455e-09 -5.50792e-07 -7.1201587e-09
000080 d6 fb a4 b4 9a 5c 5a b5 1f 04 33 34 72 b1 25 34
       -3.0730615e-07 -8.134608e-07 1.6672173e-07 1.5431377e-07
000090 43 86 98 b3 d7 70 21 34 b4 21 39 34 86 31 4f 34
       -7.1024736e-08 1.5035344e-07 1.7241729e-07 1.9296394e-07
0000a0 f4 64 43 33 c6 e1 34 33 d4 a9 8f b4 03 99 30 33
       4.5493792e-08 4.2114856e-08 -2.6759392e-07 4.1117357e-08
0000b0 40 91 7d 33 66 ed c2 b4 03 87 8d 32 2a 20 40 b3
       5.9038257e-08 -3.6308046e-07 1.6475957e-08 -4.4732737e-08
0000c0 a8 29 6d 31 9f 62 05 b4
       3.4511718e-09 -1.2422468e-07

exp_avg_sq f4 [50]
000000 a9 9c 1b 30 9a 92 36 2f 8a 93 67 2f 9f 67 52 2f
       5.66113e-10 1.6604887e-10 2.1061744e-10 1.9136202e-10
000010 96 37 25 30 d0 e1 f6 30 f5 d9 30 30 67 61 91 2f
       6.010564e-10 1.7963036e-09 6.433816e-10 2.6444555e-10
000020 b0 40 29 30 b7 8c 34 2e 2c 80 a0 2e e5 b6 10 2d
       6.157377e-10 4.105224e-11 7.2987255e-11 8.226063e-12
000030 02 76 24 2f cb 89 64 2d f0 73 35 2c ed 80 d3 2d
       1.4957638e-10 1.2990896e-11 2.5786005e-12 2.4045177e-11
000040 8b f1 2b 2e f3 87 c2 2a 68 03 da 2f 31 4d 10 2f
       3.9095432e-11 3.4555656e-13 3.965639e-10 1.3124148e-10
000050 f7 23 c4 2c 36 da 8d 30 b9 24 33 2c e8 7b b8 30
       5.574648e-12 1.032112e-09 2.5457815e-12 1.3422978e-09
000060 d3 80 f0 2d 92 c6 73 2f dc 3a a8 2c a9 27 ca 2d
       2.734205e-11 2.2171268e-10 4.781382e-12 2.2982354e-11
000070 77 1e ed 2f 35 66 0a 2f 2d df d1 2d e5 f9 7c 2f
       4.3131695e-10 1.2587338e-10 2.3859659e-11 2.3008047e-10
000080 3d 29 4b 30 6e a6 63 2f 0c 9b 89 2d 20 b5 e9 2f
       7.3909573e-10 2.0704657e-10 1.5643951e-11 4.251115e-10
000090 7c 69 bb 2f 3a ab a9 2f 72 45 05 2f 1c 82 2d 2d
       3.4090053e-10 3.0862585e-10 1.2120951e-10 9.8628015e-12
0000a0 9a e2 8e 30 32 77 01 2f 6b b9 47 30 63 ce 0b 30
       1.0396264e-09 1.1774828e-10 7.2659273e-10 5.08612e-10
0000b0 b8 04 5e 2f 15 f9 8b 30 c3 d8 69 2c 46 ad 14 2e
       2.0192459e-10 1.0184374e-09 3.3231618e-12 3.38052e-11
0000c0 bf 2f 51 30 e6 56 a8 2f
       7.610161e-10 3.0620767e-10

exp_avg f4 [50]
000000 27 f0 04 b4 7d da 31 31 68 9b 3d 33 b2 6c 91 32
       -1.2380825e-07 2.5881086e-09 4.4146333e-08 1.692965e-08
000010 98 2e f9 b2 db 13 3d b5 49 3a 4f 33 39 f6 5e b3
       -2.9008604e-08 -7.043688e-07 4.8248953e-08 -5.191234e-08
000020 d2 13 14 b3 b8 e1 45 32 24 45 e4 b1 2d 4a 2d b1
       -3.447696e-08 1.1518232e-08 -6.6435337e-09 -2.5216977e-09
000030 86 06 70 32 b4 14 57 af f2 8e 46 b0 fb 8b 4b 30
       1.3971322e-08 -1.9561491e-10 -7.223512e-10 7.4049894e-10
000040 b2 c7 56 b1 82 3d 28 b0 c3 2b a6 b3 c2 3c 24 af
       -3.1254612e-09 -6.120545e-10 -7.7379376e-08 -1.4937299e-10
000050 a5 ab a5 2f 38 c7 95 b3 df 23 c2 30 a6 a8 9b b3
       3.0135286e-10 -6.974591e-08 1.4125553e-09 -7.248427e-08
000060 d0 2a 42 b1 e7 02 37 33 55 53 05 b1 ab 53 cf b0
       -2.8255052e-09 4.2610647e-08 -1.9401416e-09 -1.5085012e-09
000070 13 f1 79 33 a2 18 11 b2 ff 23 3f 32 d3 89 88 b2
       5.8194086e-08 -8.445712e-09 1.1125848e-08 -1.5895159e-08
000080 c1 50 fc b2 8c 94 38 b2 15 a2 18 b0 e9 a7 76 33
       -2.9373384e-08 -1.0743985e-08 -5.552761e-10 5.742905e-08
000090 35 7e c5 32 83 58 69 b2 4f b8 8a b1 ca 34 7a 31
       2.299121e-08 -1.358251e-08 -4.037282e-09 3.6409795e-09
0000a0 e9 99 8a b4 b5 b8 95 32 93 09 61 b3 72 75 9f b3
       -2.5816487e-07 1.7429878e-08 -5.2395603e-08 -7.425378e-08
0000b0 e3 06 3a 32 e0 7e 99 33 e9 b0 5f b0 a1 72 d7 31
       1.0828191e-08 7.147696e-08 -8.137833e-10 6.2703553e-09
0000c0 dc 5e 4f b3 e9 20 12 33
       -4.8282217e-08 3.4023206e-08

exp_avg_sq f4 [50]
000000 50 5f 8c 2f 45 e1 5a 2f ae 51 45 2f 08 18 ec 30
       2.5533575e-10 1.9907016e-10 1.7946064e-10 1.717809e-09
000010 f1 96 95 30 9c be 83 30 e7 cb f7 2e 75 64 8e 30
       1.0884077e-09 9.585679e-10 1.126848e-10 1.0360411e-09
000020 6d 11 79 2f 92 f1 da 2c ea bd 9e 2f a5 1b d7 2e
       2.2652609e-10 6.2227523e-12 2.8874975e-10 9.781979e-11
000030 34 05 08 30 1f d8 74 2e 3c 21 7f 2d 06 5f 25 2e
       4.9483906e-10 5.567113e-11 1.4502451e-11 3.7601054e-11
000040 5e 32 e6 30 35 3f f5 2e e4 90 62 2b 8d e0 81 30
       1.6749018e-09 1.1152538e-10 8.0492405e-13 9.449806e-10
000050 65 68 8c 30 b5 03 8f 30 77 5a f1 2f 66 96 6f 2f
       1.0216011e-09 1.0405673e-09 4.3901924e-10 2.1790356e-10
000060 7a 60 1f 30 87 32 03 2f 01 bb cb 2f 62 82 5e 2f
       5.7980964e-10 1.1932332e-10 3.705836e-10 2.0237104e-10
000070 a7 26 17 2f 47 56 15 2b 59 f8 e3 30 88 03 b5 2f
       1.3747102e-10 5.305517e-13 1.6587008e-09 3.2926217e-10
000080 8c 6f 9d 30 f3 0d 66 30 cf 9b 7a 2f fc 8e 54 2f
       1.1454957e-09 8.3693336e-10 2.2792722e-10 1.9332086e-10
000090 b4 fb d9 2e e9 74 6b 2f 8e d2 e2 2f 1e fd fb 2f
       9.912729e-11 2.141466e-10 4.125877e-10 4.5836485e-10
0000a0 7a 65 a1 2f 76 84 6d 2e 0c b1 ae 30 c8 61 45 2e
       2.9357833e-10 5.400521e-11 1.2710486e-09 4.487946e-11
0000b0 48 e0 6e 2e 48 89 e0 2e 0b 3d 8e 30 ec 6c 66 2e
       5.4314137e-11 1.0210727e-10 1.0349209e-09 5.2392687e-11
0000c0 85 0f 0a 2d 99 b7 a6 2f
       7.847838e-12 3.0325678e-10

exp_avg f4 [50]
000000 85 e4 bc b3 bd 6a bf b3 b5 86 b6 33 3d 1e 63 34
       -8.796e-08 -8.913546e-08 8.4995385e-08 2.1152023e-07
000010 00 8c 4e b4 1b 92 2f b4 97 a7 86 b3 d5 2e 2c b4
       -1.9236177e-07 -1.6351298e-07 -6.270346e-08 -1.6035786e-07
000020 2d 2a c3 33 dc d7 88 32 a2 9a cd 33 21 94 6a b3
       9.088067e-08 1.5930645e-08 9.574184e-08 -5.4617093e-08
000030 79 2e 03 34 34 fe 29 b3 26 35 c3 b2 a7 3b 08 33
       1.2217232e-07 -3.9579575e-08 -2.2725157e-08 3.171922e-08
000040 3b 32 78 b4 9e 72 79 33 bb 2a bc 31 47 91 2c b4
       -2.3115074e-07 5.8079074e-08 5.476378e-09 -1.60716e-07
000050 e6 30 27 34 02 4d 33 34 71 d0 f4 33 40 2d d2 b3
       1.5570876e-07 1.669869e-07 1.1400051e-07 -9.787118e-08
000060 9c e3 51 33 d8 7a 89 33 85 a8 e3 33 e8 2c ab b3
       4.8868614e-08 6.401905e-08 1.0601165e-07 -7.9709764e-08
000070 89 c4 8e b3 82 73 73 b1 91 07 60 34 3e 9a eb b3
       -6.64814e-08 -3.5426813e-09 2.0864378e-07 -1.0971097e-07
000080 8d 40 42 34 cb 44 41 33 72 7d ab b3 f4 79 a3 b3
       1.8091141e-07 4.499888e-08 -7.9856264e-08 -7.612462e-08
000090 a3 29 6e 33 bf d0 a6 b3 68 33 ea b3 09 c0 f2 b3
       5.545156e-08 -7.767948e-08 -1.0905825e-07 -1.1303934e-07
0000a0 3f 5c 0b b4 2d d0 2c b3 a6 40 4e 34 25 5e 1c b3
       -1.2978943e-07 -4.0236205e-08 1.9208764e-07 -3.6407204e-08
0000b0 36 be 21 b3 89 4d 24 b5 a7 67 16 b4 3b 92 2f 33
       -3.765873e-08 -6.120759e-07 -1.4007547e-07 4.087836e-08
0000c0 84 05 9c 32 f3 80 cc 33
       1.8163298e-08 9.522946e-08

exp_avg_sq f4 [50, 1]
000000 dd 87 2b 2e 02 be 3f 2f 8d 93 0a 30 d9 5d 01 31
       3.900157e-11 1.7438853e-10 5.041379e-10 1.8825317e-09
000010 b7 9c 2b 30 f2 45 d8 2c 86 2f 06 30 f5 da e8 2e
       6.2432143e-10 6.1468547e-12 4.881645e-10 1.0589033e-10
000020 dd 45 19 2d dd 86 13 31 04 df 53 30 b8 81 1b 31
       8.712556e-12 2.1467976e-09 7.7078277e-10 2.2629205e-09
000030 a7 4d 16 2e 4f 44 50 31 df 73 e7 2d 6a 10 0f 30
       3.417502e-11 3.0306813e-09 2.6313117e-11 5.204642e-10
000040 19 d6 b5 2f 8a 50 78 31 47 a1 f6 2d f4 77 d3 2f
       3.3075834e-10 3.613453e-09 2.8038584e-11 3.8465908e-10
000050 ab 96 e3 2f 91 11 06 2e 24 cb ec 2d a2 41 cc 2e
       4.1398115e-10 3.0483675e-11 2.6920306e-11 9.288505e-11
000060 2a 04 dd 2b 26 67 7d 2e 7d 19 c6 2f 3f e8 a7 30
       1.570415e-12 5.7617154e-11 3.60341e-10 1.2216858e-09
000070 a7 73 fa 2d 07 f4 47 31 5b b2 22 31 6c b2 67 31
       2.847307e-11 2.9097025e-09 2.3675486e-09 3.3716345e-09
000080 c4 1a 6c 2e 21 f8 0d 31 22 43 78 31 ab d0 ff 2c
       5.368396e-11 2.0659245e-09 3.612691e-09 7.2707027e-12
000090 89 ae c1 2c 43 80 b1 2d b3 c8 84 31 6c 1b 61 31
       5.504767e-12 2.017953e-11 3.8645225e-09 3.2757397e-09
0000a0 d9 30 e7 30 9e 3a 9e 2f 6e ef ff 30 ec 30 b6 2e
       1.6821345e-09 2.8781683e-10 1.8621742e-09 8.285092e-11
0000b0 56 7f 43 2d 54 e6 35 31 5f 6d f4 2d 6c 36 0c 31
       1.1112741e-11 2.6469893e-09 2.7788159e-11 2.0403617e-09
0000c0 5a 38 2f 31 09 0f f1 30
       2.5497884e-09 1.7539331e-09

exp_avg f4 [50, 1]
000000 b3 32 92 33 b4 74 f3 33 78 ee 8d 34 42 8e f8 b0
       6.807877e-08 1.13367975e-07 2.6436805e-07 -1.8084807e-09
000010 3a dc 2f 34 e5 77 29 33 44 6c 71 b1 bf 9d 2d 34
       1.6378263e-07 3.9457422e-08 -3.5131658e-09 1.6169268e-07
000020 2e 51 46 b3 e9 ff 2f 34 df 80 db b4 8f 9f a5 34
       -4.61743e-08 1.6391245e-07 -4.0885695e-07 3.084974e-07
000030 a1 fd 34 33 5b 2d c6 b3 e1 7d 8e b3 31 57 3d b2
       4.214019e-08 -9.2283436e-08 -6.6352875e-08 -1.1021073e-08
000040 9b c7 83 b4 f3 ed 89 b5 07 52 03 34 64 7a 30 32
       -2.4545884e-07 -1.0276548e-06 1.2230167e-07 1.0272377e-08
000050 b4 cf 78 34 43 82 bd b2 23 62 6d 33 e3 63 0d 34
       2.3172362e-07 -2.2061732e-08 5.5270117e-08 1.3167987e-07
000060 eb 55 e7 31 ab e6 aa 33 0b 40 98 34 49 75 ce 33
       6.7327526e-09 7.9582e-08 2.8358804e-07 9.6139566e-08
000070 e9 5b 78 33 a1 ab 5e 34 92 f0 b8 31 1d ee bf b4
       5.782559e-08 2.07378e-07 5.3824545e-09 -3.5749773e-07
000080 61 ce cb b3 27 fa 85 b3 a6 74 6d 34 fa a1 e3 b2
       -9.490464e-08 -6.2387976e-08 2.2114781e-07 -2.6499936e-08
000090 bc 30 09 b3 5d a1 31 b3 c3 2b 4d 35 94 7c 8f b2
       -3.1942122e-08 -4.1357783e-08 7.643213e-07 -1.6704043e-08
0000a0 52 f7 0d b5 73 ae 11 31 ad 0b e1 b3 fe 9f db b3
       -5.288649e-07 2.119944e-09 -1.0479503e-07 -1.02270846e-07
0000b0 08 ae bf b2 0f 23 48 35 d5 62 75 b3 c4 ca 50 b2
       -2.2314467e-08 7.4556823e-07 -5.7133395e-08 -1.2153297e-08
0000c0 2c 2b 80 33 1d 0e 99 34
       5.9683174e-08 2.850874e-07

exp_avg_sq f4 [50]
000000 af 48 12 31 fa a0 d8 2f be db c4 30 8b 1c 85 30
       2.1287112e-09 3.9404552e-10 1.4323331e-09 9.685136e-10
000010 c6 1a e3 2f 58 d9 98 2f e7 1f 1e 2f 88 dd 05 30
       4.1310083e-10 2.780307e-10 1.438135e-10 4.8699933e-10
000020 c5 cf 48 2f f6 65 0a 31 6f 09 c6 2f 85 21 6b 2f
       1.8263709e-10 2.01396e-09 3.6022693e-10 2.1385034e-10
000030 12 91 e9 2f ce d6 22 2f 82 96 3c 30 e1 6a 4c 30
       4.2485532e-10 1.4810128e-10 6.8607886e-10 7.436665e-10
000040 11 6c dd 2f 31 b8 82 2f 93 15 b8 2f f3 dd e1 2f
       4.0276452e-10 2.3777738e-10 3.3484734e-10 4.1084966e-10
000050 b2 f1 d2 2f 1a 5a 0d 2f a6 ba 25 30 62 94 92 2f
       3.8370512e-10 1.2855886e-10 6.0291894e-10 2.6662678e-10
000060 5d 8e 14 2f bd 07 fc 2e dc f0 77 2e ae cf d8 2f
       1.3511099e-10 1.1461008e-10 5.6375224e-11 3.9437736e-10
000070 28 80 bd 30 b1 28 05 30 12 fd 87 2f d4 9c 6b 2f
       1.3787984e-09 4.8442944e-10 2.4736174e-10 2.1428842e-10
000080 f6 0c 3c 30 81 fb f8 30 b5 6c e3 2f 68 db db 2f
       6.841242e-10 1.8115857e-09 4.13683e-10 3.9991765e-10
000090 a4 68 46 30 41 2d d5 2f c4 27 85 2f 75 83 88 30
       7.2180684e-10 3.877663e-10 2.4220814e-10 9.932665e-10
0000a0 73 5f 00 30 e9 31 25 2f cd f5 91 2f 3b 3b 33 30
       4.670177e-10 1.5024394e-10 2.6549998e-10 6.520399e-10
0000b0 a1 bb f7 30 90 bc 28 30 ad f6 25 2f 4e 60 d2 2f
       1.8024943e-09 6.138601e-10 1.50943e-10 3.8267206e-10
0000c0 47 cc 85 2f 1d 0d 1f 2f
       2.4337707e-10 1.4465625e-10

exp_avg f4 [50]
000000 63 ac 40 33 3a 26 a8 31 b1 2e 81 32 6e f3 37 b2
       4.486027e-08 4.8937894e-09 1.503881e-08 -1.07073514e-08
000010 9b 06 34 b2 51 83 23 b2 58 c5 07 31 7b 78 bd b1
       -1.0478881e-08 -9.517707e-09 1.9757262e-09 -5.514321e-09
000020 c8 29 10 b2 a4 7b 24 33 7a 59 10 b2 5d 8e 45 31
       -8.391403e-09 3.8296676e-08 -8.402248e-09 2.8748197e-09
000030 b4 93 45 b2 f8 bb 51 32 ce 5d 87 b4 98 70 aa b1
       -1.1500493e-08 1.220814e-08 -2.521396e-07 -4.9604516e-09
000040 bd 85 3c b2 17 16 32 b2 73 92 0a b1 c6 b3 95 2f
       -1.0973449e-08 -1.0365986e-08 -2.016489e-09 2.723068e-10
000050 0f fe a9 b1 87 5a d8 b1 4d a7 6a 32 5c 5a 78 b1
       -4.9474305e-09 -6.296719e-09 1.36586324e-08 -3.6140113e-09
000060 8d d2 1a 32 24 c9 0a 31 70 69 02 b1 4e dd 53 32
       9.0118535e-09 2.0195978e-09 -1.8977424e-09 1.2332135e-08
000070 f8 cb 9e 32 ec 28 b0 31 c9 9e 1f b2 30 38 50 b2
       1.8486375e-08 5.1269264e-09 -9.291122e-09 -1.2119969e-08
000080 6f fb 6a 32 c9 7e a0 32 2b ff 89 b2 b5 1c 5c b4
       1.3677762e-08 1.8684107e-08 -1.6064936e-08 -2.049954e-07
000090 3b 39 24 b2 c3 84 0f b2 8c 99 86 b1 1b 7d 18 b2
       -9.559069e-09 -8.353882e-09 -3.9173695e-09 -8.87601e-09
0000a0 72 6b 01 b2 1a 3a 79 32 ea b4 1d b2 8d 9a 2c b2
       -7.5332185e-09 1.4506918e-08 -9.179738e-09 -1.00468585e-08
0000b0 6a 60 29 34 e2 6f 57 32 7b 35 8c 31 56 13 30 b2
       1.5774427e-07 1.2540086e-08 4.0806163e-09 -1.0248945e-08
0000c0 44 20 be b3 40 40 c2 32
       -8.8534335e-08 2.261379e-08

exp_avg_sq f4 [50]
000000 6c d3 db 2e b0 b1 8c 2f 4e cf f2 2f 78 4f a4 30
       9.996523e-11 2.5592106e-10 4.4166842e-10 1.1955157e-09
000010 ae 30 d1 2f 04 dc e6 2f a1 1e a4 2f df cf 88 30
       3.8051468e-10 4.1993087e-10 2.985319e-10 9.954383e-10
000020 30 2b 2c 2e 73 68 84 30 2c 5b 2b 30 6c 2c c7 30
       3.914663e-11 9.63395e-10 6.2339e-10 1.4491781e-09
000030 dd 4f 25 2f 68 e5 fe 30 62 c1 08 2f 56 fc b1 2f
       1.5035036e-10 1.8546134e-09 1.2437831e-10 3.2375408e-10
000040 fe d4 a4 2f 28 3d 05 31 6d 27 7e 30 66 26 d6 2f
       2.9982766e-10 1.938881e-09 9.246069e-10 3.8953657e-10
000050 9c b3 8f 30 cd 58 09 2f b7 7a a3 2e 13 a6 75 2f
       1.0455667e-09 1.2491626e-10 7.4341804e-11 2.2341622e-10
000060 cb b3 2f 2c d1 95 31 2f 74 15 9b 2f 65 e1 23 30
       2.49688e-12 1.6151282e-10 2.820958e-10 5.961936e-10
000070 81 b6 d0 2e 2e b0 01 31 52 e4 20 31 5e bf e9 30
       9.491164e-11 1.8872117e-09 2.341285e-09 1.7007371e-09
000080 e9 b4 53 2e f3 16 af 30 e3 5d 17 31 06 e5 1c 2e
       4.8136526e-11 1.2739448e-09 2.202676e-09 3.5673707e-11
000090 36 c0 e8 2c 9b a3 07 2f 08 ae 04 31 84 ee 1e 31
       6.6151763e-12 1.2336303e-10 1.9307453e-09 2.3127606e-09
0000a0 85 01 9d 30 ff 9d 9c 2f 53 ef 91 30 63 84 aa 2e
       1.1423685e-09 2.8488498e-10 1.0618159e-09 7.7542216e-11
0000b0 7b 39 b3 2e b7 cc f6 30 59 84 2d 2f e5 b4 e8 30
       8.150188e-11 1.7957039e-09 1.5781278e-10 1.6931635e-09
0000c0 2f 28 d7 30 cf 68 ac 30
       1.565473e-09 1.2544435e-09

exp_avg f4 [50]
000000 08 c7 63 33 48 dc ef b3 f5 9b a5 b3 fa b3 62 34
       5.3033574e-08 -1.1169374e-07 -7.71178e-08 2.1113365e-07
000010 83 24 23 b4 83 74 d9 b3 e4 9e e4 33 f3 31 5b b4
       -1.5193841e-07 -1.0126043e-07 1.06459794e-07 -2.0414136e-07
000020 69 3e 29 b3 42 ed 2e 34 21 57 3e 34 6d 27 9d b4
       -3.940514e-08 1.6291327e-07 1.7726826e-07 -2.9272215e-07
000030 b5 92 88 33 5d 7b 98 34 fc ac 71 b3 8c 14 f1 33
       6.3596794e-08 2.8401965e-07 -5.6269513e-08 1.12261745e-07
000040 da a6 09 34 55 6e ea 34 30 a4 4f b4 bb 6e 00 b4
       1.281982e-07 4.3666174e-07 -1.9338108e-07 -1.1961212e-07
000050 15 2c 6d b4 19 e9 09 b3 ae 5a 7c b3 f9 28 ce b3
       -2.2088382e-07 -3.21098e-08 -5.8755795e-08 -9.6000754e-08
000060 d5 a3 37 b2 51 88 74 b3 ab fc fd b3 b5 7f 0e 34
       -1.0689253e-08 -5.6934656e-08 -1.18271906e-07 1.327124e-07
000070 06 e2 54 33 25 bd a4 b4 97 94 9b b4 4f a7 b7 34
       4.9565664e-08 -3.0685e-07 -2.8979113e-07 3.420814e-07
000080 4c e5 60 33 01 25 5a b4 67 61 b3 b4 fb 47 1e b3
       5.236261e-08 -2.0316294e-07 -3.3412218e-07 -3.6852708e-08
000090 bc a7 93 32 28 1c 2f b3 ce c5 e9 b4 70 e5 ef 34
       1.7189329e-08 -4.077097e-08 -4.3543554e-07 4.4684157e-07
0000a0 67 f6 98 34 8c d0 d8 b3 c1 ce 3c b4 41 75 06 33
       2.8491488e-07 -1.0096218e-07 -1.7584081e-07 3.1305948e-08
0000b0 b6 7e 1e 33 88 65 bd b4 08 94 7c 33 fa 40 83 b4
       3.6902485e-08 -3.5277867e-07 5.8807956e-08 -2.4447928e-07
0000c0 7c 52 75 34 b3 6b 8f b4
       2.2847411e-07 -2.6714187e-07

exp_avg_sq f4 [1, 50]
000000 0c ef bc 32 05 00 0c 32 a7 a0 9d 32 46 a1 82 33
       2.1994786e-08 8.149077e-09 1.8350262e-08 6.082932e-08
000010 36 11 e2 32 3c e2 e6 33 6f 8b 04 33 29 44 93 32
       2.631769e-08 1.07513614e-07 3.086046e-08 1.7144048e-08
000020 99 d6 13 33 83 03 ab 33 8e 2c 12 32 79 13 c1 31
       3.442128e-08 7.963447e-08 8.508449e-09 5.619253e-09
000030 19 c3 93 33 ce 78 de 33 0b e2 1e 32 7c e5 c0 31
       6.880709e-08 1.0359655e-07 9.248207e-09 5.614025e-09
000040 08 1c 47 32 58 6f ea 31 41 16 91 32 c2 33 08 32
       1.1589698e-08 6.8229546e-09 1.6890342e-08 7.92801e-09
000050 c5 1d ae 32 e2 aa 59 33 93 27 d5 33 19 e9 42 33
       2.0269804e-08 5.0679667e-08 9.925784e-08 4.5381146e-08
000060 bf 5b 2c 32 5d f5 aa 32 25 69 bb 33 4e 7c 84 32
       1.0032578e-08 1.9902183e-08 8.726992e-08 1.542335e-08
000070 27 0d b8 32 1d f6 38 33 12 98 9e 33 6c 40 3a 32
       2.14264e-08 4.3064677e-08 7.38511e-08 1.0841273e-08
000080 2b 16 9c 32 e6 93 97 32 d4 f2 d5 33 96 4f ab 32
       1.8170871e-08 1.764597e-08 9.9627556e-08 1.9943212e-08
000090 09 b2 0a 33 9c 69 e8 32 8f 42 1f 32 d9 d7 ab 33
       3.229255e-08 2.705638e-08 9.270152e-09 8.0020705e-08
0000a0 07 2f eb 32 2a 1d 3d 33 19 82 39 33 a9 9d 6f 32
       2.7378986e-08 4.4031516e-08 4.3191992e-08 1.3947479e-08
0000b0 82 63 8d 33 4a 6b cf 32 83 67 c9 33 f1 16 b0 33
       6.5839245e-08 2.4146761e-08 9.3786205e-08 8.199812e-08
0000c0 ae 38 1f 33 a7 79 21 33
       3.7071622e-08 3.7596376e-08
