experiments/rotation/checkpoints/checkpoints_weight_decay_mse/checkpoint_dim-2_ntrain-20_weightdecay-0.01_seed-1683best.pkl (torch_old, 25647 bytes, 36 tensors)

ffs.0.0.weight f4 [50, 1]
00000000: 25e1 f23b 90e1 f23b 61e1 f23b 4fe1 f23b
00000010: 83e1 f23b 09e2 f23b b5e1 f23b 16e1 f23b
00000020: 13e1 f23b 74e1 f23b 10e3 f23b 7ae2 f23b
00000030: 88e1 f23b 78e1 f23b bea0 b2bf 49e1 f23b
00000040: f0e1 f23b 44e1 f23b 9ee1 f23b 2fe1 f23b
00000050: 8fe1 f23b a5e1 f23b 28e1 f23b 3fe1 f23b
00000060: 4fe1 f23b 07e2 f23b 6ce1 f23b 5ee1 f23b
00000070: 89e1 f23b 23e1 f23b b0e4 f23b 13e1 f23b
00000080: 07e1 f23b 15e1 f23b ab94 c03f 7ae1 f23b
00000090: 94e1 f23b 16e1 f23b 57e1 f23b 26e2 f23b
000000a0: 70e1 f23b fde1 f23b 68e3 f23b 4fe1 f23b
000000b0: 61e1 f23b d9e1 f23b 15e1 f23b 31e1 f23b
000000c0: aae1 f23b 48e1 f23b
0.007412093 0.007412143 0.007412121 0.007412113 0.007412137 0.0074121994 0.0074121603 0.0074120862
0.007412085 0.00741213 0.007412322 0.007412252 0.0074121393 0.007412132 -1.3955305 0.00741211
0.0074121878 0.0074121077 0.0074121496 0.007412098 0.0074121426 0.007412153 0.0074120946 0.0074121053
0.007412113 0.0074121985 0.0074121263 0.00741212 0.00741214 0.0074120923 0.0074125156 0.007412085
0.0074120793 0.007412086 1.504537 0.007412133 0.007412145 0.0074120862 0.0074121165 0.007412213
0.007412128 0.007412194 0.007412363 0.007412113 0.007412121 0.007412177 0.007412086 0.007412099
0.007412155 0.0074121095

ffs.0.0.bias f4 [50]
00000000: fc74 a13a a577 a13a c577 a13a bf77 a13a
00000010: a976 a13a f077 a13a 7d75 a13a c177 a13a
00000020: 8e75 a13a 5476 a13a 3d71 a13a 9e77 a13a
00000030: ff76 a13a 0a78 a13a 339e c8bf 1478 a13a
00000040: fe77 a13a 8975 a13a f077 a13a d377 a13a
00000050: e777 a13a de72 a13a 5d77 a13a 5977 a13a
00000060: 8c77 a13a 7b76 a13a c272 a13a 7275 a13a
00000070: 4175 a13a 5c75 a13a 1272 a13a 8e75 a13a
00000080: 0676 a13a e271 a13a ca5b abbf 8676 a13a
00000090: 6c77 a13a df77 a13a 8977 a13a a272 a13a
000000a0: d677 a13a ac70 a13a d077 a13a cf74 a13a
000000b0: fb74 a13a f077 a13a b576 a13a 5671 a13a
000000c0: f977 a13a e271 a13a
0.0012318189 0.0012318982 0.0012319019 0.0012319012 0.0012318689 0.0012319069 0.001231834 0.0012319015
0.0012318359 0.001231859 0.0012317073 0.0012318974 0.0012318789 0.00123191 -1.5673279 0.0012319111
0.0012319086 0.0012318353 0.0012319069 0.0012319036 0.0012319059 0.0012317558 0.0012318898 0.0012318894
0.0012318953 0.0012318635 0.0012317526 0.0012318327 0.001231827 0.0012318301 0.0012317321 0.0012318359
0.0012318499 0.0012317265 -1.3387387 0.0012318648 0.0012318916 0.001231905 0.001231895 0.0012317488
0.0012319039 0.0012316904 0.0012319032 0.0012318137 0.0012318188 0.0012319069 0.0012318703 0.0012317102
0.001231908 0.0012317265

ffs.0.2.weight f4 [1, 50]
00000000: 7e7b 483d 7b7b 483d 7c7b 483d 787b 483d
00000010: 7c7b 483d 7c7b 483d 7b7b 483d 7b7b 483d
00000020: 797b 483d 7d7b 483d 7a7b 483d 7d7b 483d
00000030: 7c7b 483d 797b 483d 1271 f5bf 7d7b 483d
00000040: 7d7b 483d 807b 483d 7a7b 483d 797b 483d
00000050: 7f7b 483d 7d7b 483d 7e7b 483d 7b7b 483d
00000060: 7b7b 483d 797b 483d 7f7b 483d 7f7b 483d
00000070: 857b 483d 7e7b 483d 7e7b 483d 7e7b 483d
00000080: 807b 483d 837b 483d a33c ebbf 7c7b 483d
00000090: 7a7b 483d 7a7b 483d 7a7b 483d 817b 483d
000000a0: 7a7b 483d 857b 483d 7f7b 483d 817b 483d
000000b0: 857b 483d 7c7b 483d 7d7b 483d 877b 483d
000000c0: 797b 483d 857b 483d
0.048945896 0.048945885 0.04894589 0.048945874 0.04894589 0.04894589 0.048945885 0.048945885
0.048945878 0.048945893 0.04894588 0.048945893 0.04894589 0.048945878 -1.9175131 0.048945893
0.048945893 0.048945904 0.04894588 0.048945878 0.0489459 0.048945893 0.048945896 0.048945885
0.048945885 0.048945878 0.0489459 0.0489459 0.048945922 0.048945896 0.048945896 0.048945896
0.048945904 0.048945915 -1.837788 0.04894589 0.04894588 0.04894588 0.04894588 0.048945908
0.04894588 0.048945922 0.0489459 0.048945908 0.048945922 0.04894589 0.048945893 0.04894593
0.048945878 0.048945922

ffs.1.0.weight f4 [50, 1]
00000000: 6dd1 36bd 6ed1 36bd 50d1 36bd 1205 713f
00000010: 94d1 36bd 3ad1 36bd 83d1 36bd 65d1 36bd
00000020: 39d1 36bd 48d1 36bd e5d3 36bd 60d1 36bd
00000030: 3ed1 36bd 3ed1 36bd 5fd1 36bd 40d1 36bd
00000040: 8ad1 36bd 4bd1 36bd 60d6 36bd 6dd1 36bd
00000050: 4fd1 36bd 50d1 36bd 73d1 36bd 80d3 36bd
00000060: 1105 713f 37d1 36bd d3d3 36bd 42d1 36bd
00000070: 40d1 36bd 38d1 36bd 69d1 36bd 47d1 36bd
00000080: 84d3 36bd afd4 36bd 7cd1 36bd 77d1 36bd
00000090: 66d3 36bd 33d1 36bd 34d1 36bd 34d1 36bd
000000a0: 49d1 36bd acd1 36bd 33d1 36bd 39d1 36bd
000000b0: 3bd1 36bd 42d1 36bd 4ed1 36bd 91d1 36bd
000000c0: 59d1 36bd 37d1 36bd
-0.044633318 -0.04463332 -0.04463321 0.9414836 -0.044633463 -0.044633128 -0.0446334 -0.044633288
-0.044633124 -0.04463318 -0.044635672 -0.04463327 -0.044633143 -0.044633143 -0.044633266 -0.04463315
-0.044633426 -0.04463319 -0.044638038 -0.044633318 -0.044633206 -0.04463321 -0.04463334 -0.044635296
0.94148356 -0.044633117 -0.044635605 -0.044633158 -0.04463315 -0.04463312 -0.044633303 -0.044633176
-0.04463531 -0.044636425 -0.044633374 -0.044633355 -0.0446352 -0.0446331 -0.044633105 -0.044633105
-0.044633184 -0.044633552 -0.0446331 -0.044633124 -0.04463313 -0.044633158 -0.044633202 -0.04463345
-0.044633243 -0.044633117

ffs.1.0.bias f4 [50]
00000000: c6cc 99b8 ec11 9ab8 d8f7 99b8 32ec a33c
00000010: 9611 9ab8 2e14 9ab8 fc11 9ab8 800f 9ab8
00000020: 5813 9ab8 78e5 99b8 40ea 99b8 1012 9ab8
00000030: 840f 9ab8 8c04 9ab8 7e10 9ab8 1604 9ab8
00000040: eafa 99b8 c8e8 99b8 96ca 99b8 1e0c 9ab8
00000050: 0404 9ab8 b668 99b8 52b5 99b8 54f6 99b8
00000060: 32ec a33c 1cfe 99b8 ee7e 99b8 740d 9ab8
00000070: ea3a 99b8 e8ec 99b8 14f2 99b8 aa11 9ab8
00000080: 00b8 99b8 587c 99b8 4612 9ab8 6e12 9ab8
00000090: ca0b 9ab8 3c11 9ab8 acf1 99b8 c812 9ab8
000000a0: f8fd 99b8 64c5 99b8 c403 9ab8 e0de 99b8
000000b0: 2412 9ab8 46fe 99b8 e85c 99b8 48c3 99b8
000000c0: 5c48 99b8 fa12 9ab8
-7.3337505e-05 -7.3466304e-05 -7.341773e-05 0.020010088 -7.346568e-05 -7.347051e-05 -7.346642e-05 -7.346179e-05
-7.346895e-05 -7.3383504e-05 -7.339241e-05 -7.346657e-05 -7.346182e-05 -7.344139e-05 -7.346364e-05 -7.344053e-05
-7.342345e-05 -7.3389674e-05 -7.333343e-05 -7.345549e-05 -7.34404e-05 -7.3151125e-05 -7.329382e-05 -7.341491e-05
0.020010088 -7.34294e-05 -7.319251e-05 -7.345798e-05 -7.306582e-05 -7.339736e-05 -7.340699e-05 -7.3465824e-05
-7.329881e-05 -7.318769e-05 -7.346696e-05 -7.346725e-05 -7.345488e-05 -7.3465024e-05 -7.3406234e-05 -7.3467905e-05
-7.342914e-05 -7.3323754e-05 -7.343994e-05 -7.337122e-05 -7.346671e-05 -7.342971e-05 -7.312914e-05 -7.3319825e-05
-7.3090865e-05 -7.346827e-05

ffs.1.2.weight f4 [1, 50]
00000000: 2f5f 393d 345f 393d 2b5f 393d a6b2 74bf
00000010: 315f 393d 2e5f 393d 335f 393d 2a5f 393d
00000020: 305f 393d 3b5f 393d 4661 393d 2e5f 393d
00000030: 315f 393d 2f5f 393d 385f 393d 2f5f 393d
00000040: 2f5f 393d 385f 393d 4564 393d 365f 393d
00000050: 2d5f 393d 345f 393d 375f 393d 7561 393d
00000060: a5b2 74bf 2e5f 393d 4761 393d 385f 393d
00000070: 335f 393d 2e5f 393d 395f 393d 2e5f 393d
00000080: 7c61 393d f561 393d 345f 393d 315f 393d
00000090: 5861 393d 285f 393d 295f 393d 2f5f 393d
000000a0: 375f 393d 615f 393d 2e5f 393d 295f 393d
000000b0: 2e5f 393d 2c5f 393d 335f 393d 365f 393d
000000c0: 3b5f 393d 2e5f 393d
0.04525679 0.04525681 0.045256775 -0.95585096 0.045256797 0.045256786 0.045256805 0.04525677
0.045256793 0.045256834 0.045258783 0.045256786 0.045256797 0.04525679 0.045256823 0.04525679
0.04525679 0.045256823 0.04526164 0.045256816 0.045256782 0.04525681 0.04525682 0.045258958
-0.9558509 0.045256786 0.045258787 0.045256823 0.045256805 0.045256786 0.045256827 0.045256786
0.045258984 0.045259435 0.04525681 0.045256797 0.04525885 0.045256764 0.045256767 0.04525679
0.04525682 0.045256976 0.045256786 0.045256767 0.045256786 0.04525678 0.045256805 0.045256816
0.045256834 0.045256786

ffs.2.0.weight f4 [50, 1]
00000000: 0b7a 71bb 327a 71bb 017a 71bb 067a 71bb
00000010: 1e7a 71bb 0f7a 71bb 377a 71bb 317a 71bb
00000020: f579 71bb 217a 71bb 0b7a 71bb 0c7a 71bb
00000030: bc7e 963f 2b7a 71bb 127a 71bb 267a 71bb
00000040: 307a 71bb 137a 71bb 177a 71bb c879 71bb
00000050: 1a7a 71bb 057a 71bb 157a 71bb 1e7a 71bb
00000060: 117a 71bb 0e7a 71bb 127a 71bb 207a 71bb
00000070: 497a 71bb 2a7a 71bb 077a 71bb 1e7a 71bb
00000080: 2e7a 71bb 287a 71bb 047a 71bb 197a 71bb
00000090: 137a 71bb f879 71bb f979 71bb 177a 71bb
000000a0: 227a 71bb 1e7a 71bb 0c7a 71bb 197a 71bb
000000b0: 447a 71bb 327a 71bb a779 71bb 0f7a 71bb
000000c0: 0f7a 71bb 347a 71bb
-0.0036846425 -0.0036846516 -0.0036846402 -0.0036846413 -0.003684647 -0.0036846434 -0.0036846527 -0.0036846513
-0.0036846374 -0.0036846476 -0.0036846425 -0.0036846427 1.1757426 -0.00368465 -0.0036846441 -0.0036846488
-0.003684651 -0.0036846444 -0.0036846453 -0.003684627 -0.003684646 -0.003684641 -0.0036846448 -0.003684647
-0.003684644 -0.0036846432 -0.0036846441 -0.0036846474 -0.003684657 -0.0036846497 -0.0036846416 -0.003684647
-0.0036846506 -0.0036846492 -0.0036846409 -0.0036846458 -0.0036846444 -0.003684638 -0.0036846383 -0.0036846453
-0.0036846478 -0.003684647 -0.0036846427 -0.0036846458 -0.0036846558 -0.0036846516 -0.0036846192 -0.0036846434
-0.0036846434 -0.003684652

ffs.2.0.bias f4 [50]
00000000: 275a f038 8959 f038 ca57 f038 6759 f038
00000010: 7b5a f038 c45b f038 175a f038 ed5a f038
00000020: d05a f038 655b f038 2e5a f038 e559 f038
00000030: 5d07 16bf 9f58 f038 a859 f038 5a5b f038
00000040: 8b59 f038 d256 f038 5a58 f038 a656 f038
00000050: f055 f038 f758 f038 2f58 f038 bc56 f038
00000060: 565a f038 245a f038 315b f038 ca59 f038
00000070: 395a f038 b258 f038 6659 f038 d459 f038
00000080: 3758 f038 f656 f038 3f59 f038 de5a f038
00000090: c358 f038 bb5a f038 6a5a f038 4f56 f038
000000a0: 855a f038 3958 f038 f850 f038 ad58 f038
000000b0: 5654 f038 765a f038 2259 f038 cf50 f038
000000c0: 565a f038 6f57 f038
0.00011460884 0.00011460769 0.00011460444 0.00011460744 0.00011460945 0.000114611845 0.00011460872 0.00011461028
0.00011461007 0.00011461115 0.00011460889 0.00011460836 -0.58604985 0.00011460599 0.000114607916 0.00011461107
0.000114607705 0.00011460263 0.000114605486 0.00011460231 0.00011460099 0.00011460663 0.00011460517 0.00011460247
0.00011460918 0.00011460882 0.000114610775 0.00011460816 0.00011460897 0.000114606126 0.000114607436 0.000114608236
0.00011460523 0.000114602895 0.00011460715 0.00011461017 0.00011460625 0.00011460992 0.00011460933 0.00011460168
0.000114609524 0.000114605245 0.000114591734 0.00011460609 0.000114598006 0.000114609415 0.00011460694 0.000114591436
0.00011460918 0.000114603776

ffs.2.2.weight f4 [1, 50]
00000000: 5c5a 7fbc 625a 7fbc 3d5a 7fbc 3f5a 7fbc
00000010: 5b5a 7fbc 525a 7fbc 565a 7fbc 585a 7fbc
00000020: 405a 7fbc 585a 7fbc 505a 7fbc 425a 7fbc
00000030: a5d0 963f 575a 7fbc 575a 7fbc 595a 7fbc
00000040: 585a 7fbc 565a 7fbc 5c5a 7fbc 4b5a 7fbc
00000050: 4c5a 7fbc 515a 7fbc 565a 7fbc 605a 7fbc
00000060: 565a 7fbc 455a 7fbc 535a 7fbc 5b5a 7fbc
00000070: 6b5a 7fbc 5c5a 7fbc 3c5a 7fbc 5a5a 7fbc
00000080: 5c5a 7fbc 555a 7fbc 485a 7fbc 4a5a 7fbc
00000090: 575a 7fbc 4f5a 7fbc 5c5a 7fbc 4e5a 7fbc
000000a0: 615a 7fbc 5b5a 7fbc 5c5a 7fbc 5c5a 7fbc
000000b0: 7b5a 7fbc 605a 7fbc 5d5a 7fbc 505a 7fbc
000000c0: 525a 7fbc 585a 7fbc
-0.015585508 -0.015585514 -0.015585479 -0.015585481 -0.015585507 -0.015585499 -0.015585503 -0.0155855045
-0.015585482 -0.0155855045 -0.015585497 -0.015585484 1.1782423 -0.015585504 -0.015585504 -0.015585505
-0.0155855045 -0.015585503 -0.015585508 -0.015585492 -0.015585493 -0.015585498 -0.015585503 -0.015585512
-0.015585503 -0.015585487 -0.0155855 -0.015585507 -0.015585522 -0.015585508 -0.015585478 -0.015585506
-0.015585508 -0.015585502 -0.01558549 -0.015585491 -0.015585504 -0.015585496 -0.015585508 -0.015585495
-0.015585513 -0.015585507 -0.015585508 -0.015585508 -0.015585537 -0.015585512 -0.015585509 -0.015585497
-0.015585499 -0.0155855045

ffs.3.0.weight f4 [50, 1]
00000000: 9f2d a3bc a02d a3bc 8e2d a3bc a52d a3bc
00000010: 9d2d a3bc 992d a3bc 9c2d a3bc 9b2d a3bc
00000020: a32d a3bc 972d a3bc 972d a3bc 982d a3bc
00000030: 932d a3bc 9a2d a3bc 952d a3bc a32d a3bc
00000040: 952d a3bc 922d a3bc 972d a3bc 9b2d a3bc
00000050: 9a2d a3bc a22d a3bc 932d a3bc 9a2d a3bc
00000060: 942d a3bc 942d a3bc 9c2d a3bc 992d a3bc
00000070: 952d a3bc a12d a3bc 9c2d a3bc 9b2d a3bc
00000080: 9d2d a3bc 962d a3bc 9d2d a3bc a22d a3bc
00000090: 9b2d a3bc 9e2d a3bc 972d a3bc 9a2d a3bc
000000a0: a02d a3bc a12d a3bc 972d a3bc 7815 9a3f
000000b0: f10f a8bf 962d a3bc 9c2d a3bc 9a2d a3bc
000000c0: a32d a3bc 942d a3bc
-0.019919215 -0.019919217 -0.019919183 -0.019919226 -0.019919211 -0.019919204 -0.01991921 -0.019919207
-0.019919222 -0.0199192 -0.0199192 -0.019919202 -0.019919192 -0.019919205 -0.019919196 -0.019919222
-0.019919196 -0.01991919 -0.0199192 -0.019919207 -0.019919205 -0.01991922 -0.019919192 -0.019919205
-0.019919194 -0.019919194 -0.01991921 -0.019919204 -0.019919196 -0.019919218 -0.01991921 -0.019919207
-0.019919211 -0.019919198 -0.019919211 -0.01991922 -0.019919207 -0.019919213 -0.0199192 -0.019919205
-0.019919217 -0.019919218 -0.0199192 1.2037802 -1.3129865 -0.019919198 -0.01991921 -0.019919205
-0.019919222 -0.019919194

ffs.3.0.bias f4 [50]
00000000: c10a 333b b00a 333b b30a 333b ba0a 333b
00000010: b90a 333b c30a 333b bf0a 333b c00a 333b
00000020: bf0a 333b c20a 333b c10a 333b bb0a 333b
00000030: b50a 333b ca0a 333b bc0a 333b ba0a 333b
00000040: b60a 333b b20a 333b be0a 333b bf0a 333b
00000050: c50a 333b b40a 333b bd0a 333b cf0a 333b
00000060: b80a 333b c30a 333b cf0a 333b c60a 333b
00000070: c00a 333b ba0a 333b b10a 333b b80a 333b
00000080: dd0a 333b c10a 333b b60a 333b c90a 333b
00000090: ad0a 333b c40a 333b bd0a 333b c50a 333b
000000a0: ca0a 333b bb0a 333b c20a 333b 73a1 b63f
000000b0: e15d 8e3f c10a 333b bd0a 333b c30a 333b
000000c0: bc0a 333b c60a 333b
0.0027319642 0.0027319603 0.002731961 0.0027319626 0.0027319624 0.0027319647 0.0027319638 0.002731964
0.0027319638 0.0027319645 0.0027319642 0.0027319628 0.0027319614 0.0027319663 0.002731963 0.0027319626
0.0027319617 0.0027319607 0.0027319635 0.0027319638 0.0027319652 0.0027319612 0.0027319633 0.0027319675
0.0027319621 0.0027319647 0.0027319675 0.0027319654 0.002731964 0.0027319626 0.0027319605 0.0027319621
0.0027319707 0.0027319642 0.0027319617 0.002731966 0.0027319596 0.002731965 0.0027319633 0.0027319652
0.0027319663 0.0027319628 0.0027319645 1.426802 1.11224 0.0027319642 0.0027319633 0.0027319647
0.002731963 0.0027319654

ffs.3.2.weight f4 [1, 50]
00000000: 7c7d 9fbd 7f7d 9fbd 7b7d 9fbd 7e7d 9fbd
00000010: 7f7d 9fbd 7c7d 9fbd 7d7d 9fbd 7d7d 9fbd
00000020: 7e7d 9fbd 7f7d 9fbd 7f7d 9fbd 7f7d 9fbd
00000030: 807d 9fbd 7c7d 9fbd 7f7d 9fbd 7e7d 9fbd
00000040: 807d 9fbd 7b7d 9fbd 7f7d 9fbd 7d7d 9fbd
00000050: 7d7d 9fbd 7e7d 9fbd 7a7d 9fbd 7d7d 9fbd
00000060: 807d 9fbd 7f7d 9fbd 7d7d 9fbd 7c7d 9fbd
00000070: 7f7d 9fbd 7e7d 9fbd 7f7d 9fbd 7c7d 9fbd
00000080: 817d 9fbd 7f7d 9fbd 7c7d 9fbd 7e7d 9fbd
00000090: 807d 9fbd 7d7d 9fbd 7f7d 9fbd 7d7d 9fbd
000000a0: 7e7d 9fbd 7e7d 9fbd 7f7d 9fbd 6684 cd3f
000000b0: 5681 bc3f 7f7d 9fbd 7d7d 9fbd 7c7d 9fbd
000000c0: 7e7d 9fbd 7f7d 9fbd
-0.07787606 -0.07787608 -0.077876054 -0.077876076 -0.07787608 -0.07787606 -0.07787607 -0.07787607
-0.077876076 -0.07787608 -0.07787608 -0.07787608 -0.07787609 -0.07787606 -0.07787608 -0.077876076
-0.07787609 -0.077876054 -0.07787608 -0.07787607 -0.07787607 -0.077876076 -0.07787605 -0.07787607
-0.07787609 -0.07787608 -0.07787607 -0.07787606 -0.07787608 -0.077876076 -0.07787608 -0.07787606
-0.0778761 -0.07787608 -0.07787606 -0.077876076 -0.07787609 -0.07787607 -0.07787608 -0.07787607
-0.077876076 -0.077876076 -0.07787608 1.605603 1.472697 -0.07787608 -0.07787607 -0.07787606
-0.077876076 -0.07787608

exp_avg_sq f4 [50]
00000000: 70ad 2e2e 5e3d 2e2e 603b 2e2e 283c 2e2e
00000010: 2068 2e2e bf3e 2e2e ec97 2e2e 953a 2e2e
00000020: ce90 2e2e 6274 2e2e ff2e 2f2e 6b43 2e2e
00000030: be5d 2e2e 9d3c 2e2e a354 1d32 023b 2e2e
00000040: 4c3b 2e2e 408e 2e2e 5d3d 2e2e 013b 2e2e
00000050: a240 2e2e 0df8 2e2e 1249 2e2e 6651 2e2e
00000060: 9742 2e2e c970 2e2e 48fc 2e2e 099c 2e2e
00000070: b39b 2e2e 6592 2e2e af13 2f2e 438d 2e2e
00000080: a67c 2e2e 2d1e 2f2e b63f 8831 566e 2e2e
00000090: f351 2e2e 343c 2e2e ec47 2e2e 96f8 2e2e
000000a0: c63f 2e2e 6340 2f2e 9d3a 2e2e 82ac 2e2e
000000b0: b7a5 2e2e aa3a 2e2e 8065 2e2e 692d 2f2e
000000c0: 023d 2e2e 1a1a 2f2e
3.9717063e-11 3.9617525e-11 3.9615755e-11 3.961645e-11 3.96555e-11 3.961875e-11 3.9697953e-11 3.961505e-11
3.9691632e-11 3.9666388e-11 3.9832134e-11 3.96229e-11 3.964628e-11 3.9616855e-11 9.157847e-09 3.961543e-11
3.9615686e-11 3.9689363e-11 3.961752e-11 3.9615426e-11 3.9620425e-11 3.9783333e-11 3.962792e-11 3.9635316e-11
3.9622163e-11 3.9663193e-11 3.978709e-11 3.9701607e-11 3.9701308e-11 3.9693044e-11 3.9807876e-11 3.9688485e-11
3.967373e-11 3.9817195e-11 3.965364e-09 3.9661018e-11 3.9635805e-11 3.961649e-11 3.96269e-11 3.9783808e-11
3.961966e-11 3.984758e-11 3.961508e-11 3.9716237e-11 3.9710204e-11 3.9615124e-11 3.965317e-11 3.9830726e-11
3.9617205e-11 3.9813576e-11

exp_avg f4 [50]
00000000: 768f cdb5 5d93 cdb5 c293 cdb5 8693 cdb5
00000010: 7291 cdb5 3a93 cdb5 668f cdb5 c893 cdb5
00000020: a990 cdb5 4491 cdb5 408a cdb5 0f93 cdb5
00000030: e391 cdb5 6f93 cdb5 c5ce c637 ed93 cdb5
00000040: 5093 cdb5 2a90 cdb5 9193 cdb5 fc93 cdb5
00000050: 1d93 cdb5 488c cdb5 0593 cdb5 c692 cdb5
00000060: 5893 cdb5 9f91 cdb5 448c cdb5 e28f cdb5
00000070: 988f cdb5 4990 cdb5 ea8a cdb5 6890 cdb5
00000080: 5a91 cdb5 358a cdb5 b032 8237 3a91 cdb5
00000090: 3593 cdb5 0994 cdb5 4393 cdb5 2c8c cdb5
000000a0: 9793 cdb5 f288 cdb5 d493 cdb5 888f cdb5
000000b0: 138f cdb5 ea93 cdb5 1e92 cdb5 fc89 cdb5
000000c0: 0a93 cdb5 be8a cdb5
-1.5315443e-06 -1.5316579e-06 -1.5316693e-06 -1.5316625e-06 -1.531602e-06 -1.5316539e-06 -1.5315425e-06 -1.53167e-06
-1.5315792e-06 -1.5315968e-06 -1.5313926e-06 -1.531649e-06 -1.5316149e-06 -1.5316599e-06 2.3699724e-05 -1.5316742e-06
-1.5316564e-06 -1.5315647e-06 -1.5316638e-06 -1.5316759e-06 -1.5316506e-06 -1.5314517e-06 -1.5316479e-06 -1.5316407e-06
-1.5316573e-06 -1.5316072e-06 -1.5314513e-06 -1.5315566e-06 -1.5315482e-06 -1.5315683e-06 -1.531412e-06 -1.5315718e-06
-1.5315993e-06 -1.5313914e-06 1.552081e-05 -1.5315957e-06 -1.5316533e-06 -1.5316774e-06 -1.5316549e-06 -1.5314486e-06
-1.5316645e-06 -1.5313547e-06 -1.5316714e-06 -1.5315463e-06 -1.531533e-06 -1.5316739e-06 -1.5316216e-06 -1.5313849e-06
-1.5316484e-06 -1.531407e-06

exp_avg_sq f4 [50]
00000000: 32ac f72d 2af7 f62d a03b f72d ed5a 8431
00000010: 2df9 f62d 53f7 f62d 91f8 f62d 1ff9 f62d
00000020: e2f7 f62d 476e f72d 465d f72d 5bf8 f62d
00000030: 65fb f62d 741a f72d 28f9 f62d 8e1b f72d
00000040: b035 f72d 245f f72d 5db9 f72d 6c07 f72d
00000050: 3e17 f72d 2bb8 f82d c9e8 f72d ec3f f72d
00000060: 865a 8431 822a f72d 207e f82d 42fb f62d
00000070: fb34 f92d 7d57 f72d a34c f72d 6cfb f62d
00000080: a8e5 f72d e686 f82d c8f9 f62d fff8 f62d
00000090: cc0a f72d 15f8 f62d 5b4a f72d ccf7 f62d
000000a0: f229 f72d b9c3 f72d 291a f72d 587f f72d
000000b0: ccf7 f62d 9532 f72d 47d1 f82d 61c5 f72d
000000c0: 8c05 f92d 5cf7 f62d
2.8157119e-11 2.8076725e-11 2.8107128e-11 3.8520427e-09 2.8077618e-11 2.8076796e-11 2.8077348e-11 2.8077594e-11
2.8077044e-11 2.8129622e-11 2.812207e-11 2.8077254e-11 2.8078604e-11 2.8092396e-11 2.807761e-11 2.8092886e-11
2.8104491e-11 2.81229e-11 2.8162967e-11 2.8083945e-11 2.809097e-11 2.8276123e-11 2.8184026e-11 2.8109036e-11
3.851997e-09 2.8099526e-11 2.8250347e-11 2.8078543e-11 2.833155e-11 2.8119502e-11 2.8114682e-11 2.8078616e-11
2.8182637e-11 2.8254243e-11 2.8077887e-11 2.8077539e-11 2.8085444e-11 2.8077133e-11 2.811367e-11 2.8077006e-11
2.8099276e-11 2.8167567e-11 2.8092266e-11 2.8137201e-11 2.8077006e-11 2.8103112e-11 2.8287274e-11 2.8168303e-11
2.8310486e-11 2.8076812e-11

exp_avg f4 [50]
00000000: 0f89 b135 0e8c b135 a38a b135 012a 7fb7
00000010: 818b b135 cc8b b135 918b b135 738b b135
00000020: ba8b b135 6a8a b135 4b8c b135 eb8b b135
00000030: e58b b135 218b b135 e08b b135 1a8b b135
00000040: 2e8b b135 de8a b135 e58d b135 a48b b135
00000050: 1a8b b135 7286 b135 e388 b135 e38c b135
00000060: dc29 7fb7 c18a b135 f988 b135 f28b b135
00000070: f984 b135 848a b135 db8a b135 bf8b b135
00000080: 3e8b b135 7489 b135 0b8c b135 7b8b b135
00000090: c48d b135 658b b135 a28a b135 df8b b135
000000a0: 728b b135 8389 b135 fd8a b135 3a8a b135
000000b0: c98b b135 ff8a b135 0486 b135 6889 b135
000000c0: 6185 b135 178c b135
1.3227417e-06 1.3228289e-06 1.3227876e-06 -1.5208964e-05 1.3228129e-06 1.3228214e-06 1.3228147e-06 1.3228113e-06
1.3228193e-06 1.3227811e-06 1.3228358e-06 1.3228249e-06 1.3228242e-06 1.322802e-06 1.3228237e-06 1.3228012e-06
1.3228034e-06 1.3227943e-06 1.3228824e-06 1.3228168e-06 1.3228012e-06 1.3226656e-06 1.3227367e-06 1.3228531e-06
-1.5208931e-05 1.322791e-06 1.3227392e-06 1.3228257e-06 1.3226228e-06 1.3227841e-06 1.322794e-06 1.3228199e-06
1.3228052e-06 1.3227532e-06 1.3228286e-06 1.3228122e-06 1.3228787e-06 1.3228097e-06 1.3227875e-06 1.3228236e-06
1.3228112e-06 1.3227549e-06 1.3227979e-06 1.3227757e-06 1.322821e-06 1.3227981e-06 1.3226531e-06 1.3227518e-06
1.3226346e-06 1.3228299e-06

exp_avg_sq f4 [1, 50]
00000000: c6b0 8133 a6b1 8133 99b1 8133 a5b1 8133
00000010: 66b0 8133 b7b0 8133 58b0 8133 deb0 8133
00000020: 40b1 8133 c9b1 8133 e7b0 8133 b5b0 8133
00000030: 67b0 8133 7cb0 8133 db2d 8333 b9b1 8133
00000040: 6eb0 8133 50b1 8133 8cb1 8133 95b0 8133
00000050: 3eb2 8133 6ab0 8133 afb0 8133 50b1 8133
00000060: bcb1 8133 c8b1 8133 a0b0 8133 c1b1 8133
00000070: 65b0 8133 74b0 8133 d4b0 8133 12b1 8133
00000080: 51b1 8133 f6b0 8133 fc5e 6732 63b0 8133
00000090: c5b1 8133 b1b0 8133 68b1 8133 a6b0 8133
000000a0: 8cb1 8133 6eb3 8133 d1b1 8133 bcb1 8133
000000b0: 72b0 8133 ccb1 8133 8ab0 8133 69b1 8133
000000c0: 70b0 8133 bbb0 8133
6.0391855e-08 6.039345e-08 6.0393354e-08 6.039344e-08 6.039117e-08 6.039175e-08 6.039107e-08 6.0392026e-08
6.039272e-08 6.0393695e-08 6.039209e-08 6.0391734e-08 6.039118e-08 6.039133e-08 6.108504e-08 6.039358e-08
6.039123e-08 6.0392836e-08 6.039326e-08 6.039151e-08 6.039453e-08 6.03912e-08 6.039169e-08 6.0392836e-08
6.03936e-08 6.039369e-08 6.0391585e-08 6.039364e-08 6.0391166e-08 6.039127e-08 6.0391955e-08 6.0392395e-08
6.039284e-08 6.0392196e-08 1.3467567e-08 6.039115e-08 6.039367e-08 6.0391706e-08 6.0393006e-08 6.039163e-08
6.039326e-08 6.039669e-08 6.039375e-08 6.03936e-08 6.039126e-08 6.039372e-08 6.039143e-08 6.039301e-08
6.0391244e-08 6.039178e-08

exp_avg f4 [1, 50]
00000000: 1389 7eb8 cd88 7eb8 d188 7eb8 2c88 7eb8
00000010: 1089 7eb8 f088 7eb8 4e89 7eb8 3688 7eb8
00000020: c688 7eb8 1589 7eb8 9988 7eb8 9689 7eb8
00000030: b988 7eb8 0d89 7eb8 1208 81b8 eb88 7eb8
00000040: 0089 7eb8 4d89 7eb8 fd88 7eb8 2588 7eb8
00000050: af88 7eb8 2289 7eb8 c788 7eb8 8488 7eb8
00000060: e588 7eb8 4289 7eb8 8d89 7eb8 8b89 7eb8
00000070: b789 7eb8 1089 7eb8 5589 7eb8 fe88 7eb8
00000080: f788 7eb8 8989 7eb8 d07e eeb7 1e89 7eb8
00000090: f988 7eb8 1788 7eb8 d388 7eb8 2989 7eb8
000000a0: e588 7eb8 e288 7eb8 ff88 7eb8 c089 7eb8
000000b0: a589 7eb8 1389 7eb8 fa88 7eb8 a989 7eb8
000000c0: 2189 7eb8 5689 7eb8
-6.068598e-05 -6.0685725e-05 -6.068574e-05 -6.068514e-05 -6.068597e-05 -6.0685852e-05 -6.0686194e-05 -6.0685175e-05
-6.06857e-05 -6.0685987e-05 -6.0685536e-05 -6.0686456e-05 -6.0685652e-05 -6.0685958e-05 -6.1527026e-05 -6.0685834e-05
-6.068591e-05 -6.068619e-05 -6.06859e-05 -6.0685114e-05 -6.0685616e-05 -6.0686034e-05 -6.0685703e-05 -6.068546e-05
-6.0685812e-05 -6.068615e-05 -6.0686423e-05 -6.0686416e-05 -6.0686576e-05 -6.068597e-05 -6.068622e-05 -6.0685903e-05
-6.0685878e-05 -6.068641e-05 -2.8430863e-05 -6.068602e-05 -6.0685885e-05 -6.0685063e-05 -6.0685747e-05 -6.068606e-05
-6.0685812e-05 -6.06858e-05 -6.0685907e-05 -6.068661e-05 -6.068651e-05 -6.068598e-05 -6.068589e-05 -6.0686525e-05
-6.068603e-05 -6.0686223e-05

exp_avg_sq f4 [50, 1]
00000000: 6d25 712d dd15 712d b69a 702d e5bc b330
00000010: f9eb 712d 83fe 6f2d df7a 712d 1d1b 712d
00000020: 22f4 6f2d 6d26 702d 2267 732d 3edd 702d
00000030: f423 702d 2b2a 702d f2ab 702d 542d 702d
00000040: fbc7 712d 7042 702d 41c8 702d 4b01 712d
00000050: 9099 702d f067 702d 872a 712d eb34 702d
00000060: b5bb b330 62f2 6f2d f3fc 722d 3c09 702d
00000070: 3c15 702d 5001 702d 1fec 702d a255 702d
00000080: 562b 702d 9c11 742d 8863 712d d55d 712d
00000090: 6248 702d 8416 702d 801b 702d f4ef 6f2d
000000a0: fd49 702d c269 712d 3bf0 6f2d c934 702d
000000b0: 3115 702d cc43 702d d561 702d 33cb 712d
000000c0: a57e 702d e200 702d
1.3707574e-11 1.3704119e-11 1.3676773e-11 1.3077651e-09 1.375166e-11 1.364209e-11 1.3726547e-11 1.3705284e-11
1.36397855e-11 1.3650953e-11 1.3835851e-11 1.3691546e-11 1.3650404e-11 1.3651784e-11 1.36806e-11 1.3652485e-11
1.37436685e-11 1.3657173e-11 1.3686886e-11 1.3699551e-11 1.3676518e-11 1.3665499e-11 1.3708707e-11 1.3654171e-11
1.3077314e-09 1.3639397e-11 1.3812273e-11 1.3644471e-11 1.36471355e-11 1.3642712e-11 1.369485e-11 1.3661435e-11
1.3652043e-11 1.3873704e-11 1.3721364e-11 1.3720099e-11 1.3658493e-11 1.364742e-11 1.3648527e-11 1.3638857e-11
1.3658849e-11 1.3722747e-11 1.3638919e-11 1.3654141e-11 1.3647126e-11 1.36574745e-11 1.3664144e-11 1.3744383e-11
1.3670541e-11 1.36426166e-11

exp_avg f4 [50, 1]
00000000: a9c5 74b5 f1c4 74b5 d7c8 74b5 2e06 1337
00000010: 94bf 74b5 7dce 74b5 dbc1 74b5 fdc5 74b5
00000020: 69cd 74b5 59ce 74b5 26b3 74b5 38c7 74b5
00000030: 67cb 74b5 bfcc 74b5 36c7 74b5 9bcc 74b5
00000040: 25bf 74b5 6ecc 74b5 38cf 74b5 2bc4 74b5
00000050: ebc8 74b5 74c9 74b5 70c5 74b5 99cf 74b5
00000060: b406 1337 decc 74b5 3fb6 74b5 98cd 74b5
00000070: e5cc 74b5 f0cc 74b5 a7c4 74b5 f4ca 74b5
00000080: 1fcf 74b5 a8af 74b5 57c2 74b5 4dc3 74b5
00000090: 2acf 74b5 7ecd 74b5 97cd 74b5 50cd 74b5
000000a0: 94cb 74b5 6bc2 74b5 71ce 74b5 03cc 74b5
000000b0: 57cd 74b5 9fcc 74b5 c5ca 74b5 81bf 74b5
000000c0: c2c9 74b5 cdcd 74b5
-9.1184717e-07 -9.118367e-07 -9.1189344e-07 8.763322e-06 -9.1175866e-07 -9.1197563e-07 -9.117918e-07 -9.1185194e-07
-9.1195994e-07 -9.119736e-07 -9.115778e-07 -9.1186985e-07 -9.119307e-07 -9.119503e-07 -9.1186973e-07 -9.1194823e-07
-9.1175235e-07 -9.119457e-07 -9.1198626e-07 -9.1182545e-07 -9.118946e-07 -9.1190236e-07 -9.118439e-07 -9.119918e-07
8.7634435e-06 -9.1195204e-07 -9.1162286e-07 -9.119626e-07 -9.1195244e-07 -9.1195307e-07 -9.118325e-07 -9.119242e-07
-9.1198484e-07 -9.1152697e-07 -9.1179885e-07 -9.1181283e-07 -9.1198547e-07 -9.1196114e-07 -9.1196256e-07 -9.119585e-07
-9.119333e-07 -9.118e-07 -9.1197495e-07 -9.119396e-07 -9.119589e-07 -9.1194846e-07 -9.119215e-07 -9.117576e-07
-9.119068e-07 -9.119656e-07

exp_avg_sq f4 [50]
00000000: b6cf a82e 75db a82e 5d1d a92e b405 a92e
00000010: 25c0 a82e 99c4 a82e 83bf a82e f8c4 a82e
00000020: 1002 a92e bdc3 a82e 4dbd a82e 53bd a82e
00000030: cfec a82e d816 a92e fbe8 a82e 29bd a82e
00000040: ba24 a92e 62f2 a82e 16cc a82e 8fbd a82e
00000050: 16bf a82e 46bf a82e c0bd a82e 66c0 a82e
00000060: 45bd a82e 8df9 a82e d10e a92e 86c7 a82e
00000070: 22d8 a82e e300 a92e c9c4 a82e 6fbd a82e
00000080: 30bd a82e ddd8 a82e f1bf a82e 7cdc a82e
00000090: cfc5 a82e 00bf a82e 2abd a82e 22f1 a82e
000000a0: 0bd6 a82e aedb a82e 1ce6 a82e caa4 3c32
000000b0: c2b5 3f31 95bd a82e 83be a82e 84df a82e
000000c0: 55bf a82e 33bd a82e
7.6766524e-11 7.678739e-11 7.690446e-11 7.686243e-11 7.673887e-11 7.674678e-11 7.673775e-11 7.674744e-11
7.6855966e-11 7.6745256e-11 7.673382e-11 7.673386e-11 7.681821e-11 7.689288e-11 7.681141e-11 7.673357e-11
7.691754e-11 7.682811e-11 7.6760084e-11 7.673428e-11 7.673699e-11 7.6737325e-11 7.673462e-11 7.673932e-11
7.6733765e-11 7.6840846e-11 7.687862e-11 7.675198e-11 7.6781484e-11 7.685388e-11 7.6747116e-11 7.673406e-11
7.673362e-11 7.678278e-11 7.673851e-11 7.6789214e-11 7.6748934e-11 7.673684e-11 7.673358e-11 7.682589e-11
7.677777e-11 7.6787784e-11 7.680631e-11 1.0980509e-08 2.7897475e-09 7.673432e-11 7.673597e-11 7.67946e-11
7.673743e-11 7.673364e-11

exp_avg f4 [50]
00000000: 6c69 bcb1 bad3 bbb1 3c9e bbb1 8748 bcb1
00000010: bbe6 bbb1 cf22 bcb1 1e33 bcb1 2b46 bcb1
00000020: 5e68 bcb1 c865 bbb1 2a82 bbb1 0ebb bbb1
00000030: 2965 bbb1 4cdb bbb1 b68b bbb1 5563 bcb1
00000040: cc5a bbb1 1a84 bbb1 0cdd bbb1 c550 bcb1
00000050: 251e bcb1 875f bcb1 ab2a bbb1 7435 bcb1
00000060: 165f bbb1 df7d bbb1 0d57 bcb1 4d00 bcb1
00000070: fcac bbb1 5c21 bcb1 070d bcb1 7511 bcb1
00000080: e837 bcb1 3680 bbb1 de16 bcb1 6004 bcb1
00000090: 8ce6 bbb1 ed41 bcb1 4cbe bbb1 5910 bcb1
000000a0: bf2a bcb1 8f60 bcb1 d078 bbb1 3ad1 9033
000000b0: 9651 1433 9b88 bbb1 408f bcb1 d41e bcb1
000000c0: ca51 bcb1 c9bc bbb1
-5.483505e-09 -5.466487e-09 -5.4604055e-09 -5.4797655e-09 -5.4686473e-09 -5.4754774e-09 -5.4773315e-09 -5.4794973e-09
-5.4833853e-09 -5.4539875e-09 -5.4572142e-09 -5.463682e-09 -5.453917e-09 -5.4673475e-09 -5.4582996e-09 -5.482813e-09
-5.4527387e-09 -5.4574345e-09 -5.4675464e-09 -5.4807026e-09 -5.474947e-09 -5.4823803e-09 -5.447267e-09 -5.477597e-09
-5.4532263e-09 -5.456726e-09 -5.4814167e-09 -5.4715543e-09 -5.4620823e-09 -5.4753126e-09 -5.473001e-09 -5.4735048e-09
-5.477876e-09 -5.456992e-09 -5.47412e-09 -5.4720175e-09 -5.4686264e-09 -5.479015e-09 -5.4640505e-09 -5.4733786e-09
-5.47638e-09 -5.4824976e-09 -5.456151e-09 6.7435806e-08 3.4533137e-08 -5.4579465e-09 -5.4878058e-09 -5.475025e-09
-5.4808185e-09 -5.4638787e-09

exp_avg_sq f4 [50, 1]
00000000: 401b 0e2e cc48 0e2e 7432 0e2e 0129 0e2e
00000010: 0145 0e2e 0e80 0e2e 1f55 0e2e a111 0e2e
00000020: 2312 0e2e ea3f 0e2e 25f0 0e2e efb1 0e2e
00000030: b941 0e2e 8c40 0e2e d6b1 7f32 912c 0e2e
00000040: 8d75 0e2e 0e27 0e2e e250 0e2e 0719 0e2e
00000050: 5845 0e2e fd4c 0e2e e118 0e2e 8c21 0e2e
00000060: 7c2b 0e2e 2d7e 0e2e 9e3c 0e2e e834 0e2e
00000070: 833c 0e2e 5e17 0e2e 53aa 0f2e 3c14 0e2e
00000080: 9113 0e2e 9d12 0e2e 4f5b 8930 c140 0e2e
00000090: 3b4b 0e2e 2112 0e2e c331 0e2e c27f 0e2e
000000a0: 243e 0e2e 686a 0e2e 6a0c 0f2e 152f 0e2e
000000b0: 842a 0e2e b066 0e2e b611 0e2e 991b 0e2e
000000c0: c451 0e2e a524 0e2e
3.2311265e-11 3.235172e-11 3.2331873e-11 3.232348e-11 3.234835e-11 3.2400797e-11 3.2362665e-11 3.230272e-11
3.230317e-11 3.234383e-11 3.2500353e-11 3.24451e-11 3.2345435e-11 3.234439e-11 1.4883389e-08 3.2326645e-11
3.2391468e-11 3.232175e-11 3.23589e-11 3.230929e-11 3.234865e-11 3.235544e-11 3.230916e-11 3.2316858e-11
3.2325684e-11 3.239913e-11 3.23409e-11 3.2334052e-11 3.2340807e-11 3.2307816e-11 3.2665714e-11 3.2305034e-11
3.230444e-11 3.2303594e-11 9.994013e-10 3.2344575e-11 3.235388e-11 3.2303164e-11 3.233126e-11 3.2400534e-11
3.2342254e-11 3.238157e-11 3.252546e-11 3.232888e-11 3.2324823e-11 3.2378267e-11 3.2302792e-11 3.2311574e-11
3.2359684e-11 3.231961e-11

exp_avg f4 [50, 1]
00000000: 9bc6 bb35 3dc5 bb35 b1c5 bb35 e6c5 bb35
00000010: f2c4 bb35 b2c2 bb35 fac3 bb35 efc7 bb35
00000020: 08c7 bb35 5ec5 bb35 fbbc bb35 cbbf bb35
00000030: e9c5 bb35 1cc5 bb35 35d5 fdb7 76c6 bb35
00000040: 8cc2 bb35 31c6 bb35 6fc4 bb35 fac6 bb35
00000050: 38c5 bb35 eec4 bb35 c2c7 bb35 cac6 bb35
00000060: 4dc6 bb35 52c2 bb35 37c5 bb35 f2c5 bb35
00000070: bfc5 bb35 6fc7 bb35 42b5 bb35 fec6 bb35
00000080: 90c7 bb35 52c7 bb35 08c1 0037 16c5 bb35
00000090: 31c5 bb35 56c7 bb35 04c6 bb35 4fc2 bb35
000000a0: 49c5 bb35 70c3 bb35 46bc bb35 38c6 bb35
000000b0: 68c6 bb35 92c3 bb35 47c7 bb35 70c7 bb35
000000c0: 58c4 bb35 f7c6 bb35
1.3990388e-06 1.398999e-06 1.3990121e-06 1.3990182e-06 1.3989904e-06 1.398925e-06 1.3989622e-06 1.3990774e-06
1.3990511e-06 1.3990027e-06 1.3987586e-06 1.3988405e-06 1.3990185e-06 1.3989952e-06 -3.0259233e-05 1.3990345e-06
1.3989206e-06 1.3990267e-06 1.3989755e-06 1.3990496e-06 1.3989984e-06 1.39899e-06 1.3990723e-06 1.3990441e-06
1.3990299e-06 1.398914e-06 1.3989983e-06 1.3990195e-06 1.3990137e-06 1.3990629e-06 1.3985339e-06 1.39905e-06
1.3990666e-06 1.3990596e-06 7.674338e-06 1.3989945e-06 1.3989976e-06 1.39906e-06 1.3990216e-06 1.3989137e-06
1.3990003e-06 1.3989466e-06 1.398738e-06 1.3990275e-06 1.399033e-06 1.3989504e-06 1.3990583e-06 1.399063e-06
1.3989729e-06 1.3990492e-06

exp_avg_sq f4 [1, 50]
00000000: 3ac3 6433 c3c2 6433 dec4 6433 5fc6 6433
00000010: 4fc3 6433 06c3 6433 f1c2 6433 55c3 6433
00000020: 1bc5 6433 e6c2 6433 06c3 6433 16c5 6433
00000030: 9df9 a132 fec2 6433 dac4 6433 13c3 6433
00000040: 18c3 6433 6dc7 6433 3ac3 6433 36c8 6433
00000050: 02c4 6433 b4c3 6433 0ac5 6433 53c5 6433
00000060: 0bc4 6433 d8c5 6433 dfc3 6433 d5c2 6433
00000070: d7c2 6433 8ac3 6433 efc6 6433 8fc3 6433
00000080: 20c4 6433 50c4 6433 bac5 6433 60c4 6433
00000090: 02c3 6433 dcc3 6433 ebc6 6433 4bc3 6433
000000a0: eec2 6433 1fc3 6433 0bc4 6433 b8c3 6433
000000b0: 41c4 6433 ddc2 6433 4ec8 6433 6ac6 6433
000000c0: 79c3 6433 60c3 6433
5.3262944e-08 5.326252e-08 5.3264436e-08 5.3265804e-08 5.326302e-08 5.326276e-08 5.3262685e-08 5.326304e-08
5.3264653e-08 5.3262646e-08 5.326276e-08 5.3264635e-08 1.8856378e-08 5.326273e-08 5.3264422e-08 5.3262806e-08
5.3262823e-08 5.3266763e-08 5.3262944e-08 5.3267478e-08 5.3263655e-08 5.3263378e-08 5.3264593e-08 5.3264852e-08
5.3263687e-08 5.3265325e-08 5.326353e-08 5.3262585e-08 5.3262593e-08 5.326323e-08 5.3266316e-08 5.3263246e-08
5.326376e-08 5.3263932e-08 5.3265218e-08 5.326399e-08 5.3262745e-08 5.326352e-08 5.32663e-08 5.3263005e-08
5.3262674e-08 5.326285e-08 5.3263687e-08 5.3263392e-08 5.326388e-08 5.3262614e-08 5.3267563e-08 5.3265843e-08
5.3263168e-08 5.326308e-08

exp_avg f4 [1, 50]
00000000: e2fa 2ab4 8c9d 2ab4 50f3 2ab4 2544 2bb4
00000010: 3f00 2bb4 d9ec 2ab4 a4e5 2ab4 e28c 2ab4
00000020: 08f0 2ab4 81e1 2ab4 3ae3 2ab4 36ef 2ab4
00000030: c013 c6b3 ee88 2ab4 6c2d 2bb4 0d9b 2ab4
00000040: bb07 2bb4 7af6 29b4 2fbc 2ab4 a293 2ab4
00000050: a413 2bb4 58dd 2ab4 0352 2bb4 37f6 2ab4
00000060: 7d3e 2bb4 5256 2bb4 8fa2 2ab4 c9f8 2ab4
00000070: 66d8 2ab4 e6d9 2ab4 b889 2bb4 137b 2ab4
00000080: 6ae5 2ab4 1ad9 2ab4 4328 2bb4 fcb6 2ab4
00000090: 7cc4 2ab4 7c75 2bb4 2e82 2ab4 2600 2bb4
000000a0: 96ce 2ab4 9cd0 2ab4 b040 2bb4 a9cb 2ab4
000000b0: c612 2bb4 4801 2bb4 3ec3 2ab4 e82b 2ab4
000000c0: d8ad 2ab4 e7f0 2ab4
-1.5923754e-07 -1.5889799e-07 -1.5921e-07 -1.5950407e-07 -1.5925706e-07 -1.5918648e-07 -1.5916027e-07 -1.5883737e-07
-1.5919807e-07 -1.5914522e-07 -1.5915148e-07 -1.5919508e-07 -9.223686e-08 -1.5882298e-07 -1.594214e-07 -1.5888891e-07
-1.5928428e-07 -1.5829019e-07 -1.5900945e-07 -1.5886192e-07 -1.5932761e-07 -1.5913008e-07 -1.5955452e-07 -1.5922056e-07
-1.5948349e-07 -1.5957019e-07 -1.5891622e-07 -1.5922991e-07 -1.5911209e-07 -1.5911755e-07 -1.5975718e-07 -1.5877258e-07
-1.5915944e-07 -1.5911465e-07 -1.5940263e-07 -1.5899053e-07 -1.5903964e-07 -1.5968357e-07 -1.5879843e-07 -1.592567e-07
-1.590764e-07 -1.5908375e-07 -1.5949149e-07 -1.5906575e-07 -1.5932446e-07 -1.5926082e-07 -1.5903512e-07 -1.5848457e-07
-1.5895728e-07 -1.5920124e-07

exp_avg_sq f4 [50, 1]
00000000: 2b30 512c 03cd 502c 82f1 522c 7f58 562c
00000010: e2d1 502c df03 512c 01e8 502c 322f 512c
00000020: 1864 532c f5ce 502c 8f06 512c bfff 522c
00000030: 0b7e d02d f7fb 502c 574e 542c d6e8 502c
00000040: 6dde 502c 8462 582c 4404 512c 169d 5e2c
00000050: 71c0 512c 115f 512c 08d7 512c d0b1 512c
00000060: 17f6 502c f7b4 542c 1e45 522c 06cf 502c
00000070: f0da 502c 297f 512c acff 562c 252a 512c
00000080: f3b0 522c 82fe 522c b8f0 532c b547 522c
00000090: ec03 512c e0f5 512c 940d 5b2c 2208 512c
000000a0: f9d9 502c aa2a 512c f46f 522c 02bd 512c
000000b0: 7f61 522c d3e4 502c 48fd 602c 87c5 572c
000000c0: a464 512c 7538 512c
2.9727425e-12 2.9672382e-12 2.9976859e-12 3.0460354e-12 2.9675086e-12 2.9702835e-12 2.9687366e-12 2.9726885e-12
3.0040467e-12 2.9673462e-12 2.9704327e-12 2.9984763e-12 2.3702837e-11 2.9698446e-12 3.01705e-12 2.9687828e-12
2.968205e-12 3.0750133e-12 2.9703054e-12 3.1635298e-12 2.9807513e-12 2.9753459e-12 2.9820053e-12 2.9799392e-12
2.9695185e-12 3.0227468e-12 2.9881163e-12 2.9673499e-12 2.9680113e-12 2.9771274e-12 3.0553155e-12 2.9724081e-12
2.9941021e-12 2.9984075e-12 3.011853e-12 2.98826e-12 2.9702863e-12 2.9837174e-12 3.112931e-12 2.97052e-12
2.9679577e-12 2.972437e-12 2.9904941e-12 2.9805607e-12 2.9896916e-12 2.96856e-12 3.1972914e-12 3.0662987e-12
2.9756553e-12 2.9732026e-12

exp_avg f4 [50, 1]
00000000: 16af a8b0 f169 a8b0 c45f a7b0 5d27 a7b0
00000010: 11d9 a7b0 5d02 aab0 e312 a9b0 1fc4 a8b0
00000020: ce06 a8b0 2bfe a8b0 c41e aab0 fae0 a6b0
00000030: b070 f0b0 dee0 a8b0 ecf8 a6b0 d2fc a8b0
00000040: b798 a9b0 cf29 a5b0 ae93 a8b0 6b0e a8b0
00000050: 1e5d a9b0 0db8 a9b0 01dc a6b0 9fb4 a7b0
00000060: 5453 a8b0 5ee9 a7b0 5d74 a8b0 93d9 a7b0
00000070: fb7c a7b0 35d0 a7b0 5125 a6b0 c3b7 a8b0
00000080: f76d a7b0 2e13 a8b0 f859 a8b0 b5be a7b0
00000090: 4090 a9b0 db93 a9b0 dde0 a6b0 4e18 a9b0
000000a0: 8827 a9b0 331c a8b0 66b0 a7b0 7bea a7b0
000000b0: b7d4 a7b0 bc07 a9b0 2073 a9b0 d02d a6b0
000000c0: 613d a9b0 3a7d a8b0
-1.2273371e-09 -1.2253719e-09 -1.2178067e-09 -1.2162037e-09 -1.2212543e-09 -1.23698e-09 -1.2301736e-09 -1.227935e-09
-1.2225543e-09 -1.2295848e-09 -1.2377872e-09 -1.2142032e-09 -1.7494326e-09 -1.228752e-09 -1.2148837e-09 -1.2295465e-09
-1.2339773e-09 -1.2017213e-09 -1.2265582e-09 -1.2227707e-09 -1.2322834e-09 -1.2348679e-09 -1.2140619e-09 -1.2202185e-09
-1.2247292e-09 -1.2217176e-09 -1.2256681e-09 -1.2212688e-09 -1.2186371e-09 -1.2210025e-09 -1.2088696e-09 -1.2275837e-09
-1.2182103e-09 -1.222906e-09 -1.224918e-09 -1.2205051e-09 -1.2337367e-09 -1.2338391e-09 -1.2142e-09 -1.2303276e-09
-1.2307604e-09 -1.2231623e-09 -1.2200985e-09 -1.2217493e-09 -1.2211306e-09 -1.2298567e-09 -1.2329089e-09 -1.209111e-09
-1.2313813e-09 -1.22592e-09

exp_avg_sq f4 [50, 1]
00000000: 2618 372e c739 372e 0b67 372e ff17 372e
00000010: d51c 372e 2224 372e f85b 372e 5748 372e
00000020: b214 372e 673c 372e 763d 372e cf16 372e
00000030: 9322 372e 908b 372e 9628 372e a734 372e
00000040: 2919 372e ce56 372e a923 372e b67a 372e
00000050: 39fb 372e 367d 372e bb14 372e 0995 372e
00000060: db14 372e 2427 372e 3060 372e 8007 382e
00000070: 6189 372e c016 372e 2c19 372e d7d4 372e
00000080: 3117 372e a814 372e cb4e 372e bf17 372e
00000090: 6776 372e 9ece 372e 9d3b 372e 9714 372e
000000a0: 6220 372e 326d 372e 8d1f 372e ec8d 9632
000000b0: 009d 6e2f 805b 372e 191d 372e fa15 372e
000000c0: 8018 372e 6596 372e
4.163083e-11 4.16607e-11 4.1700903e-11 4.1630695e-11 4.163499e-11 4.1641475e-11 4.1691067e-11 4.1673633e-11
4.1627764e-11 4.166303e-11 4.166397e-11 4.162964e-11 4.164009e-11 4.173334e-11 4.164543e-11 4.1656147e-11
4.163173e-11 4.168648e-11 4.1641055e-11 4.1718372e-11 4.1832513e-11 4.1720592e-11 4.1627795e-11 4.1741752e-11
4.1627906e-11 4.1644146e-11 4.1694814e-11 4.1843418e-11 4.17314e-11 4.162959e-11 4.163174e-11 4.1798422e-11
4.162998e-11 4.162773e-11 4.1679365e-11 4.1630473e-11 4.1714545e-11 4.1792896e-11 4.166233e-11 4.162767e-11
4.1638144e-11 4.1706368e-11 4.1637405e-11 1.7526837e-08 2.1701752e-10 4.169065e-11 4.1635227e-11 4.16289e-11
4.1631143e-11 4.174296e-11

exp_avg f4 [50, 1]
00000000: bb02 9431 2cb6 9431 34bc 9231 a20b 9631
00000010: 445e 9531 c13c 9331 e93d 9431 dd3f 9431
00000020: ff3a 9631 0a8f 9431 eed3 9431 791d 9531
00000030: b5f0 9431 5766 9431 6cbc 9431 28ba 9531
00000040: c7ad 9431 51ba 9231 df16 9531 d365 9431
00000050: 2ed4 9431 0ce0 9531 f3fc 9331 8524 9431
00000060: c22d 9531 1305 9531 7162 9431 3e90 9431
00000070: 6880 9431 cd8f 9531 78fe 9431 bae5 9331
00000080: cc7a 9331 36cf 9431 61d1 9331 b69b 9531
00000090: 7631 9531 0950 9531 0cff 9431 082b 9531
000000a0: eb42 9531 5adc 9531 2fde 9431 6811 b6b3
000000b0: 20a8 0532 ab0c 9531 53ee 9431 2ab8 9331
000000c0: dfdd 9531 4c8b 9431
4.3076773e-09 4.3280775e-09 4.2705555e-09 4.366897e-09 4.3471875e-09 4.28517e-09 4.3144053e-09 4.3146273e-09
4.3722816e-09 4.3236286e-09 4.3314605e-09 4.3398214e-09 4.334732e-09 4.3190016e-09 4.328788e-09 4.3576343e-09
4.327123e-09 4.270341e-09 4.339071e-09 4.318943e-09 4.331489e-09 4.361942e-09 4.30702e-09 4.3115187e-09
4.341673e-09 4.3370476e-09 4.3185584e-09 4.3237653e-09 4.321965e-09 4.352819e-09 4.3362967e-09 4.30438e-09
4.2922235e-09 4.330924e-09 4.3020667e-09 4.354173e-09 4.342094e-09 4.3455697e-09 4.3363624e-09 4.341363e-09
4.3440784e-09 4.361522e-09 4.3326263e-09 -8.4782016e-08 7.779846e-09 4.337911e-09 4.3344612e-09 4.2992e-09
4.3616946e-09 4.323203e-09

exp_avg_sq f4 [50]
00000000: 28b7 972c 61f8 962c 0836 962c da35 962c
00000010: d568 982c ba4d 962c be43 962c 46f6 962c
00000020: 055a 972c 0034 972c eb45 962c 2f39 962c
00000030: a543 5031 b078 962c fb4d 9a2c 5fc2 962c
00000040: ff34 962c d6dd 9a2c 6b35 962c 72b9 9b2c
00000050: a02a 9b2c eafd 972c 0183 9a2c 7a58 9b2c
00000060: 701f 992c af5a 962c f16e 962c 1b46 982c
00000070: b270 962c c35d 962c 1836 962c 0361 962c
00000080: 8a82 962c 0a6a 962c 5135 962c 4c7f 972c
00000090: 3b40 962c 8ed4 982c 0515 9a2c dd6d 9b2c
000000a0: 709c 962c 4a49 962c 140d 9d2c d648 962c
000000b0: dc92 9c2c ff58 962c 88dc 982c c6f4 9c2c
000000c0: 7941 962c ca5a 9a2c
4.3120126e-12 4.290832e-12 4.269255e-12 4.269235e-12 4.3317385e-12 4.271886e-12 4.2707773e-12 4.2905983e-12
4.3016723e-12 4.2974513e-12 4.271019e-12 4.269605e-12 3.0306435e-09 4.2766554e-12 4.385601e-12 4.284836e-12
4.26914e-12 4.401572e-12 4.269187e-12 4.4259535e-12 4.4100973e-12 4.3198682e-12 4.3914876e-12 4.415188e-12
4.352012e-12 4.2733243e-12 4.2755734e-12 4.327883e-12 4.275768e-12 4.273666e-12 4.269262e-12 4.274027e-12
4.277749e-12 4.275029e-12 4.2691757e-12 4.305811e-12 4.2703874e-12 4.343698e-12 4.379277e-12 4.4175622e-12
4.2806245e-12 4.271393e-12 4.4636603e-12 4.271343e-12 4.4500913e-12 4.273137e-12 4.3445837e-12 4.460962e-12
4.2705253e-12 4.387023e-12

exp_avg f4 [50]
00000000: af16 b930 b89f ba30 bcd4 bc30 c459 bc30
00000010: 8c7c b630 fd15 bc30 5e9a bc30 68ab b930
00000020: 8190 b930 6b97 b930 a316 bc30 d5d9 bc30
00000030: 4a83 18b3 d492 bb30 f3ec b230 d452 bb30
00000040: b903 bd30 a394 b230 bd86 bc30 7d2a b030
00000050: 87fc b130 2b3c b830 18c3 b230 e414 b130
00000060: 3f52 b530 a4ef bb30 d66b bb30 7a6e b730
00000070: 5955 bb30 cfef bb30 d583 bc30 fa70 bb30
00000080: 97bc bb30 d7ef bb30 2730 bc30 b468 b930
00000090: 578d bc30 fb68 b630 598e b330 2842 b130
000000a0: 3280 bb30 5dff bb30 bd2f af30 0d95 bc30
000000b0: df8f af30 2376 bc30 b954 b630 60a6 af30
000000c0: 6fb1 bb30 95af b330
1.3466969e-09 1.3578676e-09 1.3739263e-09 1.3704313e-09 1.3277641e-09 1.368505e-09 1.3722674e-09 1.3509238e-09
1.3501592e-09 1.3503557e-09 1.3685234e-09 1.3740712e-09 -3.5509665e-08 1.3647772e-09 1.301855e-09 1.3629582e-09
1.3752618e-09 1.299345e-09 1.3717095e-09 1.2817761e-09 1.2950218e-09 1.3404863e-09 1.3006654e-09 1.2884382e-09
1.3192859e-09 1.3674151e-09 1.363669e-09 1.3346402e-09 1.3630298e-09 1.3674198e-09 1.3716269e-09 1.3638151e-09
1.3659641e-09 1.3674207e-09 1.3692486e-09 1.349028e-09 1.3718972e-09 1.327208e-09 1.3064422e-09 1.2897248e-09
1.3642476e-09 1.3678619e-09 1.2746494e-09 1.3721163e-09 1.2773816e-09 1.3712377e-09 1.3266322e-09 1.2780212e-09
1.365647e-09 1.3073868e-09

exp_avg_sq f4 [1, 50]
00000000: 74b9 5933 afbc 5933 77b8 5933 b73a eb32
00000010: 5bbb 5933 64b7 5933 77ba 5933 01bc 5933
00000020: 9db7 5933 26ba 5933 e3c0 5933 f9b8 5933
00000030: 64ba 5933 5fb8 5933 65bb 5933 57b8 5933
00000040: 48bb 5933 aeb8 5933 aabe 5933 bbb9 5933
00000050: 7dba 5933 11b8 5933 5cbb 5933 58ba 5933
00000060: 883d eb32 ebb6 5933 46c0 5933 0bb8 5933
00000070: d9b7 5933 48b7 5933 f9ba 5933 33b9 5933
00000080: d3ba 5933 5ec2 5933 d7b9 5933 4eba 5933
00000090: 0cbb 5933 7eb7 5933 44ba 5933 f0b7 5933
000000a0: 0cb9 5933 c2ba 5933 f2b6 5933 d4ba 5933
000000b0: bbb7 5933 15b8 5933 c2ba 5933 5fbb 5933
000000c0: 69b8 5933 87b8 5933
5.069292e-08 5.0695856e-08 5.069202e-08 2.7384301e-08 5.069465e-08 5.0691042e-08 5.069384e-08 5.069524e-08
5.0691245e-08 5.069355e-08 5.069968e-08 5.069248e-08 5.069377e-08 5.0691934e-08 5.0694684e-08 5.0691906e-08
5.069458e-08 5.0692215e-08 5.0697658e-08 5.069317e-08 5.069386e-08 5.0691657e-08 5.0694652e-08 5.069373e-08
2.7385582e-08 5.0690613e-08 5.069912e-08 5.0691636e-08 5.0691458e-08 5.0690943e-08 5.06943e-08 5.0692687e-08
5.0694165e-08 5.0701026e-08 5.069327e-08 5.0693693e-08 5.0694368e-08 5.0691135e-08 5.0693657e-08 5.069154e-08
5.069255e-08 5.0694105e-08 5.0690637e-08 5.069417e-08 5.069135e-08 5.069167e-08 5.0694105e-08 5.0694663e-08
5.069197e-08 5.0692076e-08

exp_avg f4 [1, 50]
00000000: 44ec 6838 0fed 6838 e9ec 6838 3f4b 2b38
00000010: bfec 6838 edec 6838 4bec 6838 43ed 6838
00000020: a4ec 6838 43ec 6838 4fed 6838 8dec 6838
00000030: 96ec 6838 b5ec 6838 c0ec 6838 87ec 6838
00000040: 85ec 6838 b2ec 6838 d9ed 6838 88ec 6838
00000050: bdec 6838 0aec 6838 e9ec 6838 81ed 6838
00000060: 5f4b 2b38 80ec 6838 ffec 6838 a3ec 6838
00000070: 39ec 6838 d4ec 6838 31ec 6838 8bec 6838
00000080: e9ec 6838 39ed 6838 52ec 6838 2dec 6838
00000090: 5fed 6838 9fec 6838 98ec 6838 d4ec 6838
000000a0: abec 6838 b7ec 6838 9fec 6838 d5ec 6838
000000b0: 9dec 6838 baec 6838 d3eb 6838 b5ec 6838
000000c0: 21ec 6838 e3ec 6838
5.553315e-05 5.553389e-05 5.553375e-05 4.0839655e-05 5.5533597e-05 5.5533765e-05 5.5533175e-05 5.5534078e-05
5.55335e-05 5.5533146e-05 5.553412e-05 5.5533415e-05 5.5533448e-05 5.553356e-05 5.55336e-05 5.5533394e-05
5.5533386e-05 5.553355e-05 5.5534623e-05 5.5533397e-05 5.553359e-05 5.553294e-05 5.553375e-05 5.5534303e-05
4.0839772e-05 5.5533368e-05 5.553383e-05 5.5533495e-05 5.553311e-05 5.5533674e-05 5.553308e-05 5.5533408e-05
5.553375e-05 5.553404e-05 5.55332e-05 5.5533066e-05 5.553418e-05 5.553348e-05 5.5533455e-05 5.5533674e-05
5.5533525e-05 5.553357e-05 5.553348e-05 5.5533677e-05 5.5533474e-05 5.553358e-05 5.553274e-05 5.553356e-05
5.5533023e-05 5.553373e-05

exp_avg_sq f4 [1, 50]
00000000: 9159 5033 a759 5033 f759 5033 a559 5033
00000010: 9159 5033 9a59 5033 b759 5033 ae59 5033
00000020: 9c59 5033 af59 5033 b059 5033 8959 5033
00000030: a559 5033 095a 5033 a959 5033 a659 5033
00000040: 9f59 5033 e159 5033 9259 5033 c859 5033
00000050: 125a 5033 c659 5033 8159 5033 f659 5033
00000060: 8459 5033 a659 5033 e059 5033 335a 5033
00000070: 0f5a 5033 a459 5033 8d59 5033 075a 5033
00000080: 8659 5033 8059 5033 a659 5033 9259 5033
00000090: cd59 5033 0f5a 5033 aa59 5033 8959 5033
000000a0: 9459 5033 f059 5033 a059 5033 f8ac 7333
000000b0: 182e ee33 ab59 5033 8c59 5033 8959 5033
000000c0: 8959 5033 d959 5033
4.8510234e-08 4.8510312e-08 4.8510596e-08 4.8510305e-08 4.8510234e-08 4.8510266e-08 4.851037e-08 4.8510337e-08
4.8510273e-08 4.851034e-08 4.8510344e-08 4.8510206e-08 4.8510305e-08 4.851066e-08 4.851032e-08 4.851031e-08
4.8510284e-08 4.851052e-08 4.8510238e-08 4.851043e-08 4.8510692e-08 4.8510422e-08 4.8510177e-08 4.8510593e-08
4.8510188e-08 4.851031e-08 4.8510515e-08 4.851081e-08 4.851068e-08 4.85103e-08 4.851022e-08 4.8510653e-08
4.8510195e-08 4.8510174e-08 4.851031e-08 4.8510238e-08 4.8510447e-08 4.851068e-08 4.8510323e-08 4.8510206e-08
4.8510245e-08 4.851057e-08 4.8510287e-08 5.673516e-08 1.1091123e-07 4.8510326e-08 4.8510216e-08 4.8510206e-08
4.8510206e-08 4.851049e-08

exp_avg f4 [1, 50]
00000000: 33f1 1834 4e05 1934 1e94 1934 3406 1934
00000010: 2d01 1934 8f5c 1934 0c1e 1934 3a35 1934
00000020: bf3c 1934 2640 1934 e931 1934 b148 1934
00000030: 832c 1934 411d 1934 fc4f 1934 51f9 1834
00000040: 0634 1934 3692 1934 4a45 1934 2c23 1934
00000050: 9e2f 1934 0aea 1834 4946 1934 e24e 1934
00000060: 3435 1934 0942 1934 a707 1934 944f 1934
00000070: c15f 1934 9d0a 1934 7e14 1934 2344 1934
00000080: 75c8 1834 f631 1934 2929 1934 d1dd 1834
00000090: 4d08 1934 d104 1934 4b54 1934 2e40 1934
000000a0: c517 1934 55eb 1834 fe2f 1934 a8af 2334
000000b0: b781 6a34 703c 1934 4b07 1934 d240 1934
000000c0: cdf6 1834 0637 1934
1.4243851e-07 1.4251165e-07 1.430312e-07 1.4251492e-07 1.4249663e-07 1.4282908e-07 1.4260166e-07 1.4268599e-07
1.4271335e-07 1.4272572e-07 1.4267393e-07 1.427568e-07 1.4265429e-07 1.4259878e-07 1.4278334e-07 1.4246804e-07
1.4268161e-07 1.4302427e-07 1.4274443e-07 1.4262031e-07 1.4266558e-07 1.4241246e-07 1.4274805e-07 1.4277933e-07
1.426859e-07 1.4273259e-07 1.425202e-07 1.4278186e-07 1.428407e-07 1.4253096e-07 1.425669e-07 1.4274023e-07
1.4229029e-07 1.4267411e-07 1.426421e-07 1.42368e-07 1.4252255e-07 1.4250988e-07 1.4279901e-07 1.4272584e-07
1.4257883e-07 1.4241716e-07 1.4266695e-07 1.5244461e-07 2.1840138e-07 1.4271222e-07 1.4251889e-07 1.4272817e-07
1.4245889e-07 1.4269253e-07
