experiments/rotation/checkpoints/checkpoints_weight_decay_mse/checkpoint_dim-2_ntrain-10_weightdecay-0.9_seed-1683best.pkl (torch_old, 13838 bytes, 36 tensors)

ffs.0.0.weight f4 [50, 1]
00000000: a9ad 033f eb43 2d3f e092 f43c d7c1 14bf
00000010: fbe1 f8be e69b 06bd 0467 3d3f da65 e93e
00000020: 1c91 1bbf 88e4 ed3e f00b 39bf 9c6e 3a3e
00000030: 6fc8 e1be dd70 a63d 5738 b93d f9cd fc3b
00000040: 60b8 3c3f 1d4b 12be 1d43 d0be 4bb6 763a
00000050: 89a1 be3e 56f7 09bf de35 3f3f 64cb 3fbf
00000060: eef0 93bc 120d 16bf 69cf a43e 8a74 a1ba
00000070: ac28 05bf 5c5c 05ba 6171 563e c13d 143f
00000080: 4979 d33e 5313 423f 9fc3 b4b9 075b 253e
00000090: 7058 a73e 4197 8a3e a6e9 fe3c 1d9f 2bbf
000000a0: daea 173f 0ee9 183f 8e12 083e 5473 9e3c
000000b0: 1f20 1a3f 07fc b13e b3e9 11ba 74d9 32bf
000000c0: 00e7 90be 670d c6b9
0.5143686 0.6768176 0.029855192 -0.58108276 -0.4860991 -0.03286352 0.73985314 0.4558552
-0.60768294 0.46463418 -0.7228384 0.18206257 -0.4409823 0.08126996 0.09043949 0.0077149835
0.73718834 -0.14286466 -0.40676203 0.0009411319 0.37232617 -0.5389303 0.7469157 -0.74919724
-0.01805922 -0.58613694 0.3218949 -0.0012318057 -0.52015185 -0.000508731 0.20941688 0.5790673
0.4130347 0.75810736 -0.00034478024 0.16148005 0.3268466 0.27068523 0.031117272 -0.6703966
0.5934273 0.59730613 0.13288328 0.019342102 0.6020526 0.34762594 -0.0005566135 -0.6986306
-0.2830124 -0.00037775488

ffs.0.0.bias f4 [50]
00000000: 27be b33a c9dd 233f 5c9f 0d3f 3195 24ba
00000010: ecc4 023f 61a4 4b3f f93b dcbd 8ee8 483e
00000020: 417b c4be c9d8 0e3f f565 1fbf fccb 0abe
00000030: 791d 16bf 1602 2dbf e1a6 f33e b92d 5a3d
00000040: ed82 a03e b365 c5be 19a0 61be 96df f13d
00000050: 95d1 253e a9e8 15be 0549 4c3f 0256 c33e
00000060: 3969 d0be d8ec dd3e bf0c ebb8 633d e4be
00000070: 59e5 0ebe 41c6 f4bd 17e0 1dbf 8d2f 383f
00000080: e8c9 c9bd 252f ac3d 853f a73a f84e ce3e
00000090: b85c d33e 36d4 d9be 8bc5 27bf 5321 383f
000000a0: fe3a fe3e 7394 56bd c449 1739 37e3 bc3e
000000b0: f478 4cbf b8bd 1d3f 302a a03b be96 08bf
000000c0: feff 25bf 842c 253d
0.0013713286 0.6401029 0.5532129 -0.0006278335 0.5108173 0.795477 -0.107536264 0.19619963
-0.38375285 0.5579954 -0.6226495 -0.13554376 -0.5863872 -0.6758131 0.47588256 0.05326626
0.31349888 -0.38554153 -0.22033729 0.11810224 0.1619323 -0.14639534 0.7979892 0.38151556
-0.4070528 0.4334476 -0.00011208047 -0.44578084 -0.13954677 -0.119518764 -0.6167006 0.71947557
-0.09852964 0.084074296 0.0012760019 0.40294623 0.41281676 -0.42544717 -0.655358 0.7192585
0.49654382 -0.052387666 0.00014427962 0.368921 -0.7987206 0.6161761 0.0048878416 -0.53355014
-0.6484374 0.040325657

ffs.0.2.weight f4 [1, 50]
00000000: 0355 523c b9c0 f53c 1023 18bc 8e74 f1bc
00000010: c763 a4bc a8a2 4bbc e91f 1c3b 8697 723c
00000020: af6d 12bd f15d 853c 9174 ccb9 64c5 0339
00000030: a8e1 02bd dc10 22bb cfd2 b3bb a222 2bbc
00000040: c396 823c 6b84 60bc 11d0 cebc b008 0fbc
00000050: bc92 123c 78ca bd3b 1345 213d e8ac 8cbc
00000060: 02aa ebbb 8420 b3bc 3928 41bc fa75 1dbc
00000070: f039 fdbc af35 21bc 2299 7739 afe8 cb3c
00000080: 60d7 fd3b 84f1 ac3c 7c5b 01bc 6de0 a2ba
00000090: 714d 143c 44ad f03a 437a 87bb 7c2c 51b9
000000a0: a80a bf3c 4e24 54bc eda1 b6ba b50f 0abc
000000b0: 13e7 c6bb 15cb 133c 0313 51bc 6e18 05bc
000000c0: 0548 c9bc 1b20 06bc
0.012837651 0.029999124 -0.009285703 -0.029474523 -0.020067109 -0.012428917 0.002382273 0.014806634
-0.035749134 0.016280146 -0.0003899676 0.00012566667 -0.031953484 -0.0024729287 -0.005487777 -0.010445269
0.01594103 -0.013703446 -0.025245698 -0.008730099 0.008946117 0.0057919584 0.039372515 -0.017172292
-0.0071918974 -0.02186609 -0.011789375 -0.009610647 -0.030911416 -0.009839459 0.00023612802 0.024891226
0.007746622 0.021111257 -0.007895347 -0.0012426503 0.009051667 0.0018362184 -0.004134448 -0.00019948365
0.023320511 -0.012948109 -0.0013933756 -0.008426596 -0.0060700267 0.0090205865 -0.01276088 -0.0081235
-0.024570474 -0.0081863655

ffs.1.0.weight f4 [50, 1]
00000000: bc5b ec3d 59f4 ce3c b386 c2be 1129 b6be
00000010: f71e b03e b2ee 003e 6185 2d3f 0fc7 b1be
00000020: a215 973a 3f02 2bbf 1c9d 833e 7ea8 a53c
00000030: 0fac 3ebf bbdf 103c 059c ffbc bdb1 da3e
00000040: 8ff8 0d3f 6cce 2dbf ad16 4fbe b465 3d3f
00000050: 7af0 44bf 9adc cf3e 5e80 2abf b9e3 00bd
00000060: bb45 04be c9b2 f03b 4175 47bf 185f 8dbe
00000070: c2aa d33e c1a0 3fbe d09f 433f 94ac 63bd
00000080: 43c9 4c3e 1640 41bf 49fc 443f d000 12bf
00000090: 60f2 3f3f f3cd b4be d69e b8be 604e c73d
000000a0: 6afe c5be 695b 10bb 4b8b 30be 2d1b debe
000000b0: 38bd 03bf 8052 51be c362 edbe a5bf 14bf
000000c0: 4804 f4be 035a 073f
0.115409344 0.025262998 -0.37993392 -0.35578206 0.34398624 0.12591055 0.67781645 -0.34722182
0.0011526833 -0.668003 0.25705802 0.020221945 -0.7448129 0.008842404 -0.031202326 0.4271373
0.55457395 -0.678931 -0.20223494 0.7398331 -0.7692944 0.40597993 -0.6660212 -0.031467173
-0.12917225 0.0073455316 -0.7791329 -0.27611613 0.41341215 -0.18713666 0.7641573 -0.055584505
0.1999865 -0.7548841 0.76947457 -0.5703249 0.7497921 -0.35313377 -0.36058682 0.09731746
-0.38670665 -0.002202714 -0.17240636 -0.43380108 -0.514606 -0.20441628 -0.46364412 -0.58104926
-0.47659516 0.5287172

ffs.1.0.bias f4 [50]
00000000: c3b2 2cbf 2716 683e 8699 febe 485a ff3d
00000010: d250 a7be a4b7 00bd 768f 86b9 7118 ed3d
00000020: 45a5 e1be 257d 4bbf 3767 b7bc a793 11bf
00000030: 8400 0cbf 8465 08bf a331 873e bc15 e13e
00000040: 18f3 1dbf 6808 123f 9f3e 4b3e 88fa afbe
00000050: 3b95 2cbd f38f 023f 0c2f f1bd 86c1 3f3f
00000060: bb4d 41bf 9d73 003e 0492 aa39 2ee9 2dbf
00000070: 0a3a 65bc ce3f 4a3f 4765 9dbe 07b6 b23d
00000080: 9196 843e 1f03 153b d788 873e b16b d1be
00000090: fb5d 07bf b0d3 63be ba11 1ebf f229 ea34
000000a0: 4064 19bf dacc 043f 6bca c3be 43c7 7ebe
000000b0: 3244 da39 4810 5e3e 365b 203f 430a d839
000000c0: 4fc3 1cbf bf6a a53e
-0.6746027 0.226647 -0.49726504 0.12468392 -0.32678849 -0.031425133 -0.00025665358 0.115769275
-0.44071403 -0.7948783 -0.022388084 -0.56865925 -0.54688287 -0.532799 0.26405057 0.43961895
-0.61699057 0.57044077 0.19848107 -0.34370828 -0.042134505 0.510009 -0.117765516 0.7490467
-0.7550923 0.12544103 0.00032533717 -0.6793393 -0.013990888 0.7900361 -0.3074133 0.08726125
0.25896123 0.0022737456 0.26471588 -0.40902475 -0.5287778 -0.22248721 -0.617458 4.3616416e-07
-0.59918594 0.5187508 -0.3824037 -0.248807 0.0004163101 0.21685898 0.62639177 0.00041206376
-0.6123552 0.32308003

ffs.1.2.weight f4 [1, 50]
00000000: a439 84bb 98a9 2c3c c5a8 423d 6025 8f3c
00000010: d051 07bd 8069 4fbb 763c 34bd eaa2 5e3d
00000020: 6483 01bc d857 7e3d b27a 84bc 8cba b53b
00000030: 102f 343d 0694 ed3b 20dc bb3c cf02 d9bc
00000040: 2d68 27bd e777 a53d 7f6e 163d a0d7 47bd
00000050: cfe5 ab3c 43b3 c1bc df46 983d e41a db3c
00000060: 898a ae3c ea51 86bc 4da9 633d eab1 1f3c
00000070: 7b9d f5bc 7fce b53c a814 62bd 9843 2b3a
00000080: 0ec0 43bc 7d46 693d bc2c 50bd 8f9c 733d
00000090: aaea 5abd 3999 473d a095 323d ce92 9938
000000a0: f62d 393d 1d75 953c 3733 f23c 9cc5 da3c
000000b0: 1029 883d da6e 533c 934a 223d 445c 933d
000000c0: b8c3 5b3d bf0e 11bd
-0.0040351916 0.010538481 0.047524232 0.017473876 -0.033037007 -0.0031648576 -0.044002973 0.054354586
-0.007904861 0.062095493 -0.016171787 0.0055459198 0.043990195 0.007250312 0.022932112 -0.026490597
-0.040870834 0.0807951 0.03672647 -0.04878962 0.020983605 -0.023645049 0.074353926 0.02674622
0.021306293 -0.016396482 0.05558138 0.009747008 -0.02998232 0.022193192 -0.05519548 0.00065332046
-0.011947645 0.05695199 -0.050823912 0.059475478 -0.05344645 0.04873011 0.043599725 7.322953e-05
0.045209847 0.01824432 0.029565437 0.026705556 0.06648457 0.012904847 0.0396219 0.07195333
0.05365345 -0.035414454

ffs.2.0.weight f4 [50, 1]
00000000: 86fd fe3b 78d8 c93e 2e98 1c3f 2636 cebe
00000010: 65b8 263e bd07 ddbd 6d87 4abf e903 823e
00000020: 8649 bb3d 9a22 d7be d53a 183e 1dc7 1e3c
00000030: 4126 e13e c114 283f e22c 89be cc0f 6f3d
00000040: eeda 1cb9 2225 8e3e daf7 373f cb9c 10bf
00000050: beb8 f6bd b597 33bf 9516 debe c90e 09bf
00000060: 74a7 67bd 189d 093f 9f27 b7be 6c14 9d3e
00000070: c8c9 db39 b361 e33b 1752 c7bd 686b bebe
00000080: d1e4 253d 7d61 4b3e 5f44 f9b9 d8ab 72be
00000090: 8d87 af3e 5876 173f 514c 47bf 7d2c 0bbf
000000a0: fc02 353f 959b d13e 0013 abbc 57e2 213f
000000b0: 713d 9a3e 0239 0b3f 9c2f 6c3e 1eb6 2fbf
000000c0: 8ea4 df3e c905 7fbe
0.007781687 0.39422965 0.6116971 -0.40275687 0.16281278 -0.107924916 -0.79112893 0.25393608
0.09144883 -0.42018586 0.14866193 0.009691027 0.43974498 0.6565667 -0.26792055 0.058364674
-0.00014958877 0.27762705 0.71862566 -0.5648925 -0.120469555 -0.7015336 -0.43376604 -0.53538185
-0.05655618 0.5375533 -0.35772416 0.30679643 0.00041921274 0.006939137 -0.09732454 -0.3719132
0.04050142 0.19861408 -0.0004754392 -0.23698366 0.34283105 0.59164953 -0.77850825 -0.5436476
0.7070768 0.40939012 -0.020883083 0.6323599 0.30125 0.5438386 0.23065037 -0.68637264
0.43680233 -0.2490455

ffs.2.0.bias f4 [50]
00000000: b841 46bf 375a 563e 22c0 02bf 3ba1 24bf
00000010: 1e89 b9bd 388b c7bb caf4 98be facf 91be
00000020: c172 1abe 02d1 cf38 285d f53e 871b b9b7
00000030: 480a 2dbf d42f 3ebf 5b9e a8be d542 823e
00000040: f93e 1637 f327 f13e 5865 473f 0296 ed3d
00000050: a510 9abd d868 d8be a036 233f 78da 583e
00000060: b9eb 6a3e e4d6 3cbf 6eda 2abf 5c77 34be
00000070: 5a71 0abe 5c67 efbe a7f0 3bbd ff2e 05bd
00000080: 6dc4 37bf 2b52 0c3f 9a65 aabd 01b1 4bbf
00000090: bc02 7e3e 9fac aabd 3f3c 46bf 6c98 b93e
000000a0: 04e5 113f 18ce dd3b 0762 fa3d c438 8ebe
000000b0: 9858 1cbf 8603 04bf 0989 1abf 37a5 70bd
000000c0: 58db 98bc 733f 38b7
-0.7744403 0.20932852 -0.5107442 -0.6430852 -0.09059356 -0.006089594 -0.2987426 -0.28478986
-0.15082838 9.90946e-05 0.47922635 -2.2066537e-05 -0.6759381 -0.7429173 -0.32933316 0.25441614
8.955359e-06 0.4710079 0.77889013 0.11600877 -0.07522706 -0.4226749 0.63755226 0.21177089
0.22941484 -0.737654 -0.6673955 -0.17623657 -0.13519803 -0.46758544 -0.0458838 -0.032515522
-0.71784097 0.5481288 -0.0832016 -0.7956696 0.2480573 -0.08333706 -0.7743568 0.362491
0.56990075 0.006768953 0.122257285 -0.27777684 -0.61072683 -0.51567876 -0.6036535 -0.05875131
-0.018659279 -1.0982028e-05

ffs.2.2.weight f4 [1, 50]
00000000: 0b2f 01bb 2481 b33c 965d 853c 2bc7 6bbc
00000010: 5986 163b 5d48 11bc 1c16 32bc ab3a 1d3c
00000020: fb3a 6338 b753 a0bc 62fb 24ba 6957 3d3c
00000030: e587 513c d85f 9e3c be87 54bc 7fb5 23bb
00000040: 8b00 90bb 2b62 7c3b 5959 5b3c 069d e6bb
00000050: fcf7 6ebb 9b8d c2bc 4b52 c5bc fcd0 d3bc
00000060: 7dc0 12bc 9c96 823b 1939 55bc d605 0c3c
00000070: 1038 66bb b6a3 723c 182a 743a 5242 923c
00000080: bfb5 7bba bac1 9e3a aa7f 98bb 5a5a 1abc
00000090: c109 a43b 10b7 823c 1f2a 86bc a0d0 f0bc
000000a0: 863f 423c de84 263c f640 dfbb 9188 823b
000000b0: 0244 113a 5663 c63c d25a b03b 9501 e4bc
000000c0: 525e 363c 74da 56ba
-0.0019711878 0.021912165 0.016279977 -0.014390747 0.002296826 -0.00886735 -0.010869529 0.009596507
5.4175947e-05 -0.019571168 -0.00062935625 0.011556485 0.012788747 0.019332811 -0.012971817 -0.0024980006
-0.004394596 0.003851066 0.013388001 -0.0070377616 -0.0036463728 -0.023749163 -0.024087092 -0.025856487
-0.008957026 0.003985239 -0.013014101 0.008546313 -0.003512863 0.01480954 0.0009314134 0.01785389
-0.00096019724 0.0012112178 -0.0046538906 -0.009420956 0.0050060456 0.015956432 -0.016377507 -0.029396355
0.0118559655 0.010163514 -0.006813164 0.003983565 0.0005541445 0.024217289 0.0053819204 -0.027832786
0.011130886 -0.0008196004

ffs.3.0.weight f4 [50, 1]
00000000: 1f28 16be 5129 1fbf f32f 183f eeba f43e
00000010: 6bfb 6d3e 197e 973d 2d65 f7be 4c27 26bf
00000020: 1fe9 88be 006f f23e 3e61 bfbd 9ec6 053e
00000030: eb80 6bbe 69a7 a6bd 6697 a33c 7985 d8be
00000040: 16a6 93be 7187 bcbe f9be fb38 bc60 983e
00000050: 1661 4838 c692 4dbc 3212 ac3d 7285 8c3e
00000060: 8f4a e83e d365 b23e 5ea6 2c3e 0a17 1c3f
00000070: 0852 c4be 089d 1cbe 3d0b 67bd 6751 5cbc
00000080: 56c3 a8bc bb48 0dbf 6504 373d d2ef 363f
00000090: 1e79 1b3f 8244 d33e c22c 0f3f 7c0e 5fbe
000000a0: 9224 38bd 5adf 823d e8b4 fcbe 6d9b edbe
000000b0: 14df 473f b29b 2bbd 2d52 233f fc75 fbbe
000000c0: 0c94 783e 41e1 7fbe
-0.14663742 -0.6217242 0.59448165 0.47798866 0.2324044 0.07397098 -0.48319378 -0.6490371
-0.26740357 0.4735031 -0.09344719 0.13064048 -0.22998397 -0.081374 0.019969653 -0.42289332
-0.2883765 -0.36822084 0.00012004184 0.29761302 4.7774134e-05 -0.012547201 0.08401908 0.2744556
0.45369384 0.3484331 0.16860339 0.60972655 -0.38343835 -0.15294278 -0.056407202 -0.013447142
-0.020600956 -0.551891 0.044681925 0.71459687 0.60731685 0.41263205 0.5592767 -0.21782869
-0.04495675 0.06390257 -0.4935677 -0.46407643 0.78074765 -0.04189653 0.63797265 -0.49113452
0.24275225 -0.24988271

ffs.3.0.bias f4 [50]
00000000: b185 3fbf 666b f43e 6d6f b43b 2ed4 363f
00000010: b6eb b6be 2e99 d7be 7c77 23be 4aa6 263e
00000020: bffc 3b3e b84c 14bd c04f 0cb7 ec94 b736
00000030: abd6 17bf 1a96 483e 8cd7 43bf 6fef f2be
00000040: 7f6e ae3e 985a a639 6375 0bbf 3791 3d3f
00000050: 8cbb 21bf bfcf 523e db1e 4cbf a5ab bb3e
00000060: 390a 0fbf 39cd d5bd f5c3 ce3e eb34 b4bd
00000070: 2476 d1be 6bfe 203d 0292 ae37 9dd6 cb3e
00000080: 88fd 4636 8d8e 49bf da0a 77be d74c 20bf
00000090: df37 af3e e608 84be 736a 3cbf e4b9 d235
000000a0: f859 43bc e61e fbbd 6a31 e93c b038 ef3e
000000b0: 7f3c 81b9 f843 1fbe 2b3e 46bf 515a 26bf
000000c0: 2755 a43e ddf5 b33d
-0.7481337 0.47738189 0.005506447 0.7141751 -0.35726708 -0.42109054 -0.15963548 0.16274372
0.18358134 -0.036205977 -8.3632185e-06 5.471162e-06 -0.5931193 0.19588509 -0.76500773 -0.47448298
0.34068677 0.00031729485 -0.5447599 0.74049705 -0.631768 0.20587061 -0.7973458 0.36654392
-0.55874974 -0.10439534 0.40383878 -0.08799156 -0.40910447 0.039305132 2.0810407e-05 0.39812174
2.9651874e-06 -0.7873314 -0.24125233 -0.6261725 0.34222314 -0.2578804 -0.7359993 1.570032e-06
-0.011923306 -0.12261753 0.028465945 0.46722937 -0.0002464987 -0.15553272 -0.7743861 -0.6498156
0.32096216 0.08787129

ffs.3.2.weight f4 [1, 50]
00000000: 0449 fb3a 6e56 843c bd0b 95bc f383 59bc
00000010: f541 c2ba 6b60 8e3b 77a1 1cbc e332 453c
00000020: 3177 b13b ce64 7cbc c082 f93b 0588 dfbb
00000030: 694a 173b c7a2 81ba 7909 5abb 59e1 af3b
00000040: c573 0b3c f49a d93b 2696 a4bb 7b12 0cbc
00000050: ea69 03bb 43e3 16bb 5efb 55bb afeb 14bc
00000060: b78d bcbc 6240 42bc 3cca 8bbc d74a 6d3b
00000070: ae1e 0b3c a471 e5bb 23da 95ba 584e 48bb
00000080: 5b19 16bb 74a8 03ba fd6c 52bb d7b7 d1bc
00000090: 0e23 a0ba ad67 6dbc b0c3 a2bc 7cc7 4f3b
000000a0: f4ca d3ba 3677 8cbb 495b 0f3c 48a0 2f3c
000000b0: ce17 bcbc 6166 c2ba 129f 3dbc fa2c ae3b
000000c0: e051 0cbc 30dc 803b
0.0019171541 0.016154494 -0.018194074 -0.013276088 -0.0014820682 0.00434499 -0.009559981 0.012036058
0.00541582 -0.015404893 0.0076144636 -0.0068216347 0.0023085123 -0.000989043 -0.0033269806 0.0053674397
0.008511488 0.0066407863 -0.005022782 -0.008549328 -0.0020052143 -0.0023023642 -0.0032651047 -0.0090893945
-0.023016794 -0.01185617 -0.017064206 0.0036207938 0.008491201 -0.0070020724 -0.0011432808 -0.0030564275
-0.0022903297 -0.0005022355 -0.003210842 -0.025600357 -0.0012217478 -0.01449005 -0.019868702 0.0031704595
-0.0016158507 -0.004286672 0.008749791 0.010719366 -0.02296057 -0.0014831537 -0.01157357 0.00531542
-0.008564442 0.0039324984

exp_avg_sq f4 [1, 50]
00000000: f045 5a39 e31f 5437 a1dd 2139 7e00 2e3a
00000010: 12ae 3139 e359 da37 5bc2 563a 244a 3939
00000020: 3a8e 703a 3ae6 3736 48b9 4d3b 2717 8137
00000030: 2c15 2d38 fa0d 2536 6c58 0637 1074 9739
00000040: c10f 803a aed8 e837 8800 463a 0975 4839
00000050: 36bc 4c38 3708 203b dedd 3539 1bc4 3d3a
00000060: dbc5 5537 b6d3 8439 9511 8d3a e10e 9739
00000070: b72d 6038 3bee 7f39 fd0c de35 b488 3536
00000080: 558d e538 5e8f 2139 5d23 aa36 059d 9f38
00000090: 41f6 3539 cdf0 3638 182b ee36 7402 8d3a
000000a0: b514 013a 0000 bb3a abfd 1039 0367 8736
000000b0: 9b31 b739 449f a334 99cc b139 1c3e 293b
000000c0: 8b6d 6c39 ea6e a037
0.00020816154 1.2643609e-05 0.0001543672 0.00066376466 0.00016944882 2.6029482e-05 0.00081924134 0.00017670594
0.0009176467 2.7403134e-06 0.0031390954 1.538878e-05 4.1266132e-05 2.4595051e-06 8.00761e-06 0.00028887438
0.000977032 2.7757455e-05 0.000755318 0.00019117085 4.8812675e-05 0.002441896 0.00017344157 0.0007239
1.2741856e-05 0.0002533474 0.0010762686 0.0002881205 5.3448337e-05 0.00024407443 1.6544069e-06 2.7050673e-06
0.00010945896 0.00015407565 5.0705116e-06 7.610958e-05 0.00017353242 4.3616445e-05 7.0979695e-06 0.0010758177
0.0004924045 0.0014266968 0.00013827409 4.0353057e-06 0.0003494144 3.0476997e-07 0.00033912508 0.0025824374
0.00022547522 1.9125135e-05

exp_avg f4 [1, 50]
00000000: bbf1 e43a 1fe6 1a3a ccc4 52ba 5dc0 a6b9
00000010: 2277 26bb 02b3 21ba 5ee7 31bc 4c26 513b
00000020: 89a3 253b 464b 5f39 4f2c 3e3d 108b 1f39
00000030: 2781 ddba 960b ed37 1b9d f037 cff2 57bb
00000040: 0734 24bc cb6c 51ba efb2 d73a 1a3b 8eb9
00000050: dc30 3e3a 2273 133d 9aba 603b 4b36 563b
00000060: d751 7cb9 7611 4bbb d683 92bc d777 88bb
00000070: c025 f3ba d892 46bb 3de1 5337 cfa8 8239
00000080: 1fc3 433a 23c9 2a3b d493 f2b8 4a4a f839
00000090: 2585 e03a a964 0939 252a a237 bfab 4b3c
000000a0: a78f 06b9 469a cfbc f862 633a 71eb 93b8
000000b0: 627f 22bb 7a7f 6938 2070 b9bb 8cca 143d
000000c0: f65b 88bb 84d9 89b9
0.0017467061 0.00059089245 -0.0008040189 -0.0003180531 -0.0025400599 -0.0006168337 -0.010858385 0.0031913696
0.0025274477 0.00021294979 0.046428975 0.00015215226 -0.0016899452 2.8257997e-05 2.8683387e-05 -0.0032951122
-0.01002217 -0.00079889287 0.0016456525 -0.00027128385 0.00072552054 0.03599847 0.003429091 0.003268617
-0.0002406308 -0.003098575 -0.01788513 -0.0041646766 -0.0018550679 -0.0030299928 1.2629022e-05 0.00024921304
0.0007467735 0.0026059828 -0.00011566994 0.00047357596 0.0017129524 0.00013102837 1.933153e-05 0.012431084
-0.0001283275 -0.025342118 0.000867411 -7.0533606e-05 -0.0024795164 5.567025e-05 -0.0056591183 0.036325976
-0.004161353 -0.00026292738

exp_avg_sq f4 [50, 1]
00000000: 09fa 5d3d 746a b13d 8f29 bc3a 7ef6 883d
00000010: bb83 493d a919 bb3a 410c d23d 1556 323d
00000020: cb04 943d dcd0 383d 2df9 ca3d 4dc6 2b3c
00000030: 8f2e 273d 9a01 723b 6011 8a3b 7b0e 1f3a
00000040: 3ff7 d03d 5f10 f03b bfa1 153d a6f1 7939
00000050: ce9a 003d 65e5 723d 11f9 d33d ce8e d63d
00000060: 2d5d 673a 9115 8b3d 245b cf3c de01 3b39
00000070: a89b 5f3d f71c 3d38 3f73 523c 23af 863d
00000080: bf36 193d 43c0 da3d 27f6 a635 9c41 123c
00000090: ba6f d13c 3dac 9a3c 742a b83a f8f0 af3d
000000a0: ec3a 8e3d 5a71 903d a4bc da3b c9a9 803a
000000b0: d7a2 913d 19be e43c 1cff 0234 67b4 be3d
000000c0: 73cf a43c 459c f037
0.05419353 0.086628824 0.0014355647 0.0668764 0.049197894 0.0014274615 0.102562435 0.043539125
0.07227477 0.04512106 0.09910808 0.01048429 0.040815886 0.0036927224 0.004213497 0.00060675264
0.102034084 0.0073261703 0.036531206 0.00023836512 0.031397633 0.0593008 0.1035024 0.104764566
0.0008825835 0.06791223 0.025312014 0.00017834405 0.054591805 4.5088087e-05 0.01284486 0.065763734
0.037405726 0.10681202 1.2439604e-06 0.008926775 0.02556597 0.018880958 0.0014050738 0.08590883
0.06944832 0.0705287 0.0066753197 0.0009816225 0.07111137 0.027922677 1.2200002e-07 0.09311753
0.02011845 2.8682998e-05

exp_avg f4 [50, 1]
00000000: c6dd f03e 719e 1d3f 06b6 fa3c e4c1 07bf
00000010: 6f01 e4be 5e57 06bd bd8a 2c3f 4eb9 d53e
00000020: 65af 0dbf 0699 d93e d3a6 28bf 8e76 2e3e
00000030: eb31 cebe a17c a03d ba23 b23d 2200 143c
00000040: e0d0 2b3f f24c 09be 91cc bebe 7b4c ec3a
00000050: f938 af3e 4e7f fcbe faa0 2d3f 9ab6 2ebf
00000060: a4af 98bc 6b18 09bf 2549 983e 7af9 98ba
00000070: de33 f3be b17f d7b8 c6e5 473e 8f12 073f
00000080: cd20 c23e 27a7 303f 167d 70b6 6154 1b3e
00000090: a01b 9a3e fc5b 803e 6298 013d 3284 1cbf
000000a0: 037b 0a3f 34b9 0b3f 26ba 003e fa32 a83c
000000b0: b9b8 0c3f 9fb5 a33e ff3a b0b6 b5f9 22bf
000000c0: 254e 85be 4013 c2b7
0.470442 0.6156989 0.030604374 -0.5303023 -0.44532344 -0.032798164 0.673992 0.4174294
-0.55345756 0.4249956 -0.65879554 0.17037413 -0.4027246 0.07836271 0.086982206 0.009033235
0.6711559 -0.13408259 -0.37265447 0.0018028164 0.34223154 -0.49315876 0.67823756 -0.6824738
-0.01863844 -0.53552884 0.29743305 -0.001167103 -0.4750051 -0.00010275783 0.19521245 0.52762693
0.3791565 0.69005054 -3.5835596e-06 0.15168907 0.300992 0.25070179 0.031639464 -0.61139214
0.5409395 0.5457947 0.1257101 0.02053212 0.54969364 0.31974503 -5.252077e-06 -0.6366227
-0.26036182 -2.3135566e-05

exp_avg_sq f4 [50, 1]
00000000: c40f fd3b cbbd 993d b04d 8e3d 905c 433d
00000010: c272 783c 5021 5e3b 6286 483d 2e86 a63d
00000020: 5a2a 973c 691c 403d f5dc 8b3b 8b23 d83b
00000030: 6012 723c 26d5 713b d68e 7c3a a58e 1f3d
00000040: 26ae a93c 36c1 fc3c 7725 2936 84ef b33c
00000050: 24e0 1c38 c604 373a af0e 7e3b 4d80 9e3c
00000060: 8395 313d 3e20 e73c ef7e 183c 6bc3 953d
00000070: 27e2 063d d381 083c 66fb 223b d808 433a
00000080: 62d1 833a 50ee 7a3d a9f0 013b 586e c43d
00000090: b769 943d e555 183d f069 7f3d b7d1 5f3c
000000a0: 7255 003b 387a 383b ad3b 4f3d ea87 3a3d
000000b0: d37e e63d 0dc9 ef3a bbdd a13d f105 4d3d
000000c0: c63c 833c 6a57 893c
0.0077228267 0.07506903 0.069484115 0.047695696 0.015164079 0.0033894368 0.048956282 0.081310615
0.018452812 0.046902094 0.0042682835 0.006596034 0.014774889 0.0036900728 0.00096343213 0.038954396
0.020712923 0.030853849 2.520477e-06 0.021964796 3.7402046e-05 0.00069816073 0.0038766076 0.019348288
0.043355476 0.028213616 0.009307607 0.07312664 0.03293052 0.008331734 0.0024869083 0.00074399775
0.0010056908 0.06126243 0.0019827283 0.09591359 0.07246726 0.03719129 0.06235689 0.01366084
0.001958218 0.002814902 0.05059402 0.045539774 0.112546586 0.0018294171 0.0790362 0.050054494
0.01602019 0.016765315

exp_avg f4 [50, 1]
00000000: 2173 0dbe 002a 11bf cae4 0a3f fd2b e03e
00000010: 7135 5d3e c4c1 923d 88c1 e2be 6684 17bf
00000020: 728e 7dbe 79f6 dd3e 1bf6 b6bd 18c3 fc3d
00000030: aaf5 5abe ed9b a0bd d8d6 a93c 01bd c6be
00000040: b96f 88be b96d adbe 0342 f136 01cc 8c3e
00000050: 3d90 ac36 576d 5ebc 7a57 a53d 9c08 823e
00000060: 3a9d d43e 1f33 a43e 3da0 213e 7a90 0e3f
00000070: 6879 b4be c884 13be 206b 62bd 5e1c 6dbc
00000080: e1c9 afbc d32d 01bf 9810 353d 0c83 263f
00000090: a7f8 0d3f 84d3 c13e 79b5 023f a89e 4fbe
000000a0: c1be 36bd 3f7f 7e3d 0d51 e7be 7ba1 d9be
000000b0: 82d6 353f f0f3 2abd fcf4 143f 3d46 e6be
000000c0: 57ad 663e 4457 6dbe
-0.1381345 -0.5670471 0.54255354 0.4378356 0.21602418 0.07165864 -0.44288278 -0.591864
-0.2476137 0.43352106 -0.0893366 0.12341899 -0.21382776 -0.078422405 0.020732328 -0.38816074
-0.26647738 -0.33872774 7.1900445e-06 0.27499393 5.142791e-06 -0.013575873 0.080733255 0.25397193
0.41526204 0.32070252 0.15783782 0.55689204 -0.35248876 -0.14406121 -0.055277944 -0.014472095
-0.021458568 -0.5046055 0.04420528 0.6504371 0.5545754 0.37856686 0.51058155 -0.20275366
-0.04461551 0.06213307 -0.45179024 -0.42506012 0.7103044 -0.041736543 0.58186316 -0.44975463
0.22527061 -0.2317782

exp_avg_sq f4 [1, 50]
00000000: ff2e 5039 ed00 c437 7658 4237 8ddc 9c39
00000010: c7d8 1a3a a5dd 1e3a da63 893a abf8 033a
00000020: 3407 4039 7640 e937 8b17 003a ae24 0139
00000030: cd1f 6f37 f6bd 4137 f98a 5839 1738 7139
00000040: ce9e 9c39 8d9b be37 6a32 b339 0a81 9037
00000050: 52d7 9238 083b 3939 8fa3 8339 f8ca 4636
00000060: 414c d939 0805 2f36 734a 183a 3feb a13a
00000070: dc82 9d39 c674 263a 8e35 0539 169d 9037
00000080: 51ec d536 f1a4 013a a94a 7a39 35f2 0438
00000090: 0977 5c3a c135 1538 8f50 7737 e229 2239
000000a0: abe1 b937 521e 6836 0bb4 c639 e08b 9839
000000b0: 430e 8f35 f1f3 fe37 93e3 4d3a 5572 f037
000000c0: 1314 4436 32ea b738
0.00019853933 2.3365452e-05 1.15838975e-05 0.00029918962 0.0005906936 0.0006060249 0.0010482029 0.0005034308
0.0001831323 2.7805781e-05 0.00048863207 0.00012316063 1.4252914e-05 1.1547925e-05 0.00020651137 0.00023004446
0.00029872957 2.2722199e-05 0.00034179102 1.7226226e-05 7.001929e-05 0.00017664966 0.00025108128 2.9622443e-06
0.0004144628 2.607996e-06 0.00058094336 0.0012353434 0.0003004287 0.0006349798 0.00012703819 1.7239287e-05
6.3754055e-06 0.00049455377 0.00023869671 3.1696825e-05 0.00084100716 3.557443e-05 1.4741104e-05 0.00015465126
2.2158803e-05 3.4588343e-06 0.00037899645 0.00029095914 1.0658481e-06 3.0392754e-05 0.00078540406 2.866347e-05
2.921796e-06 8.769742e-05

exp_avg f4 [1, 50]
00000000: e4d5 b73a 6e07 cb39 3299 8bb9 ad8e 66bb
00000010: f006 053c 328f 1a3c e3c4 9abc f84f 7cbb
00000020: 2d55 ec3a 7688 f7b9 f36c 143c ea21 64ba
00000030: 4d57 9c38 eeb3 9538 552c b9ba b3f6 bcb9
00000040: 1457 963b c80d 7a39 0a28 69bb 16e7 25b9
00000050: 5a1b 40b8 ff99 513a 5643 643a 6599 b4b8
00000060: f5f9 02bc e1f8 fcb8 faff 31bc 5341 c13c
00000070: 3885 823b caa9 10bc 3b13 8e39 3a6e 6eb7
00000080: 73b3 6f37 7a0f c4bb a217 4f3a 56f7 22ba
00000090: 55fd 773c 2d81 15ba 9dc0 c6b9 5ae0 0e3a
000000a0: 0fc0 a338 7a7b a0b8 2318 ddba c5ce 10b8
000000b0: 127d a8b8 14bb d538 802c 453c 0ff0 6e38
000000c0: c731 bab8 30f7 0d3a
0.0014025536 0.00038724713 -0.00026626285 -0.0035180256 0.00811933 0.0094335545 -0.018892711 -0.0038499814
0.0018030755 -0.00047213183 0.009059179 -0.00087025634 7.454921e-05 7.138388e-05 -0.0014127592 -0.0003604196
0.0045880172 0.00023846992 -0.0035576844 -0.00015821712 -4.580184e-05 0.00079956645 0.00087075436 -8.611641e-05
-0.007994165 -0.00012062654 -0.010864252 0.02359072 0.003983166 -0.008829543 0.00027098678 -1.421157e-05
1.4287291e-05 -0.0059832903 0.0007899945 -0.00062166655 0.015136083 -0.00057031476 -0.0003790901 0.0005450301
7.8082194e-05 -7.652394e-05 -0.0016868155 -3.4524845e-05 -8.0341604e-05 0.000101914775 0.012034535 5.6967194e-05
-8.878443e-05 0.0005415557

exp_avg_sq f4 [50]
00000000: 12b1 e33d edd3 533c 5c5e 5b3d feb6 a33d
00000010: 6629 893b 5b93 f639 2bd0 b43c c3bd a73c
00000020: 8045 043c 7768 8238 debe 443d b464 3837
00000030: a288 b23d c348 d33d 66d9 d33c b14f 8d3c
00000040: ed1a 1537 d5e0 3e3d 794e e63d cd4b bb3b
00000050: 757a 5c3b bac6 1f3d 0912 a13d a8cd 553c
00000060: 2855 713c 19af d03d 60c4 ae3d 06c8 233c
00000070: 0137 e43b 0840 3c3d dca2 023b 647e bc3a
00000080: 3fd0 c63d c06d 773d b885 783b 5351 ef3d
00000090: 6951 873c 74c9 783b ba68 e33d 8e96 f63c
000000a0: 603c 843d bca8 023a e8f6 c73b 57fe a13c
000000b0: a084 953d 9fa8 5e3d d15d 923d 7def 293b
000000c0: fb84 753a 1057 3b38
0.11117758 0.012928945 0.053556785 0.07993887 0.0041858433 0.00047030565 0.022071918 0.020476228
0.008073211 6.218341e-05 0.048033588 1.0990701e-05 0.08717467 0.103166126 0.0258605 0.017249914
8.887361e-06 0.046601135 0.11245436 0.0057158233 0.0033642326 0.03900788 0.07864768 0.013049521
0.0147297755 0.10189647 0.08533549 0.00999642 0.006964565 0.045959502 0.0019933498 0.0014380929
0.097076885 0.0604074 0.00379215 0.11685433 0.016518312 0.0037961872 0.111039594 0.030101087
0.06456828 0.000498425 0.0061024316 0.019774599 0.07300687 0.05436003 0.071468 0.00259301
0.0009365824 4.4665358e-05

exp_avg f4 [50]
00000000: cb85 34bf 31ea 473e 9558 efbe c73e 16bf
00000010: 65f1 b1bd 6638 e4bb b666 8dbe 64e5 86be
00000020: d85f 11be e950 0738 c4cc e03e 7153 79b6
00000030: 9fcd 1dbf ee40 2dbf ad8b 9bbe b0a4 713e
00000040: 2544 ad35 fa03 dd3e 9f94 353f 849b e13d
00000050: c7f8 94bd 24c6 c6be 54f2 143f 96ff 493e
00000060: b672 5a3e a909 2cbf 94d9 1bbf 7709 29be
00000070: 6eca 02be b66a dbbe 8427 3abd 8036 06bd
00000080: ae77 27bf 664f 003f 1a06 a4bd 7d6d 39bf
00000090: edc9 6b3e db1c a4bd cf8a 34bf a6d3 aa3e
000000a0: 265c 053f ba12 fc3b 5957 ed3d 4ea5 83be
000000b0: 3bc1 0ebf fa9f f1be 941f 0dbf b406 6cbd
000000c0: 1169 9fbc c0e7 7ab7
-0.7051665 0.1952293 -0.4674727 -0.5868954 -0.086886205 -0.006964731 -0.27617425 -0.26346886
-0.14196718 3.226186e-05 0.43906224 -3.715246e-06 -0.6164188 -0.676772 -0.30380002 0.2359798
1.2909337e-06 0.43167096 0.709299 0.110159904 -0.07274013 -0.38823044 0.58182263 0.19726405
0.21332821 -0.6720224 -0.6087887 -0.16507517 -0.12772533 -0.4285485 -0.04544784 -0.03276682
-0.6541699 0.5012115 -0.08008976 -0.7243269 0.23026247 -0.08013316 -0.70524305 0.333646
0.5209373 0.007692662 0.11588926 -0.25712055 -0.55763596 -0.47192365 -0.5512631 -0.05762358
-0.01945928 -1.495512e-05

exp_avg_sq f4 [1, 50]
00000000: 86a3 0638 d2b1 653a f9ce 8739 8b0a 0639
00000010: 6c7f 4739 d343 d939 6d71 a43a 216b d839
00000020: 4d54 e137 a43e 1a39 23a8 3739 7543 833a
00000030: 6363 3039 cfbf 2038 c6f7 1539 b632 9839
00000040: 26c9 f938 6acd 7738 c863 d339 8b91 b93a
00000050: 04ce 393a 73c2 1e39 955f a139 1a12 8539
00000060: 336f af39 18fb 2f3a 768c f338 362a 8f39
00000070: 8a2a 6c38 8819 853a e006 673a caf0 0a3b
00000080: 7f1b 1238 e7ad 9f38 bd41 4339 95e5 fb38
00000090: 7868 6b39 e7a3 9c37 1112 3c3a bf33 9f39
000000a0: 50e6 5939 c16f e137 8b63 b539 1e5b 403a
000000b0: e9a2 023a a4e1 173a a503 0138 2796 9539
000000c0: 6e0f fd37 c856 923a
3.2100383e-05 0.0008762154 0.00025903413 0.00012783163 0.00019025587 0.00041439998 0.001254601 0.00041278548
2.6861346e-05 0.0001470992 0.00017514876 0.0010014611 0.00016821692 3.832561e-05 0.0001430205 0.00029029482
0.00011910712 5.9080696e-05 0.000403194 0.0014157755 0.00070878887 0.00015140492 0.00030779527 0.00025381224
0.0003346145 0.0006713136 0.00011613306 0.00027306535 5.6306402e-05 0.0010154704 0.0008812975 0.002120065
3.483472e-05 7.614103e-05 0.00018621139 0.00012011376 0.00022450264 1.8672972e-05 0.0007174323 0.00030365397
0.00020780531 2.687413e-05 0.00034597176 0.0007337796 0.0004983382 0.0005793816 3.075939e-05 0.00028531367
3.0167135e-05 0.0011164779

exp_avg f4 [1, 50]
00000000: 14de 5db9 c9f8 633c ebbe 0abb c9d7 daba
00000010: 3020 b5b8 3db8 d2ba 5a19 6e3c c2e1 8d3b
00000020: f299 02b9 3e36 3ebb c2aa b1ba 7649 7a3c
00000030: 6d6d e639 be3c 0638 e882 0cbb c656 2dba
00000040: 2407 b8ba 3bb5 05ba e700 ef3a 0539 7f3c
00000050: 5d02 8f3b 66fd 24bb 1de2 b7bb e8ab 9fbb
00000060: 40c2 5ebb cf8a 4fbc eb35 c3ba a150 b73a
00000070: eeb0 1dba ae9c 923c fc15 083c 71aa 083d
00000080: 9537 00b9 8752 37ba 6229 d9ba c3a0 bcba
00000090: 0f20 30bb 5837 09b8 1845 883b 29dc 06bc
000000a0: ee68 28bb 0975 c2b8 7195 27bb ff4d 74bc
000000b0: 710c 06bc 6881 173c dfa5 1f38 fafa 80bb
000000c0: f05e 88b8 285a 3f3c
-0.00021158933 0.0139142955 -0.0021170925 -0.0016696389 -8.636748e-05 -0.0016076636 0.0145324115 0.004329891
-0.00012455115 -0.002902403 -0.0013554918 0.0152763035 0.00043950547 3.200466e-05 -0.002144033 -0.00066123565
-0.0014040214 -0.0005100553 0.0018234522 0.015577559 0.0043642954 -0.0025175451 -0.0056116716 -0.0048727877
-0.0033990294 -0.012667372 -0.0014893388 0.0013985821 -0.0006015439 0.017896976 0.008306023 0.03336567
-0.00012227737 -0.00069931935 -0.0016568119 -0.0014391172 -0.0026874577 -3.271489e-05 0.0041586272 -0.008231201
-0.0025697309 -9.2724404e-05 -0.0025571252 -0.014911174 -0.008181677 0.009247161 3.8063034e-05 -0.0039361687
-6.502669e-05 0.01167921

exp_avg_sq f4 [50, 1]
00000000: 7b52 b93b 4800 ae3a b699 033d 840e f23c
00000010: b69b dc3c eaae d23b 2973 b33d 9824 e13c
00000020: d8e1 2a38 03df ab3d fd90 8f3c e757 883a
00000030: 7e3c d43d 055d 1c3a 270c a93a 7008 223d
00000040: 4817 7a3d 68c5 b03d d6b5 443c 6170 d13d
00000050: 93c4 e13d 1a1f 143d a6ef aa3d 84de a83a
00000060: d620 d53b 1789 bb39 9990 e53d 3619 a33c
00000070: 31bf 183d cd6f 333c f313 dc3d c873 293b
00000080: b4cc 3f3c a0ca d83d bf07 df3d 4276 833d
00000090: a8b4 d53d d0f0 e33c 3c8f ec3c 8f5f 9a3b
000000a0: 436f 053d 8688 9538 2fc4 183c a725 273d
000000b0: c9bf 583d 56b8 4e3c 8696 393d 957f 863d
000000c0: 6205 3f3d 08c1 663d
0.0056555844 0.001327523 0.032129012 0.029547937 0.026929718 0.006429543 0.087621994 0.02748327
4.0741492e-05 0.083921455 0.01752519 0.0010402174 0.103631005 0.0005964789 0.0012897298 0.039558828
0.06105736 0.08631402 0.012006244 0.10226513 0.11023822 0.036162473 0.083464906 0.0012883698
0.0065041585 0.0003576956 0.112092204 0.019909482 0.03729171 0.010951948 0.107459925 0.0025856365
0.01170652 0.10585523 0.10890149 0.0641904 0.10434848 0.02782479 0.028876893 0.0047110985
0.03257681 7.130303e-05 0.009324118 0.040807392 0.052917276 0.012617191 0.045309566 0.06567303
0.046635993 0.056336433

exp_avg f4 [50, 1]
00000000: a9cb df3d c11c dc3c 6215 b1be bb20 a7be
00000010: 95eb a03e dc78 f33d c9a3 1d3f 7785 a1be
00000020: db3f c939 4817 1bbf a2a2 723e 1123 b03c
00000030: d827 2dbf b559 2c3c 1e4a efbc a5c3 c73e
00000040: 4522 013f 1151 1dbf 6ad7 3dbe 1bed 2b3f
00000050: fc1e 33bf df18 be3e 1872 1abf 05c8 f0bc
00000060: 13a2 f6bd 61b2 ce3b 9cf5 34bf 948f 82be
00000070: 133d c13e 6c71 31be 1d77 313f 3136 5fbd
00000080: 950d 3e3e 0053 2fbf 2dc3 323f fd7d 04bf
00000090: 9d26 2e3f e187 a4be 074d a8be 1270 be3d
000000a0: 3358 b4be 219c 01ba 62c0 22be d3e5 cabe
000000b0: 8bcd eebe 1733 42be 193f d8be c4be 06bf
000000c0: 74b3 ddbe 027e f63e
0.10927517 0.02686918 -0.34586626 -0.3264216 0.31429735 0.118882865 0.6157804 -0.31547138
0.00038385284 -0.605824 0.23694852 0.021501096 -0.6763892 0.010519435 -0.029210147 0.39016452
0.50442916 -0.6145182 -0.18539205 0.6715867 -0.69969153 0.3712835 -0.60330343 -0.029392252
-0.12042632 0.0063078855 -0.7068727 -0.25500166 0.37741908 -0.17328423 0.6932238 -0.05449504
0.18559869 -0.6848602 0.69829065 -0.5175474 0.6802767 -0.32134917 -0.32871267 0.092987195
-0.3522354 -0.00049442245 -0.158937 -0.39628467 -0.46641192 -0.18964802 -0.4223564 -0.52634835
-0.43300974 0.4814301

exp_avg_sq f4 [1, 50]
00000000: 424b a637 47b8 2739 fec1 083a 760f 233b
00000010: 79f0 173a 2ed3 7938 7c41 ba39 09f9 183a
00000020: f2d4 943a e2e1 1c39 a36b 8438 ad2b f637
00000030: 9fc9 fd3a cf2c 0539 1f0f ec39 54f0 c238
00000040: 83cc 9238 e8e3 c039 ec9e 643a 3ef8 be39
00000050: 645c 6e3b a0f1 f938 0302 8539 10c3 003a
00000060: 1242 de39 29f3 dd3a 3c7f 013b 1e90 de3a
00000070: 97ee 5238 60de d93a f1af 8839 d69d e03a
00000080: c344 0c3a 21ea f63a 049b 7b39 639e 553a
00000090: 4e0a 5838 4f27 3d39 659a 2139 e5e7 bc38
000000a0: b207 0039 26b2 6439 8ed9 2339 971c 023b
000000b0: acdb 9539 043c 053b f9a6 ff3a 7331 ca39
000000c0: dac3 5f39 d12c f138
1.9823787e-05 0.0001599501 0.00052168954 0.0024881042 0.0005796026 5.9562903e-05 0.00035525474 0.0005835449
0.0011354967 0.00014961467 6.3142994e-05 2.9345823e-05 0.0019362456 0.00012700561 0.00045024694 9.2954055e-05
6.999916e-05 0.00036790897 0.0008721191 0.0003642458 0.0036370987 0.000119182514 0.00025369236 0.0004911879
0.00042392366 0.0016933429 0.0019759675 0.0016980206 5.0290106e-05 0.0016622059 0.00026071028 0.0017136883
0.00053508225 0.0018838086 0.00023994973 0.00081489066 5.150801e-05 0.00018039088 0.00015411673 9.007732e-05
0.00012209898 0.0002181014 0.00015625937 0.0019853467 0.00028583163 0.0020329962 0.0019504718 0.00038565285
0.00021339898 0.00011500123

exp_avg f4 [1, 50]
00000000: 71aa 81b9 c33a 053b dced 793b 90b6 eebc
00000010: 442d 13bc 0355 5db9 f2d2 b63b 10fe 0b3c
00000020: a5d3 88bc eeb9 573b b4ab 8db9 ec53 3c38
00000030: 1d43 c6bc df86 fc39 0d18 003c 791a 253a
00000040: 9704 87b7 48b5 3b3c dc21 6d3b 1c8f af3b
00000050: ef37 56bd 8179 763a 23f2 e33b dd7a 1e3c
00000060: 2208 1d3b ed96 ddbc 7f86 a6bc 1580 bdbc
00000070: 7125 eeb8 b558 24bc 5f70 5bba 227b 8bbc
00000080: 4334 7dbb 078a 91bc e549 563a 4901 18b9
00000090: 7db2 8139 8b95 b33b a338 833b d28b 0636
000000a0: 4a98 4c3b 8790 b93b 4b2a 8b3b 31f0 c6bc
000000b0: 4bc9 0b3c 67af a6bc 50ca 83bc b9de 113c
000000c0: 8db4 9b3b 0a13 563a
-0.00024731786 0.0020329214 0.003813616 -0.029139787 -0.00898296 -0.00021107872 0.005579346 0.00854446
-0.016702482 0.003291722 -0.00027021545 4.490085e-05 -0.024201924 0.00048165672 0.007818234 0.0006298195
-1.6095391e-05 0.011456795 0.0036183512 0.005357636 -0.052299436 0.0009402261 0.006956355 0.009672848
0.0023961146 -0.027049506 -0.020327805 -0.023132363 -0.000113556984 -0.010030915 -0.00083709316 -0.017026488
-0.0038635887 -0.017766012 0.00081744633 -0.00014496328 0.00024737781 0.0054804734 0.0040045544 2.0048942e-06
0.00312187 0.005662981 0.004246985 -0.024284454 0.008531879 -0.02034731 -0.016087681 0.008903199
0.004751748 0.0008166289

exp_avg_sq f4 [50]
00000000: cefc b13d 557b 6b3c 53ef 513d 1eb7 cd3b
00000010: e779 d03c 6bcf ba3a 7303 9c35 1e73 b93b
00000020: 5621 2a3d 63e6 ef3d fb02 8d3a 2612 843d
00000030: 0c7f 763d 96b1 6b3d 8c38 953c c7e7 293d
00000040: fa1c 983d deb3 843d a0a8 423c e1cc e23c
00000050: 1959 f03a e6f1 5a3d fb8d c13b 7641 d63d
00000060: b872 d93d cff0 d03b 1b1a e637 d4aa b33d
00000070: 6bbe 473a 23f3 eb3d ec3e bd3c 6581 843b
00000080: 2dbd 913c e26b 9839 900e 973c 8926 173d
00000090: e4cc 683d a73d 693c 1a50 993d aec5 3336
000000a0: c559 913d 9e65 603d f66c 073d 88fc 873c
000000b0: 2699 2438 0f70 5e3c 1d3e 9c3d 61d5 6c34
000000c0: 68d0 963d dce2 cd3c
0.08690797 0.014372666 0.051253628 0.006277933 0.025448753 0.0014252489 1.162391e-06 0.005659475
0.041535698 0.11713865 0.0010758335 0.06448774 0.060179755 0.057542406 0.01821544 0.041480806
0.07427402 0.064796194 0.011881024 0.027685585 0.00183371 0.05345335 0.005906818 0.104617044
0.10617584 0.006376363 2.7430293e-05 0.08772817 0.0007619622 0.11520984 0.023101293 0.0040437453
0.017790401 0.00029072078 0.018439561 0.036901984 0.056836024 0.0142358905 0.07485981 2.6788143e-06
0.070972 0.05478441 0.033062898 0.016599908 3.9243278e-05 0.013576522 0.07629035 2.205684e-07
0.07363969 0.025132589

exp_avg f4 [50]
00000000: fa7d 1dbf 20db 573e f369 e9be 6dc9 f13d
00000010: 5456 9abe af13 02bd 2a61 5634 02d7 e03d
00000020: aafe cebe 2f7e 39bf 14b5 bcbc 510d 05bf
00000030: 072a 00bf bf8e f9be 007a 7a3e f8a8 ce3e
00000040: b83f 10bf 488a 053f 7c9e 3d3e b72b a2be
00000050: db3a 2cbd 4a28 ef3e 8710 e6bd 79a4 2e3f
00000060: 2b1b 30bf 8676 f33d 42f7 fcb6 209c 1ebf
00000070: 08dc 71bc 6b20 383f b75c 91be 67a0 ab3d
00000080: f7f1 753e d626 223b 0fae 7b3e 07b8 c0be
00000090: 62c3 f7be d06b 54be 2672 10bf 7d99 1835
000000a0: a83c 0cbf 9c03 f33e 842e b4be f8af 6cbe
000000b0: af18 5838 39c4 4e3e 7069 123f 7cb7 2736
000000c0: ae51 0fbf 7dce 983e
-0.6152035 0.21079683 -0.45588645 0.11805997 -0.30143988 -0.031757053 1.9965651e-07 0.109785095
-0.40428668 -0.72458166 -0.023035564 -0.51973444 -0.5006413 -0.4874172 0.24460602 0.40363288
-0.5634723 0.52164125 0.18517488 -0.31673977 -0.042048316 0.46710426 -0.11233621 0.68219715
-0.68791455 0.11887841 -7.53897e-06 -0.6195698 -0.014761932 0.71924466 -0.28391048 0.08380204
0.24018084 0.0024742386 0.24578117 -0.37640402 -0.48391253 -0.20744252 -0.56424177 5.684777e-07
-0.54780054 0.4746369 -0.3519174 -0.23114002 5.15214e-05 0.2019204 0.57192135 2.4991741e-06
-0.5598401 0.29845038

exp_avg_sq f4 [50]
00000000: 5f02 d63d b35b 433d 206e ee39 212c c53d
00000010: 0963 f13c db33 1e3d 9f3f 0e3c 1df0 123c
00000020: abe6 2d3c 13ca d13a 8b72 3432 3d3d 2436
00000030: 7af7 8d3d 4611 3f3c d2a3 de3d b245 413d
00000040: a06a df3c 423a 3339 f8f1 743d 1515 d23d
00000050: 9588 9e3d 546c 4d3c d0ca ef3d 09b1 fb3c
00000060: baee 7f3d b65d a33b 01bc 133d 0082 853b
00000070: 4a0e 173d 2541 e33a e861 b038 0220 103d
00000080: 67ad 3737 c12a ea3d ef2c 823c 800e 9c3d
00000090: 7a6c e03c d105 903c 0cc8 cf3d d0b6 4936
000000a0: cd27 353a 8f9a c83b 2719 ab3a 716d 3c3d
000000b0: 66d0 ff36 d8e8 093c d786 e33d 349f a63d
000000c0: 1215 cb3c 399d 843b
0.10449671 0.047694873 0.00045476947 0.096275575 0.029466169 0.038623672 0.008682161 0.00896838
0.010614078 0.0016005657 1.0503423e-08 2.447355e-06 0.06931968 0.011661833 0.1087109 0.047185607
0.027272522 0.00017092473 0.059801072 0.10257927 0.07740895 0.0125380345 0.11708605 0.030724065
0.062483527 0.0049855364 0.036067966 0.004074335 0.03687886 0.001733814 8.4105704e-05 0.035186775
1.0948023e-05 0.11433936 0.015890567 0.07619953 0.027395476 0.017580898 0.10145578 3.0057745e-06
0.0006910533 0.0061219404 0.0013053761 0.04600281 7.623853e-06 0.008417331 0.11109703 0.08135834
0.02479032 0.0040470627

exp_avg f4 [50]
00000000: 7474 2ebf 56ed df3e 4d4a d43b f6a4 263f
00000010: ee70 a8be d1f0 c5be 6a87 19be 1d68 1c3e
00000020: 10e2 2f3e 4d7e 14bd c84b 39b3 91b7 b3b4
00000030: 7fb1 0abf a152 3b3e 2659 32bf 74a0 debe
00000040: f6c5 a03e 09a9 023a f910 ffbe 13b3 2c3f
00000050: 839c 13bf e199 443e 74ce 39bf b7bd ac3e
00000060: 38c2 02bf 03d8 cbbd 67f9 bd3e 5919 adbd
00000070: 9e6c c0be 22bc 203d 45d4 bd37 0754 bb3e
00000080: 0882 9bb5 337e 37bf 0d73 65be 4f4e 12bf
00000090: 907b a13e 1cd6 74be 86a8 2bbf d440 9f34
000000a0: c7e9 52bc 790e eebd 44e3 ec3c 4741 db3e
000000b0: 317a 70b6 a1c3 15be b882 34bf b3c8 17bf
000000c0: 07a7 973e 7ccd ac3d
-0.68146443 0.4373576 0.006478584 0.6509546 -0.3289866 -0.3866029 -0.14993063 0.15274091
0.1717608 -0.036253262 -4.314259e-08 -3.347491e-07 -0.5417709 0.18293239 -0.6966728 -0.4348179
0.31401032 0.00049842946 -0.49817637 0.67460746 -0.5766069 0.19199325 -0.7258065 0.3373849
-0.51077604 -0.0995331 0.3710434 -0.084521 -0.37582868 0.039241917 2.2629401e-05 0.36587545
-1.1586244e-06 -0.7167694 -0.2240717 -0.5715074 0.31539583 -0.23909801 -0.6705402 2.9663227e-07
-0.01287312 -0.11623854 0.028916962 0.4282324 -3.5833912e-06 -0.14625408 -0.7051196 -0.5929062
0.2961962 0.084376305

exp_avg_sq f4 [50, 1]
00000000: 928e 0f3a 585b 0c3d 1406 963d b775 123d
00000010: 1fe3 113c 75e5 aa3b d6d5 ec3d 0441 8b3c
00000020: 42ae 8b3b a1a3 1c3d e776 013c 439b 113a
00000030: cb5b 293d d088 a93d af1d 983c 5ca2 263b
00000040: 1f6e 1434 a9e6 a13c 587f c63d 75cc 823d
00000050: d44f c63b ddec bd3d 9c71 253d dbbe 6c3d
00000060: bc9f 213b 327d 703d d10d f13c 74a7 bb3c
00000070: b952 5539 cf51 eb39 e7b1 983b b858 023d
00000080: eff0 eb3a 70b0 433c 8415 2f39 b0aa 7a3c
00000090: 0248 e33c be2d 8d3d 3fee e53d 1221 723d
000000a0: 02dc c13d 7503 173d d6f4 843a 0966 9f3d
000000b0: f540 b93c f39f 723d afc9 723c bc19 b73d
000000c0: 0949 283d 68e0 893c
0.0005476262 0.0342668 0.07325378 0.035756793 0.008904248 0.0052153417 0.115642235 0.016998775
0.0042627165 0.038241986 0.007901884 0.0005554447 0.041347306 0.08278048 0.018568842 0.0025426364
1.3823636e-07 0.019763308 0.09692258 0.06386653 0.0060519967 0.09273694 0.04039155 0.0577992
0.002466186 0.058713146 0.029425533 0.022906996 0.0002034408 0.00044883645 0.0046598795 0.03182289
0.0018000881 0.011943921 0.00016697316 0.015299484 0.027744297 0.0689349 0.112270825 0.05911357
0.09465791 0.03686853 0.0010143768 0.077831335 0.022613982 0.05923457 0.014818593 0.08940455
0.041085277 0.016830638

exp_avg f4 [50, 1]
00000000: e915 0f3c 3039 b93e 2ddf 0e3f c34f bdbe
00000010: 767f 1c3e 8ce5 d1bd 7953 38bf 55e6 703e
00000020: 5886 b33d 0b3e c5be 3264 0f3e 008a 273c
00000030: b25e ce3e b733 193f 3cce 7dbe 5145 6a3d
00000040: 0954 d9b5 5288 833e 2996 273f 3724 04bf
00000050: dec5 e9bd 0695 23bf 0269 cbbe 9c5c fabe
00000060: 7dac 61bd b8b3 fb3e c881 a8be 00f6 903e
00000070: a743 583a 576c ef3b 52a5 bebd 1b80 afbe
00000080: a06a 253d 69d3 3d3e 685c 01ba 8f4d 61be
00000090: 00b2 a13e 8d40 0a3f 6563 35bf 8e1d febe
000000a0: 8fed 243f 8164 c03e 1c72 afbc 19bc 133f
000000b0: af86 8e3e 9e45 fe3e eb70 5b3e 0c0c 20bf
000000c0: cd0b cd3e beaa 6cbe
0.008733251 0.36176443 0.5580929 -0.36974916 0.15282997 -0.10248861 -0.7200237 0.23525365
0.087658584 -0.38523898 0.14003065 0.010225773 0.40306622 0.59844536 -0.24785703 0.05719501
-1.6192217e-06 0.25689942 0.654635 -0.5161776 -0.11414693 -0.63899267 -0.39728552 -0.4889878
-0.05509614 0.49160552 -0.32911515 0.28312683 0.0008249827 0.0073066163 -0.09308876 -0.34277424
0.04038489 0.18537678 -0.0004934729 -0.22002243 0.31581116 0.54004747 -0.7085479 -0.49631923
0.64424986 0.37576678 -0.021416716 0.5770889 0.2783713 0.4966249 0.21429794 -0.6251838
0.40048066 -0.23112008

exp_avg_sq f4 [50]
00000000: eab7 7a39 e7e4 a13d d051 7b3d 0784 4334
00000010: f7a9 5b3d 73c4 ee3d ea7b a73b 018c 3e3c
00000020: 6086 073d 6636 7f3d 38f4 9a3d f2dc e43b
00000030: 0114 8b3d 0e8b b23d be53 423d 70e7 173b
00000040: e019 c43c d5cb 083d 8319 633c 6550 bf3b
00000050: 8b95 113c dd1e 003c ecce ef3d 9d31 063d
00000060: 319c 153d 635f 263d 89a5 8638 c352 2e3d
00000070: fe41 eb3b 6db6 c23b dafc 973d 2e60 c73d
00000080: 7457 983b 2ed1 783b 2b49 8139 16fe 123d
00000090: 2a0a 193d c315 213d 9d1b a93d 52ec c63d
000000a0: 47e6 503d c2e2 113b 0131 1f39 8643 fe3c
000000b0: 9127 f03d 92c4 973d 83cb d939 45ee 6c3d
000000c0: 13fd a53d fb39 e83a
0.00023910371 0.07904988 0.06135732 1.8208821e-07 0.053628888 0.116585635 0.0051112073 0.011630059
0.033087134 0.062307738 0.07566112 0.0069843465 0.06790925 0.08717929 0.047443144 0.002317872
0.02393812 0.033397514 0.013861063 0.005838441 0.0088857515 0.007819858 0.11709389 0.03276216
0.03652591 0.04061831 6.420451e-05 0.042559396 0.0071794977 0.005942157 0.074212745 0.09735142
0.004649097 0.0037966478 0.00024659312 0.035886846 0.03736321 0.039327394 0.0825722 0.09713043
0.05100086 0.0022260402 0.00015181677 0.031038057 0.11726297 0.0741054 0.00041541093 0.05784442
0.08104911 0.0017717475

exp_avg f4 [50]
00000000: cda3 c93a d569 153f 6f79 013f a0d0 c6b5
00000010: dd89 ef3e a55d 393f bbe4 d1bd d471 3b3e
00000020: 7261 b4be 9d8e 023f 1c85 11bf ed1b 03be
00000030: 1e18 09bf 12c6 1dbf 8b3f df3e 0942 563d
00000040: d200 943e b788 b5be 75d2 51be 0184 e53d
00000050: 66a9 1b3e a65e 0dbe 9acc 393f c2e3 b33e
00000060: 9378 bfbe 01e1 cb3e e98f 28b8 995e d1be
00000070: a65c 06be 514e e8bd 4b22 10bf 3bc9 273f
00000080: de0d c1bd 635b a43d de45 db3a 388f bd3e
00000090: ed1b c23e fbf5 c7be 720e 19bf 00ca 273f
000000a0: 46a1 e83e d4d1 51bd 1c57 9339 a2d0 ad3e
000000b0: c818 3abf 8e02 103f b57c b83b e1d5 f9be
000000c0: d776 17bf 8294 243d
0.00153839 0.5836461 0.5057592 -1.4812867e-06 0.4678487 0.72408515 -0.10248705 0.1830514
-0.35230595 0.5099886 -0.56843734 -0.12803622 -0.53552425 -0.61630356 0.43603167 0.05230907
0.28906876 -0.35455868 -0.20490439 0.11206818 0.15201339 -0.13805637 0.7257782 0.35134703
-0.37396678 0.39820102 -4.0188348e-05 -0.40892485 -0.1312128 -0.11343063 -0.56302327 0.6554143
-0.09426473 0.08025243 0.0016729196 0.3702333 0.3791193 -0.39054856 -0.59787667 0.655426
0.45435542 -0.0512255 0.00028102926 0.33948237 -0.72694063 0.562539 0.0056301006 -0.4879599
-0.5916571 0.04018069
