experiments/rotation/checkpoints/checkpoints_weight_decay_mse/checkpoint_dim-2_ntrain-17_weightdecay-0.1_seed-1683best.pkl (torch_old, 13838 bytes, 36 tensors)

ffs.0.0.weight f4 [50, 1]
00000000: 9882 423f fc77 9f3d 7d32 c2bd c1a8 0dbf
00000010: 002f ce3d 90b7 a5ba 8d17 86be 66ea f3be
00000020: 9948 3c3f a429 e0ba c6d8 07bc 71a0 dfbc
00000030: 0ed9 a03e 86bf 5ebb 6e1e 01bf 9475 fe3e
00000040: 3705 98be b644 5a3d 8421 f6bd 1715 813e
00000050: 6310 3bbf 9a5b 143f a190 9fbd 8cc6 703e
00000060: dc50 03bf c7a3 43bf 7822 743e 5ac2 3ebf
00000070: 2da3 29bf 1e38 a7ba 3864 453e 2aa7 d43e
00000080: b85c edbe 9776 cf3e f17a 26bf dcac 143f
00000090: 9a58 853e f76e 64ba f4e4 47bd 421e c3be
000000a0: 5ca3 bd3e dfad 83bd 0e60 473f 1a81 c33e
000000b0: 3b26 713e b68d 5abe 02f2 a8be 3f8c 3bbf
000000c0: 68ee 433e 32f5 d3be
0.7598052 0.07786557 -0.09482286 -0.55335623 0.10067558 -0.0012643207 -0.26189843 -0.4763977
0.73548275 -0.0017102254 -0.008291429 -0.027298184 0.314156 -0.0033988669 -0.50437057 0.4969908
-0.2969148 0.053288184 -0.12018111 0.25211403 -0.7307188 0.5795227 -0.07791258 0.2351324
-0.51295257 -0.7642178 0.23841274 -0.74515307 -0.6626461 -0.0012757813 0.19276512 0.41533786
-0.463598 0.40520164 -0.65031344 0.5807626 0.2604416 -0.0008714045 -0.04880233 -0.38109022
0.37038696 -0.06429648 0.7788094 0.38184434 0.2354974 -0.21343121 -0.32997137 -0.73260874
0.19133914 -0.41398007

ffs.0.0.bias f4 [50]
00000000: 5813 ebbe f4a1 4ebf f93f 9abd 663c c53a
00000010: f0c2 c5be 21b5 8abe 8d5b 2d3f b27b d63a
00000020: 8832 43be e5fb 253f 8ce2 88b7 9c46 ed3e
00000030: 5485 2a3f 552f 07be d0e3 e33d c9d9 813b
00000040: 7d85 b1ba 746d 12bf 9333 083e 9f6e a4be
00000050: 48bb f0bb 2f0f 29bf a5ac 0dbe bf69 9f3a
00000060: 5596 d9bb 4f2b b7be 4775 4a3e 6d95 063e
00000070: daef 903e 983a 22be 811e e63d 8638 0b3f
00000080: 8e50 64ba 9489 483f ca24 23bf 0e01 f539
00000090: 4b97 c8be c50d e8be 83d6 7abd 4fbf 093f
000000a0: a112 9a3e e899 46bf c93b 1b3c 1da2 3bbf
000000b0: 3d91 e43e 94ca dabe 4b84 4c3d 3db5 f739
000000c0: 4e3a 2cbf 34f2 e239
-0.45913196 -0.8071587 -0.07531733 0.0015047907 -0.38625288 -0.27091315 0.6771782 0.0016363768
-0.19062245 0.64837486 -1.6317957e-05 0.46342933 0.6660969 -0.1320165 0.11127436 0.0039627296
-0.0013543811 -0.5719826 0.13300924 -0.32115647 -0.0073465444 -0.66038793 -0.1383539 0.0012162252
-0.0066402354 -0.3577523 0.197713 0.13142939 0.28307992 -0.15842664 0.11236287 0.5438312
-0.00087095133 0.7833493 -0.6372801 0.00046730827 -0.39177927 -0.45323005 -0.06123973 0.5380754
0.30092338 -0.7757859 0.009474703 -0.7329424 0.44642058 -0.4273268 0.049930852 0.00047246544
-0.67276466 0.00043286534

ffs.0.2.weight f4 [1, 50]
00000000: 5ccd 00bd 348e 913b 8263 51bc f9da f83b
00000010: 3bc6 623b 07b4 38bc 3eb1 d03c 7e45 47bb
00000020: 47ea 6abc 1e77 b3bc b8ad 48bb 3458 1ebd
00000030: 59ac 823d 5b2d f1bc 974d c1ba e123 143d
00000040: b15c 9dbc 30ab 253b de2f 81bc e3cd 773b
00000050: a9ca d2bc 034d 95bd d110 26bc 35bb cc3c
00000060: 23d6 cbbb d8bc d9bd 18c4 f63c f0ac 123d
00000070: 41c0 903d bfbe 41bc 4edc 973c 0a83 ce3d
00000080: 33d1 4dbc 8213 c83d bb20 17be de25 853b
00000090: 6bce c53a 6ea4 18bc a371 99bb 447d 903b
000000a0: 392e 643d 000a c7bb cb17 193d ae83 fa3a
000000b0: e539 12bb bad9 46bb 435d 1cbd c0f9 7339
000000c0: bfdb 24bb ec4a 253b
-0.031445846 0.0044420008 -0.012780072 0.007594463 0.0034603018 -0.011273391 0.02547514 -0.003040641
-0.014338083 -0.021907385 -0.0030621123 -0.038658336 0.06380529 -0.029440572 -0.0014747855 0.03616703
-0.019209238 0.0025279038 -0.015769895 0.0037811927 -0.025731402 -0.072900794 -0.010135845 0.024991611
-0.0062205954 -0.10631722 0.030122802 0.035809457 0.070679195 -0.011825263 0.018537667 0.100835875
-0.012562084 0.09769346 -0.1475858 0.004063352 0.0015091425 -0.009316547 -0.004682736 0.004409464
0.055708144 -0.00607419 0.037376206 0.001911273 -0.002231234 -0.0030342177 -0.03817488 0.00023267325
-0.0025155393 0.002522166

ffs.1.0.weight f4 [50, 1]
00000000: c9f6 46bf 9d9c b53e 0dd6 2b3f 68cd 36bf
00000010: b225 953e 6a8c 5a3e e8cd 23bf 418d 2bbf
00000020: ebff f33e 86e5 0dbe 1999 cabe f86f d93e
00000030: df9b 13bf 7ee9 ad3d 338a 8bbe 441b 303f
00000040: 3fcd f6be 7a49 ce3d b3da 733e 0855 45bc
00000050: e9e1 053d 5442 8dbe e95e c8bc bc3f cdbe
00000060: d311 61be dddb 183f 2db9 9c3c 5163 0cbe
00000070: ba43 c5be 7b1f 3f3f 5ed4 4b3f aa2d 71be
00000080: 0871 123d a6a2 e4bc 989b 66be 1896 66bd
00000090: a6ed 3e3f a3ca 05bd 3822 94be 7256 62be
000000a0: 2b12 423f 08fc 15bf 112b 1c3f 0d04 cebe
000000b0: a869 ecbe 3b85 96be 4775 e53b f26a 283f
000000c0: 2760 4c3f bbe3 723e
-0.77720314 0.3547105 0.6712349 -0.71407175 0.29130322 0.21342626 -0.63986063 -0.6701241
0.47656187 -0.13857087 -0.3956993 0.42468238 -0.57659715 0.08491801 -0.27253875 0.68791604
-0.48203465 0.10072608 0.23813896 -0.012044199 0.032686148 -0.27589667 -0.02445932 -0.40087688
-0.21979456 0.59710485 0.019131267 -0.13709761 -0.38528234 0.7465741 0.7962092 -0.23552576
0.035752326 -0.027909588 -0.22520292 -0.056295484 0.7458137 -0.032663953 -0.28932357 -0.22103289
0.7580897 -0.58587694 0.61003214 -0.40237466 -0.4617436 -0.29398522 0.007002506 0.65788186
0.79834217 0.23719685

ffs.1.0.bias f4 [50]
00000000: 0c40 bdbe d62b 46bf 46ea 1d3f 2299 113f
00000010: a4ea 20be 87d4 b53e 6ed2 343e 7cc2 08bf
00000020: 9d98 cabe 133a 99bc 1990 2d39 30d6 453f
00000030: 6a87 613e 7953 98b7 70b6 fe3e ba86 80be
00000040: 00bc 48bf 3f93 393b 6546 3c3f 3e81 403f
00000050: 451f 52bd 736f 8bbd 98c8 73bd 75c1 0cbf
00000060: 3860 5d3d 4116 01bf 46db 0f3e 14ae ccbe
00000070: 0360 1238 72c6 123f 7b32 c43d 5455 343f
00000080: be72 013e 218a 13bf 22d7 ef39 e30e 9e3a
00000090: cacf 13bf ac75 b13e d023 31bc f7dd e2be
000000a0: 61d5 1f3f bb62 afbd 3c4b 85be 24f1 ae3e
000000b0: ade6 1d3f 7fe4 383e 0d94 45bf d307 033f
000000c0: 6dd7 5ebd 3254 583d
-0.36962926 -0.7741064 0.616856 0.5687429 -0.15714508 0.35513708 0.17658398 -0.5342176
-0.3956956 -0.01870445 0.00016552246 0.7727995 0.22024313 -1.8158682e-05 0.49748564 -0.25102788
-0.78411865 0.0028316525 0.73544914 0.7519721 -0.051299352 -0.068083666 -0.059517473 -0.5498269
0.05404684 -0.5042458 0.1404849 -0.3997656 3.489853e-05 0.57334054 0.09579941 0.704427
0.12641427 -0.57632643 0.0004574592 0.001205888 -0.57738936 0.3466009 -0.010811761 -0.4430997
0.62434965 -0.08563753 -0.26033962 0.3416835 0.6168011 0.18055914 -0.7717903 0.51183814
-0.054404665 0.05281467

ffs.1.2.weight f4 [1, 50]
00000000: 15cc 513e 3631 3cbd 9d54 45be f8e9 9a3d
00000010: 7143 44bd f94e 88bd f4ac 4d3d d115 2f3e
00000020: 61c3 2fbe c7b6 163e b661 263e 4b73 88bd
00000030: 2952 9b3d da18 32bb 5bb6 1d3d 0a79 43be
00000040: e012 8ebc b70d 06bd e1ea f4bb bf08 b23d
00000050: cb44 67bd 919c ce3c 189b 893d ec0d 253e
00000060: 286d 76bc c8ae b6bc 29da 29bd 9191 c43d
00000070: 8494 013d 8cf4 5abe 4a60 1dbd bd15 b63d
00000080: 379f 8a3d 8f63 813d df60 793d 9593 de3d
00000090: c5e2 95bc 256a a63d 6e23 64ba 1864 053e
000000a0: e446 d5bd a3df b23d 7367 1dbd 296a 2b3e
000000b0: a7b6 9a3c 9be8 0cbd 1e87 10ba dd4c 41be
000000c0: d0d6 bbbc 98a9 b6bd
0.20488007 -0.04594537 -0.19270559 0.07564157 -0.04791588 -0.06655688 0.05021377 0.17098166
-0.17164375 0.14718162 0.16248211 -0.066626154 0.0758403 -0.0027175457 0.038503986 -0.19089141
-0.017342985 -0.032727923 -0.007474289 0.086930744 -0.05646209 0.025221141 0.06719035 0.16118592
-0.015040673 -0.02230014 -0.04146782 0.09598077 0.031635776 -0.2138235 -0.038421907 0.08890865
0.06768649 0.063178174 0.0608834 0.10867993 -0.018296609 0.08125714 -0.0008702789 0.13026464
-0.10413912 0.087340616 -0.038428735 0.16739716 0.018885924 -0.034401517 -0.0005513298 -0.18876977
-0.022929579 -0.08919066

ffs.2.0.weight f4 [50, 1]
00000000: a17c 03bf 5a1d 693d dd4a cebe 5b58 88bd
00000010: 2fd5 96bd f114 543e 7b5f 423e b605 aebe
00000020: 5a0a 523d a265 173f 47a9 7fbe ee32 143e
00000030: 6a5c f4bd 789d 4cbf d34e 19be 8277 94bc
00000040: 5a59 213f 1022 89bd d9d9 403f 61f4 37bf
00000050: afcc 30be 235e 11be a85e 183f 0f52 513a
00000060: 07ce 11bf 8aa5 23be 6095 e43c 6264 f73d
00000070: 3524 3ebd f5d6 4cbf 6acb 31bf 43f2 23bf
00000080: 9356 cc3e f814 1c3f 5248 9b3e 2ab2 e33e
00000090: 08bd f5be 325d 6dbe db62 37bf efd9 35bf
000000a0: 0428 e8be 269e e7bd ce64 203e aed2 883b
000000b0: e4b0 b4be 9270 e2bb 204f 07bf 6855 133f
000000c0: 35b8 743b 23f9 b5bc
-0.51362044 0.056912757 -0.4029149 -0.066574775 -0.0736488 0.20711114 0.18981735 -0.33988732
0.051279403 0.59139454 -0.24966918 0.14472553 -0.11931689 -0.7992778 -0.14971475 -0.018123392
0.63026965 -0.0669595 0.7533241 -0.7185727 -0.1726558 -0.14196067 0.59519434 0.0007984945
-0.56955 -0.15981117 0.027903259 0.120796934 -0.04642125 -0.800155 -0.6945101 -0.6404154
0.399098 0.60969496 0.30328614 0.44471866 -0.47995782 -0.23180082 -0.71635216 -0.71035665
-0.4534303 -0.11309461 0.15663454 0.0041755056 -0.35291207 -0.006910392 -0.5285511 0.57552195
0.0037341241 -0.022213524

ffs.2.0.bias f4 [50]
00000000: 1443 233f 721c 19bf 828b b8bb 7106 54bd
00000010: 4e8c e93e 8faf 6a3e 8fdf fa3e faf1 11bf
00000020: e447 d6be cb5f 383f 531a b43d e718 16bf
00000030: 49e2 3fbf 9c5c 6d3c 85a5 1d3f 6529 f2b8
00000040: d95a a1be 0193 23bf 1f8c 89be 01f9 ddbe
00000050: 8979 20bf 7d5e ccbe a734 333f 8365 843c
00000060: e19a 4fbc 5743 bf38 d00b 1b3f d12d 7e3a
00000070: 3d0a 2b3e 9910 9abe 1fbb 3e3e 351e b3ba
00000080: 6e4b 1d3f b56b babe ce55 cbb8 3d55 153f
00000090: a8a3 dc3e f441 13be 9ed0 20bb 8862 703c
000000a0: 07f8 263f 3dca a1bd 1062 8a3e 199e a5bc
000000b0: 1fc2 32bf bd63 2a3e 5ba9 d7be 450d 32bf
000000c0: 143d 8f3c 6cbd e9bd
0.6377423 -0.5980903 -0.005631865 -0.051763956 0.45614856 0.22918533 0.48998687 -0.5700985
-0.41851723 0.7202117 0.087940834 -0.5863175 -0.7495466 0.014487412 0.6158069 -0.000115471696
-0.31514624 -0.63896185 -0.26864716 -0.43354037 -0.6268545 -0.3991584 0.70002216 0.016161686
-0.012671203 9.120133e-05 0.605649 0.0009696158 0.16703124 -0.30090788 0.18626069 -0.0013665619
0.6144322 -0.364103 -9.695777e-05 0.5833319 0.4309361 -0.14380628 -0.0024538408 0.014671929
0.6522221 -0.07899902 0.2702794 -0.020216988 -0.69827455 0.1663961 -0.42121395 -0.695515
0.017485179 -0.114130825

ffs.2.2.weight f4 [1, 50]
00000000: f0a3 bebd 34df 153d 521f 58bc 3af6 c53c
00000010: 9641 d9bc 1d30 393d 8479 0c3d 2de3 ca3b
00000020: 760c 1bbd 9b77 833d d3f5 a2ba 2894 d6bc
00000030: cfbb 82bc 3eaf d6bd 7b97 373d b0f2 60bc
00000040: 1dba 033c e9c3 e73b 44f0 32bc 265f bd3c
00000050: 8160 2ebb 1df8 27bd af7c 403d 9311 503c
00000060: 304a 79bd f969 62bd 8538 3e3b d6eb f2bb
00000070: d79d 1d3d a692 6ebd 4021 e83a 3d00 1d3c
00000080: 4fd7 ae3d b82e 963d d383 b23b e56a 843d
00000090: f73a b0bd 8e23 dbbc 3463 cf3c e569 acbd
000000a0: 1d0c ce3c d7eb 18bb 7c7a 053d 595c 1c3d
000000b0: b422 3f3d f424 cf3c 387d 33bd 8794 203d
000000c0: c59f 673d 515c d7bc
-0.09308612 0.036589816 -0.013191061 0.024165262 -0.026520532 0.0452119 0.034295574 0.0061916322
-0.03785368 0.06419297 -0.001243288 -0.026193693 -0.015958695 -0.104826435 0.044822197 -0.013729736
0.008039978 0.007072915 -0.010921542 0.02311666 -0.0026607814 -0.041008104 0.046993908 0.0126995025
-0.060861766 -0.055276845 0.0029025387 -0.0074133677 0.038480606 -0.058245324 0.0017710105 0.009582576
0.085371606 0.0733313 0.0054478436 0.06465701 -0.08604997 -0.026750352 0.025315858 -0.08418635
0.02515226 -0.002333393 0.032587513 0.038174007 0.046663955 0.025286175 -0.04382059 0.039204147
0.056548852 -0.026289137

ffs.3.0.weight f4 [50, 1]
00000000: ebd5 15bf f566 453f 994e cf3e a3bb 2e3f
00000010: a952 d83e 4354 99be 09e0 4d3e 0089 6dbe
00000020: c001 06bf 9cf3 483f 7014 cc3e 8ebb 083e
00000030: ed0e fe3d 5865 8ab9 2efc cabe 568f 343f
00000040: bcfd 1cbf b053 b9ba b17f 2d3f 91c1 463f
00000050: 2878 513d 7476 183e 8f43 8c3e aaec d6be
00000060: 7dac 4b3e 2462 e73e f045 9e3e fddf 60be
00000070: e57c 41bf 2ddb 2b3f 0d70 1e3f 391b ac3e
00000080: 405d e13e 6689 a13e d534 833e dcb1 483e
00000090: d4e3 98bc 5fbf afbe 1cb1 7c3e 9f9d 84b9
000000a0: 131e a6ba 0ca4 273f bdd1 85bb 1a4e 313a
000000b0: 83a1 2d3e 108d 21be 287e f73c e98d 0ebc
000000c0: d503 29bf d22d 76be
-0.5852954 0.77110225 0.40489653 0.6825506 0.42250565 -0.299471 0.20104994 -0.23196793
-0.5234642 0.7849672 0.39859343 0.13352796 0.124051906 -0.00026396918 -0.39645523 0.70531213
-0.6132467 -0.0014139321 0.67772967 0.7763911 0.05113998 0.14888936 0.27395293 -0.41977435
0.19890018 0.45192063 0.30912733 -0.21960445 -0.755812 0.6713131 0.61889726 0.3361452
0.44016457 0.3155014 0.25626245 0.19599098 -0.018663324 -0.34325692 0.24676937 -0.0002529444
-0.0012673758 0.6548469 -0.0040838406 0.0006763652 0.16956143 -0.15776467 0.030211523 -0.008700826
-0.6602147 -0.24040917

ffs.3.0.bias f4 [50]
00000000: 7669 dcbe a354 12bf 7baf 3f3f a863 f236
00000010: 4e24 223f 752b 193f 96d5 463f 4af5 043f
00000020: d8d0 e6bd aa2f 2e3f e6d8 a9b9 ef02 213e
00000030: 00f5 3cbf 1bdb 22be 85b9 dbba 2210 ebbc
00000040: 952c 363f 933a b9bb 1b2d 1f3e 55e1 213f
00000050: 060c 27bf 534e 4ebe 16ee be3d aa1f 71be
00000060: c4ac 29bf a908 d43e 99ad 37b8 8f12 eab9
00000070: 281b 023e fd41 3fbf 0f77 b9be 7e04 20bf
00000080: b82b 203f e8ff 32bd 8a14 173f d4a2 e8be
00000090: 93b4 213f 2982 babe d987 5cbe 4fe2 06bf
000000a0: 901c b53e 7385 d83d 5a9e 71be f6b8 aabd
000000b0: 4000 023f 22d0 41bf 8459 313f 6877 56bd
000000c0: 3168 b53e 4618 493f
-0.4304921 -0.57160395 0.74877137 7.2237635e-06 0.63336647 0.59831935 0.77669656 0.5193678
-0.112703025 0.6804148 -0.00032395794 0.15723775 -0.7381134 -0.15903895 -0.0016763663 -0.028694216
0.71161777 -0.0056527345 0.1554455 0.63234454 -0.6525272 -0.20147066 0.09322755 -0.23547235
-0.66279244 0.41412857 -4.3792275e-05 -0.00044645785 0.12705672 -0.74710065 -0.36223647 -0.62506855
0.6256671 -0.043701082 0.59015715 -0.45436728 0.6316616 -0.3642743 -0.21536197 -0.5268907
0.35373354 0.105723284 -0.23595563 -0.0833606 0.5078163 -0.7570821 0.69277215 -0.05235997
0.35431054 0.78552663

ffs.3.2.weight f4 [1, 50]
00000000: 0f5f a0bd f7ee 04bd 6e61 a93c 7a65 7339
00000010: f876 873d 18ed 93ba 9492 e43c ad80 9abb
00000020: 3c03 14bd 57d5 943d bf2d 85bb 2cc4 993c
00000030: 680f 95ba 6f80 9bbb 4ccb dfbc c0f9 e63a
00000040: 0b7c 5a3d 4976 96bc d6a7 473d 0119 853d
00000050: 7afc 1d3c e604 563c 80c3 7db8 9432 3cbd
00000060: 6514 abbb f6f3 f43c 3697 ac38 76a4 a5bc
00000070: b6ba 813b 50a6 9fbd d676 0abd f432 dfbb
00000080: 6ac4 793c 5907 5c3c 9586 153d b4cd 293c
00000090: b9b5 0abc 11c5 45bd cfd2 a63b e72f 7dbb
000000a0: 907e 68bc fc02 103d 5ed4 a2bb 9844 c4bb
000000b0: 8fdc f73b 0c76 c53b d28e 0dbb ef14 c1bb
000000c0: 4f4f f83c f917 1ebc
-0.07830631 -0.032454457 0.02067634 0.00023212089 0.06614488 -0.0011285869 0.027901925 -0.0047150464
-0.036135897 0.07267254 -0.0040642912 0.0187703 -0.0011372389 -0.004745535 -0.02731862 0.0017622039
0.053340953 -0.01836695 0.048744045 0.0649891 0.009642715 0.013062691 -6.0501974e-05 -0.045946673
-0.005220937 0.029901486 8.229764e-05 -0.020220023 0.0039590253 -0.077953935 -0.033804737 -0.006811494
0.015244583 0.013429486 0.0365053 0.010363985 -0.008466178 -0.04828364 0.0050910483 -0.0038633288
-0.014190331 0.035159096 -0.004969164 -0.0059896223 0.0075641344 0.006026035 -0.002160002 -0.005892388
0.030311255 -0.00964927

exp_avg_sq f4 [50]
00000000: ddc8 133a a2c7 c13a d698 2c38 24d0 8333
00000010: 94f4 d739 4012 7539 7b31 8d3a 73ae 0736
00000020: e882 1839 2449 833a e7d8 5b35 6475 133a
00000030: 9086 883a 2979 ad38 d5dc 9038 407d a936
00000040: 8435 9e35 6544 523a fcf6 b238 185a a139
00000050: 43f1 b335 8bc9 853a fe63 b838 d4f0 af35
00000060: 973e 0137 473c a639 f7d9 1739 fada 9e38
00000070: 8861 6a39 dfa6 de38 a3d3 8d38 4b0c 393a
00000080: 8a9a e535 49fa b43a ad35 6c3a ef00 2833
00000090: a89b df39 372f 0d3a 97b3 0a38 c167 3f3a
000000a0: c91e 8d39 e864 b43a b5a3 fb33 00bb a43a
000000b0: 7c64 0b3a 4092 013a 7989 0238 a513 0b34
000000c0: 7cb6 8b3a 871a 9a33
0.0005637536 0.0014784227 4.1150335e-05 6.1380234e-08 0.0004119022 0.0002337182 0.0010772193 2.021811e-06
0.00014544616 0.0010016304 8.189949e-07 0.00056250975 0.0010416079 8.271851e-05 6.907588e-05 5.0511735e-06
1.1787492e-06 0.0008021056 8.533706e-05 0.00030775438 1.3406756e-06 0.0010207159 8.792429e-05 1.3108606e-06
7.703572e-06 0.00031706897 0.0001448168 7.574815e-05 0.00022352312 0.00010616867 6.762824e-05 0.0007059022
1.7106806e-06 0.0013807501 0.0009010684 3.9116397e-08 0.00042649847 0.00053857587 3.306902e-05 0.00073015323
0.00026916552 0.0013762983 1.17178764e-07 0.0012567937 0.00053174025 0.00049427524 3.1122447e-05 1.295253e-07
0.0010659243 7.176009e-08

exp_avg f4 [50]
00000000: 3f3c 3dbd 322d a7bd f462 04bc 7b7a 1b38
00000010: 4ba7 21bd de60 e4bc c755 8c3d e095 8639
00000020: e095 9fbc fb9f 863d a9b2 0db6 2e63 413d
00000030: 9fb9 893d 6322 63bc 33df 403c 03c4 30b9
00000040: f23b 08b8 f4e5 6dbd af31 653c 62ea 06bd
00000050: 881f 4db9 2654 87bd 61aa 6dbc dd70 1738
00000060: 1616 45ba 14b2 0bbd 2910 a73c e918 543c
00000070: 6909 e33c 6f81 87bc 3baa 413c d5f3 5e3d
00000080: 8e57 9238 992d a13d 51f7 7ebd b382 cdb7
00000090: 57ea 23bd b924 3dbd 9792 d9bb c1e3 5f3d
000000a0: 7976 f93c cbbc a0bd 5e7a 6e38 a701 98bd
000000b0: e467 3a3d da7d 32bd f170 bc3b cfaf 4738
000000c0: 7499 8bbd 4a0c ba37
-0.046200033 -0.08162917 -0.008080233 3.706895e-05 -0.039466184 -0.027878221 0.06852298 0.00025670137
-0.019480646 0.065734826 -2.1114631e-06 0.047213726 0.067248575 -0.013863179 0.011771965 -0.00016857688
-3.2480755e-05 -0.05808063 0.013988896 -0.03293837 -0.0001956207 -0.06607847 -0.0145059535 3.6106318e-05
-0.00075182447 -0.034105375 0.020393448 0.012945392 0.027714448 -0.016541211 0.011820371 0.054431755
6.978131e-05 0.07870025 -0.062247578 -2.4498766e-05 -0.040018406 -0.0461776 -0.0066397893 0.054660562
0.030452 -0.078485094 5.6857585e-05 -0.0742219 0.045509234 -0.043577053 0.0057507684 4.760903e-05
-0.06816378 2.217865e-05

exp_avg_sq f4 [50, 1]
00000000: 26f8 9e3a 1957 c139 efb4 6c3a f5e1 973a
00000010: 3e8d 8d39 98c5 0839 3a1b 7f3a 3e6d 723a
00000020: d410 f539 55ee 0c38 7fec a939 a6cb f639
00000030: a5bd 4d3a 6e3d 7038 21e2 7439 09b0 803a
00000040: ff5e 303a 3c2b 4338 b7dd 6139 ec88 aa37
00000050: 6606 ca36 1877 8439 5e2c 0134 a865 ac39
00000060: c8f3 5939 41cc 6d3a 9dde ef35 87ff 5c38
00000070: 26fe dc39 a96f 903a 4eb4 c13a fa4f 2239
00000080: 0e74 8338 a819 1436 5a28 2639 23af 1137
00000090: f9fd ad3a 7e81 1336 a269 9a39 4b1a e238
000000a0: dd39 a83a 66d8 503a e2ea 723a c6b9 b039
000000b0: 67bd 163a a82a ab39 f018 8736 248f 653a
000000c0: 55e5 c33a cdbf 1439
0.0012128397 0.0003687672 0.0009029647 0.0011587726 0.0002699885 0.0001304358 0.0009731535 0.0009247846
0.0004674258 3.3600565e-05 0.00032410395 0.00047072506 0.00078483886 5.727767e-05 0.00023353893 0.0009818088
0.00067280227 4.6531888e-05 0.00021540267 2.0329338e-05 6.020814e-06 0.00025265734 1.2030202e-07 0.00032882136
0.00020785548 0.0009071269 1.7871677e-06 5.2690066e-05 0.00042151025 0.0011019605 0.0014778466 0.00015479318
6.268184e-05 2.2068652e-06 0.00015846026 8.683451e-06 0.0013274542 2.1980081e-06 0.00029451872 0.00010781417
0.0012834627 0.0007966816 0.00092665676 0.00033707748 0.0005750269 0.00032647443 4.0262166e-06 0.00087569864
0.0014945666 0.00014185831

exp_avg f4 [50, 1]
00000000: ad80 98bd 9412 103d bae1 813d ed58 91bd
00000010: de22 e93c 1068 a23c 7cc0 82bd 5ae2 82bd
00000020: 5d0b 353d ea5f 19bc a73d 12bd ce9d 293d
00000030: 5fd0 68bd f9ad 123c 39ba dcbc 0be7 863d
00000040: ab3f 4bbd eb6c 1b3c eeb7 c73c ec58 e63a
00000050: c37f b73a a216 e2bc a9dc b0b8 45e9 13bd
00000060: 7499 bebc 0c85 763d 7005 113a 0928 35bc
00000070: ea9e 1dbd b61f 913d 6293 a33d f1d7 b2bc
00000080: a2f3 d43b 7d12 5cba 6a3d aebc 4301 f7ba
00000090: a70f 9a3d 3c64 19ba 471d f4bc 40a1 97bc
000000a0: 3492 983d 8f26 6bbd 154f 7a3d 75bc 15bd
000000b0: 56f8 3ebd 5d3b 00bd 73c5 5b3a ccb1 7e3d
000000c0: ffa4 a43d 92df af3c
-0.07446418 0.035173967 0.06341882 -0.07097039 0.028459009 0.019825011 -0.0638437 -0.063908294
0.04420029 -0.009361247 -0.035703328 0.04141026 -0.056839343 0.008952611 -0.026944267 0.06587037
-0.049621265 0.009486417 0.024379697 0.0017574108 0.0013999868 -0.027598683 -8.433435e-05 -0.036111135
-0.023266532 0.060185477 0.0005532121 -0.011056908 -0.03848163 0.070861265 0.079870954 -0.021831485
0.00649877 -0.0008395089 -0.021269519 -0.001884498 0.07522517 -0.0005851423 -0.029799117 -0.018509507
0.07449761 -0.05740982 0.061110575 -0.03655668 -0.04662355 -0.031306613 0.0008383609 0.06218128
0.08039283 0.021468911

exp_avg_sq f4 [1, 50]
00000000: a379 6038 82a9 eb35 34f6 0637 6835 5237
00000010: 349c c236 1dca 4837 e14c 8f37 e0e2 1837
00000020: 227a b037 796a cf37 ed21 1d37 ecd9 0438
00000030: a358 bb37 fa92 b237 a1cf 9537 5d7d 2937
00000040: cd7c 0437 c14e ae36 6fe8 7c37 bbf0 7e36
00000050: 5215 6d37 dc7c a037 7073 e636 0e82 d936
00000060: d1f3 2637 c6de 9a36 198c 5737 487c 8837
00000070: 090a 5437 d823 5d37 2c99 5937 534d 5537
00000080: 8b49 da36 1182 cf37 2af9 d236 b627 6437
00000090: 882e c436 de63 3337 0bf6 d636 e05c 1e38
000000a0: 0778 7737 823d 0936 dc05 6037 4c78 0638
000000b0: 23ee 2738 99a9 9837 09bf d337 a092 0337
000000c0: a475 0c36 5c05 4737
5.3519045e-05 1.7558198e-06 8.044346e-06 1.252941e-05 5.799835e-06 1.1967987e-05 1.7082728e-05 9.1127295e-06
2.1037707e-05 2.4725903e-05 9.365828e-06 3.1674208e-05 2.2333412e-05 2.1287695e-05 1.7858869e-05 1.0102373e-05
7.896871e-06 5.1947723e-06 1.5074488e-05 3.7989073e-06 1.4131265e-05 1.9131629e-05 6.867973e-06 6.4822443e-06
9.951139e-06 4.615492e-06 1.2847618e-05 1.6270336e-05 1.2638521e-05 1.3180972e-05 1.2969871e-05 1.2713793e-05
6.505468e-06 2.473689e-05 6.287494e-06 1.3599105e-05 5.846672e-06 1.0692484e-05 6.40634e-06 3.7756632e-05
1.4750293e-05 2.0450393e-06 1.3352805e-05 3.2060125e-05 4.0037685e-05 1.8198787e-05 2.5242118e-05 7.842347e-06
2.0930102e-06 1.1862572e-05

exp_avg f4 [1, 50]
00000000: ab76 b63b d72c 09b9 68be 87ba ae3d 433b
00000010: 096e 30ba f6a9 e4ba 505a 873a 8851 f83a
00000020: aa38 823a 092a 48bb 802e 52ba b850 96bb
00000030: 01fd 5fb5 be98 72bb 1045 1139 f156 633a
00000040: 1d45 d8b9 3008 00ba 11e7 b7ba 246b 0aba
00000050: 1f66 a9ba c904 df38 e193 61ba 05d3 c939
00000060: 4b3e da3a 9ba7 87ba 2837 dab7 ccb5 e73a
00000070: 3b50 583b 2fd8 eeba 35dc feb9 03f1 113b
00000080: 4deb 5d3a ad84 9839 cef9 aaba 77ee 2cbb
00000090: 5751 acb9 d379 c3ba 7212 16ba fe50 25bb
000000a0: 3820 8a39 69b9 97b9 eaf7 ec3a d195 6d3b
000000b0: 9cde 8fbb 5ef9 213b 0b88 35bb 2574 c33a
000000c0: 666a 0eba e62e 223b
0.0055683455 -0.00013082042 -0.0010356428 0.0029791403 -0.00067302637 -0.0017445672 0.0010326598 0.0018945197
0.00099351 -0.0030542633 -0.00080177933 -0.004587259 -8.344214e-07 -0.003701731 0.00013854005 0.0008672318
-0.00041250224 -0.00048840325 -0.0014030655 -0.00052802474 -0.0012924111 0.0001063436 -0.00086051045 0.0003849493
0.0016650645 -0.0010349633 -2.601331e-05 0.0017678081 0.0033006805 -0.0018222387 -0.00048610722 0.0022268898
0.00084655435 0.0002909055 -0.0013044418 -0.0026387253 -0.00032867 -0.0014913626 -0.00057247945 -0.0025225277
0.00026345416 -0.00028939106 0.0018079255 0.0036252628 -0.004390551 0.0024715285 -0.0027699496 0.0014911933
-0.0005432725 0.0024747192

exp_avg_sq f4 [50]
00000000: 21c7 fc39 a862 553a 0fc0 a93a 37a9 8f31
00000010: 3b3c 793a 52bf 633a 3388 b43a 6177 313a
00000020: c963 8c38 e932 8d3a 0803 9033 0f64 da38
00000030: 30d8 a43a 7584 e038 b071 2532 29d3 8337
00000040: ae44 983a abab bc36 fbc5 c238 85c2 783a
00000050: bbe1 843a f260 1f39 84d7 6538 7ba4 3f39
00000060: 57ff 873a bab5 f339 99b1 0534 a6c1 d134
00000070: 6ec4 a238 f541 a73a 17c6 c139 4980 773a
00000080: 34ca 773a 4ab1 d037 bd5e 5d3a 1930 0f3a
00000090: b56a 7a3a 6bb0 c239 dfab 2d39 15c2 363a
000000a0: 38ce bb39 9fd0 7638 90e8 4639 d1ab 4438
000000b0: 15bf 2b3a 89cc ac3a dd67 933a 98fe ec37
000000c0: 5e38 b539 601b b93a
0.00048213548 0.0008140006 0.0012950915 4.1810853e-09 0.0009507571 0.0008687872 0.0013773501 0.0006769803
6.694307e-05 0.0010772619 6.706074e-08 0.000104136874 0.0012576636 0.000107058244 9.630114e-09 1.5714746e-05
0.0011617148 5.6228214e-06 9.2875176e-05 0.0009489435 0.0010138074 0.00015199537 5.479857e-05 0.00018276453
0.001037578 0.0004648397 1.24512e-07 3.907018e-07 7.76135e-05 0.0012760746 0.00036959417 0.0009441418
0.0009452433 2.4878089e-05 0.0008444598 0.0005462184 0.0009552644 0.00037134005 0.00016562593 0.00069716695
0.00035821064 5.8845264e-05 0.00018969388 4.6890058e-05 0.0006551606 0.0013183515 0.0011246164 2.8251947e-05
0.00034565007 0.0014122538

exp_avg f4 [50]
00000000: 4263 30bd fa4d 6cbd 5e10 9b3d 5181 4ab6
00000010: edde 823d 48b3 783d 53e6 a03d 3356 583d
00000020: bb16 3dbc 0e24 8b3d 3405 1db7 7b77 863c
00000030: 2604 99bd 870a 88bc d28d 0bb6 51ff 55bb
00000040: 61b5 923d b2a0 3eba 8427 7e3c 487a 813d
00000050: e376 87bd 0234 abbc d291 223c 509a c4bc
00000060: ca8e 89bd 6249 2c3d e9dc cbb6 7ef5 deb6
00000070: b2a6 593c 8c85 99bd 1134 16bd 06cb 81bd
00000080: 15d2 813d a2b9 9fbb ac16 753d a3ae 3dbd
00000090: 462f 833d b9be 17bd b0b4 b6bc 8264 5bbd
000000a0: 3741 143d 7839 2f3c 6298 c7bc 0715 12bc
000000b0: 6d8a 533d 57e8 9cbd 26b8 8f3d 7b8c bbbb
000000c0: e1f5 123d 12c5 a23d
-0.04306341 -0.05769155 0.07571481 -3.0175618e-06 0.06390176 0.06071785 0.07856431 0.05281658
-0.011541064 0.06793986 -9.359141e-06 0.016414395 -0.074714944 -0.016606582 -2.0795164e-06 -0.00326534
0.071635015 -0.000727187 0.015512351 0.063221514 -0.06614473 -0.020898823 0.009922462 -0.023999363
-0.06716688 0.04206217 -6.0755888e-06 -6.6446946e-06 0.013284372 -0.07496175 -0.03667075 -0.06337552
0.06338898 -0.004874424 0.059836075 -0.046309125 0.06405501 -0.03704712 -0.022302955 -0.05356265
0.036195006 0.010694854 -0.024364654 -0.008916146 0.051645685 -0.07661503 0.070175454 -0.0057235337
0.03587902 0.079477444

exp_avg_sq f4 [50]
00000000: 44cb d039 15a3 b33a f616 793a 0615 523a
00000010: ce94 de38 521a c039 d0cf 0239 4702 413a
00000020: 97c6 e639 b5e4 6137 53ec 8035 0d5d b33a
00000030: a2ec 3439 92ee 1035 1beb 253a 7094 6139
00000040: 6711 b43a 346e 9536 7554 a23a b79f a83a
00000050: 326c da37 e4be 1938 1155 0d38 ebea 4b3a
00000060: c17f fb37 6ea4 283a fe37 c438 b721 ea39
00000070: 24a4 0535 d3c5 5b3a 14c5 6338 94a7 983a
00000080: 6b23 9c38 0839 583a b715 a135 90d2 c534
00000090: 419c 543a c02b b339 ffec ff36 c776 0c3a
000000a0: 766e 763a e261 4c38 1f2b 6739 d85d b439
000000b0: 64c0 6f3a ce34 0739 1662 b23a 4716 343a
000000c0: 4a1a f737 53ac fb37
0.00039824296 0.0013705218 0.00095020176 0.0008013997 0.00010613502 0.00036640704 0.00012475182 0.0007362705
0.0004401698 1.3464295e-05 9.605523e-07 0.0013684348 0.0001725429 5.3991346e-07 0.0006329284 0.0002151297
0.0013738096 4.4533754e-06 0.0012384789 0.0012864982 2.6038007e-05 3.6655823e-05 3.3696244e-05 0.0007778841
2.9981022e-05 0.00064331933 9.356438e-05 0.00044657078 4.9785217e-07 0.0008383665 5.430456e-05 0.0011646622
7.445257e-05 0.00082482444 1.2001755e-06 3.6847314e-07 0.0008110442 0.00034174137 7.627182e-06 0.00053582754
0.0009400615 4.872855e-05 0.0002204594 0.00034402194 0.0009145795 0.00012894275 0.0013609554 0.00068697747
2.9456936e-05 3.0001776e-05

exp_avg f4 [50]
00000000: 75a1 1bbd 94aa a0bd 435a 813d 85dd 6d3d
00000010: 9288 86bc db63 153d 125d 973c 6b23 60bd
00000020: 7445 27bd 8495 17bb 92d0 c336 81ad a03d
00000030: 61db bb3c ae8e aa35 168a 4f3d 2d3b d8bc
00000040: 1a48 a2bd c78b de39 1683 983d bbb7 9b3d
00000050: 0f42 b6bb 7f99 f1bb 0f11 d6bb 6fd0 66bd
00000060: 4149 c13b 455f 52bd d5ed 713c 4fe9 27bd
00000070: 02e9 edb4 82a5 703d af73 263c dd6a 923d
00000080: 7cd0 583c 0401 70bd 7d98 8c36 c70e 6737
00000090: 3561 70bd e313 113d 67fa abba fd33 3abd
000000a0: ee46 823d 90a9 15bc 8760 dcbc 9486 103d
000000b0: bc40 803d f4b2 993c 4eeb 9fbd 5212 573d
000000c0: c6a9 c3bb fc80 bf3b
-0.037995774 -0.07845035 0.06316044 0.058072586 -0.016422544 0.036472183 0.018476997 -0.054721277
-0.04083772 -0.002312989 5.8357336e-06 0.07845593 0.022931756 1.2707512e-06 0.0506688 -0.026395405
-0.079239085 0.00042447282 0.07446878 0.07603403 -0.005562074 -0.0073730345 -0.0065327953 -0.05635112
0.005898625 -0.051360387 0.014766176 -0.040993985 -4.4314226e-07 0.05875159 0.010159417 0.07149289
0.0132333 -0.05859472 4.190077e-06 1.3772114e-05 -0.058686454 0.035419356 -0.001312089 -0.045459736
0.06361185 -0.009134665 -0.026901497 0.035284594 0.06262347 0.01876209 -0.07808553 0.052507706
-0.0059711663 0.0058442336

exp_avg_sq f4 [50, 1]
00000000: 4277 b03a 9279 3838 4e72 5c38 6dae 443a
00000010: af8f 7238 f8f5 4335 da95 6239 b4b5 183a
00000020: 0edf a53a f67b 0c34 b76a d836 66e3 7f37
00000030: f03d 9039 6355 e535 e2f3 2a3a fc7b 273a
00000040: c852 8d39 3623 ec37 6531 9b38 d73d 5e39
00000050: 2c69 a33a eeae 503a 4902 2e38 1b34 4439
00000060: 9818 2e3a c965 ac3a eedf 4639 b525 a63a
00000070: e8f2 813a 25e4 2535 883a 1339 3281 d839
00000080: 3cb8 123a 96cc d039 6a5b 723a 09d7 563a
00000090: f1ce 6c39 1bfe 5634 5e7d d637 a12a db39
000000a0: 5eef c339 1ba8 1138 0f19 b83a 5cac e439
000000b0: c8b4 5239 d0d3 3639 afd7 aa39 1f11 a23a
000000c0: 9dc4 0e39 ea87 f139
0.0013463276 4.398224e-05 5.2558542e-05 0.0007502798 5.7831112e-05 7.300109e-07 0.00021608864 0.0005825416
0.0012654976 1.3083613e-07 6.449725e-06 1.525213e-05 0.00027511967 1.708668e-06 0.0006521327 0.00063890195
0.00026955293 2.8149789e-05 7.4001764e-05 0.00021194607 0.0012467257 0.0007960637 4.148696e-05 0.00018711427
0.0006641238 0.0013152893 0.00018966172 0.0012676032 0.0009914311 6.1799284e-07 0.00014040817 0.00041294988
0.0005596911 0.0003982528 0.0009245189 0.0008195495 0.00022583806 2.0022746e-07 2.5569167e-05 0.00041802696
0.0003737164 3.4727254e-05 0.0014045554 0.00043615967 0.00020094507 0.00017435779 0.00032585624 0.0012364722
0.0001361542 0.00046068366

exp_avg f4 [50, 1]
00000000: ec49 9c3d cdcc 083c 6d48 23bc b52d 66bd
00000010: 030c 2f3c 3913 24b8 85f5 d9bc 4dac 46bd
00000020: f026 983d 1c5d 6eb7 fa75 81ba a72b 39bb
00000030: 2b9a fa3c 00f6 fdb8 382a 52bd fe26 4f3d
00000040: 551e f9bc daad be3b 900b 4ebc 4af8 d43c
00000050: 68c1 97bd 9b4d 693d a339 07bc 0bbf c53c
00000060: e3ad 55bd 66bc 9cbd 84c8 c63c 74b5 99bd
00000070: de5c 87bd 9acb 15b8 5b8c a23c e7f9 233d
00000080: 5365 41bd ac3d 1d3d 1c69 80bd f782 713d
00000090: 59c0 db3c 7860 8db7 f7e9 adbb 3b4b 1fbd
000000a0: 0ddc 173d 15d0 e0bb 17c7 a13d 112b 203d
000000b0: 62d8 c73c 3ec5 b4bc dd3b 0abd 47dd 97bd
000000c0: e67d a23c 6412 2dbd
0.07631287 0.00834961 -0.009965998 -0.056195933 0.010684016 -3.911855e-05 -0.02660633 -0.048504163
0.07429302 -1.4207584e-05 -0.0009877079 -0.0028254779 0.030591091 -0.00012109801 -0.051309794 0.050574295
-0.030409971 0.0058190646 -0.012575999 0.0259973 -0.07409936 0.056958776 -0.008253488 0.024138948
-0.052167784 -0.07653122 0.024265535 -0.075053126 -0.0660951 -3.5713987e-05 0.019842317 0.040033247
-0.04721577 0.038388893 -0.06270048 0.05896279 0.026825117 -1.6853432e-05 -0.005307432 -0.038890105
0.03707509 -0.006860743 0.078993015 0.03910357 0.024395172 -0.022066709 -0.033748496 -0.07415252
0.019835424 -0.042253867

exp_avg_sq f4 [50]
00000000: 0b34 7e3a 7cb1 643a c644 c136 41f3 eb37
00000010: 4d88 0f3a ae49 3f39 1ea4 213a 4730 513a
00000020: 5f9c f539 362e a13a 4bdd 5138 0bcd 5a3a
00000030: 247d a93a 59c2 8536 f0a9 6e3a c913 e434
00000040: 55f3 9c39 848e 7f3a fa0b 7839 a2e3 ff39
00000050: 6f1d 773a c1b6 e439 6f50 983a 4bad 2e37
00000060: 7153 3d37 c75e 1934 28e4 683a 3feb 3f36
00000070: 9fb9 ee38 f0bd 9739 c69b 0f39 6804 4d35
00000080: 60d4 723a 0c86 c239 9311 ac32 cc70 5d3a
00000090: 2cd9 003a 8304 c538 33dc 7633 d51a c636
000000a0: e35f 843a 48b8 3838 0929 7539 887d 5337
000000b0: f642 943a 354f ee38 7c08 003a c033 943a
000000c0: 6e5a 3137 75ee 8e38
0.0009697086 0.0008723957 5.7598545e-06 2.8127457e-05 0.00054753275 0.00018242627 0.0006166118 0.0007979911
0.00046846547 0.0012297097 5.0035578e-05 0.0008346594 0.0012930972 3.986334e-06 0.0009104302 4.2482705e-07
0.00029935935 0.00097487145 0.00023655585 0.0004880699 0.0009426688 0.0004362371 0.0011620651 1.0411556e-05
1.1284706e-05 1.4283715e-07 0.00088840956 2.859815e-06 0.00011383299 0.0002894248 0.00013695573 7.6374863e-07
0.0009263214 0.00037102436 2.0031427e-08 0.0008447289 0.00049151736 9.3945324e-05 5.747661e-08 5.9039835e-06
0.0010099377 4.4040644e-05 0.00023380308 1.2605808e-05 0.001131146 0.00011363478 0.0004884077 0.0011306927
1.0571077e-05 6.815504e-05

exp_avg f4 [50]
00000000: d80b 843d 26b4 78bd 6fdd 4aba b0de b9bb
00000010: 136a 3e3d 3452 c23c 3955 4c3d c40b 6dbd
00000020: afcb 2ebd b65b 963d 00b4 193c e5ba 73bd
00000030: 015c 9bbd a0d5 043a eaca 7f3d ee0f 52b6
00000040: 8f4b 04bd d3b0 84bd 2272 e3bc 39fc 33bd
00000050: 8234 82bd caf7 26bd d9f4 913d 3342 f73a
00000060: 51c7 00bb de52 6436 c7b2 7b3d eca7 1e39
00000070: cb73 8e3c a653 01bd 1bd9 9e3c b652 93b8
00000080: dc59 803d fe0d 17bd 3634 8535 0cdc 733d
00000090: 3feb 323d 3756 77bc 62b3 cbb7 0123 6b3a
000000a0: 107d 873d 2cb9 0abc fef0 e33c bfde 1abb
000000b0: 498f 90bd 03fb 8d3c 9043 31bd 3521 90bd
000000c0: b70d 033b 7c32 45bc
0.064475715 -0.060718678 -0.00077386847 -0.0056722984 0.04648788 0.023720838 0.049885962 -0.05787255
-0.042674717 0.07341711 0.009381294 -0.05950441 -0.07585908 0.0005067233 0.062449373 -3.130171e-06
-0.03229862 -0.06479039 -0.027764384 -0.04394171 -0.06357671 -0.040763654 0.07126779 0.0018864333
-0.0019650052 3.4022883e-06 0.061449792 0.0001513061 0.017389199 -0.031573914 0.019390633 -7.024912e-05
0.06267139 -0.03687858 9.924468e-07 0.059536025 0.04368138 -0.015096239 -2.4283017e-05 0.00089697546
0.06615651 -0.008467 0.027824875 -0.0023631302 -0.070585795 0.017331606 -0.043277323 -0.07037584
0.0019997188 -0.012035962

exp_avg_sq f4 [50, 1]
00000000: b934 573a e799 b43a ff38 f039 2e3e 8f3a
00000010: 9b3a ef39 ca74 8f39 6d2b 0e39 ffa2 3f39
00000020: cdde 343a e0df b63a 0844 e539 b1e3 a138
00000030: 4819 a038 9522 f535 843f e239 8cf9 973a
00000040: 42cb 643a 8901 fa33 6c44 8d3a 60c5 b33a
00000050: b28d e337 ad49 ca38 5355 7f39 867f f239
00000060: 9881 1839 855f 0d3a 6f71 9839 d816 3139
00000070: 7fbc ab3a df41 883a c362 703a 3c98 b039
00000080: 3d44 0a3a 3bb0 9b39 3d3b 5139 9691 1939
00000090: 2a35 4037 7559 ad39 361a 5539 11b2 2135
000000a0: a459 7535 306c 853a b226 9936 0c7d 5e36
000000b0: 13b2 fc38 ad04 f738 fc45 8637 dcaa e136
000000c0: 0596 843a 26b1 5239
0.00082094554 0.0013778777 0.00045818833 0.0010928565 0.00045629297 0.000273621 0.00013558353 0.000182759
0.0006899655 0.0013952218 0.0004372897 7.719489e-05 7.6341035e-05 1.8263987e-06 0.00043153402 0.0011594757
0.00087277975 1.16418114e-07 0.0010777838 0.0013715439 2.712649e-05 9.645834e-05 0.00024350481 0.0004625285
0.00014544127 0.00053929567 0.00029076214 0.00016888545 0.0013102441 0.0010395608 0.000916999 0.0003368276
0.00052744505 0.00029695206 0.00019953861 0.00014645452 1.145647e-05 0.00033063782 0.00020323027 6.0236295e-07
9.1400057e-07 0.0010179337 4.56426e-06 3.3153365e-06 0.00012049465 0.00011778749 1.6006634e-05 6.725413e-06
0.001011551 0.00020093154

exp_avg f4 [50, 1]
00000000: d20c 70bd 67c0 9e3d 9db2 273d 489d 8d3d
00000010: 8a73 2b3d d9ed fbbc e7a2 a63c 5277 c4bc
00000020: 04a6 59bd f6f4 a03d 71bd 263d 661c 633c
00000030: 2ef7 553c b93f 9837 01a5 25bd bc4d 923d
00000040: 9461 7abd c511 77b7 d89d 8c3d e182 9f3d
00000050: e317 b63b d57b 7e3c 8aee e63c 92e0 2dbd
00000060: 15c4 a83c 5228 3b3d d1ef 013d 0739 b9bc
00000070: c98d 9cbd 0e07 883d eb5c 7f3d b1c3 0c3d
00000080: acd4 363d f46d 043d 8c2b d33c b2cb a63c
00000090: 14b8 0abb ce75 0dbd 257f d03c 4288 f3b4
000000a0: 111a 1eb8 e1fe 873d 4057 01ba b8a5 2e39
000000b0: 39e4 8f3c 12d7 87bc d97f 603b 6501 86ba
000000c0: 2335 88bd 01ff cbbc
-0.058605976 0.077515416 0.040941823 0.06914765 0.041858234 -0.030753063 0.02034135 -0.023982678
-0.05313684 0.078592226 0.04070801 0.013861751 0.0130594205 1.8149485e-05 -0.040440563 0.07143733
-0.061128214 -1.4726485e-05 0.06866044 0.07788635 0.0055570467 0.015532454 0.028189916 -0.042450495
0.020601312 0.04569275 0.031722847 -0.0226102 -0.07644231 0.066419706 0.062344473 0.034366313
0.044636413 0.032331422 0.0257776 0.020360801 -0.0021166848 -0.034536175 0.025451252 -4.5361418e-07
-3.769441e-05 0.06640411 -0.0004933961 0.00016655668 0.01756488 -0.016582046 0.003425589 -0.0010223804
-0.0665076 -0.024901869

exp_avg_sq f4 [1, 50]
00000000: 3518 f639 99a7 9338 97dd 6d38 eec0 393a
00000010: deb3 7a38 5dfb 1638 d6fc 3b3a 3c6a d739
00000020: 169a 0c38 3e90 1b39 f093 af39 d5e0 8d38
00000030: c365 223a 0f21 d937 1f0a d939 046c aa38
00000040: d770 f839 81d8 e637 d012 8238 316e c538
00000050: d67a c738 3538 bc39 ae34 8438 6798 6c39
00000060: 3d39 d439 8dc6 5b39 52dc e938 a28e 0039
00000070: b47e fd39 a5c2 8338 837a 9939 12aa ab39
00000080: 9b32 5638 1aa8 bf37 d2b3 9639 a8b9 6638
00000090: a217 9039 f29c c738 d936 dd39 ed08 1c39
000000a0: 6ab0 2539 27fe 113a 470d 5a39 da24 bd39
000000b0: 5adf 1f3a 7104 0b3a 3642 5237 4a73 7d38
000000c0: 2e01 a939 05d4 d437
0.00046938812 7.040724e-05 5.6711575e-05 0.00070859387 5.977216e-05 3.5996887e-05 0.00071711594 0.00041087146
3.3522105e-05 0.00014835686 0.00033488823 6.765282e-05 0.0006194973 2.588381e-05 0.00041397006 8.126351e-05
0.00047386318 2.7518954e-05 6.202387e-05 9.414217e-05 9.5119394e-05 0.00035900032 6.304063e-05 0.00022563488
0.00040478437 0.00020959433 0.00011151344 0.00012260166 0.00048350322 6.282822e-05 0.00029273712 0.00032742374
5.1068706e-05 2.2847253e-05 0.00028744206 5.500918e-05 0.00027483428 9.518293e-05 0.0004219327 0.00014880644
0.00015801346 0.00055691827 0.00020795046 0.00036076346 0.00060986506 0.0005303091 1.2532391e-05 6.0427272e-05
0.0003223507 2.5371099e-05

exp_avg f4 [1, 50]
00000000: aaf6 91bb d99c 953b 1b02 d9ba cabd 6dbc
00000010: 884a 6b3b fd6d daba 1969 8abc 0d8f aabb
00000020: bb9c 90bb b5a5 fb3b 38b7 1e3a fcd7 843b
00000030: ca72 51bc bea8 6a3a 2a87 01bc 044a 75ba
00000040: 6d62 97bc 07a1 e4ba 301b 903b 5d05 bb3b
00000050: c7cc ddbb bf1b 1dbc 41f6 803b b7a5 a33a
00000060: 71a8 42bc d52c 603c c87f c2bb 409b 463b
00000070: 9157 4bbc f6aa fcba 52bf 8f3c ca5e afba
00000080: 50d0 cd3b 0e08 883b 260a 8dbb 17d8 e53b
00000090: f0ac 883c 6edb 963b f967 50bc 2fa8 713b
000000a0: f7de 1c3c 68f6 47bc a023 563c 5c1b a03a
000000b0: b6f9 70bc a34f 85bc bfe6 a8ba 14f4 a5ba
000000c0: d7f4 9a3c 08bf 36bb
-0.0044544535 0.004565817 -0.0016556414 -0.014510581 0.0035902578 -0.0016664859 -0.016895818 -0.0052050413
-0.004413215 0.007679666 0.00060545234 0.0040540677 -0.0127837155 0.0008951536 -0.007905761 -0.00093570375
-0.01847955 -0.001744301 0.0043977723 0.0057074265 -0.006768796 -0.009589135 0.0039356058 0.00124853
-0.01188098 0.013682564 -0.005935643 0.0030304939 -0.012411014 -0.0019277025 0.017547283 -0.001337969
0.0062809363 0.004151351 -0.0043041883 0.0070142853 0.016684026 0.004603795 -0.0127201015 0.0036873927
0.009574643 -0.012204744 0.013070017 0.0012215185 -0.014707973 -0.016273325 -0.001288615 -0.0012661242
0.018915577 -0.002788486

exp_avg_sq f4 [50, 1]
00000000: 17ec 1e3a 7d25 d737 c326 e839 b65a 2238
00000010: 2801 1a38 1c6b 1f39 eb2c 0f39 7b14 b039
00000020: b29e 0c38 3c14 5e3a ad31 5a39 dc17 de38
00000030: 4624 9838 fbd6 b53a aae9 e738 0871 2937
00000040: e31a 803a f976 1a38 58e0 b03a 5667 9f3a
00000050: a292 fb38 a43c b938 34c7 603a 055f 2532
00000060: b1d2 493a f8f1 cc38 a488 8637 39ed a138
00000070: 5ec6 ef37 cd29 bb3a 8007 983a 5881 833a
00000080: 536a e339 94c9 643a a27d 9539 8df1 073a
00000090: 8654 0e3a 9ddc 3b39 0689 a13a e4f8 933a
000000a0: ed65 173a c849 8d38 191b d838 7e18 3936
000000b0: 8f8a ba39 416e f736 229d 343a 842d 563a
000000c0: e8f0 4734 1218 3e37
0.0006062402 2.5647454e-05 0.00044279368 3.870829e-05 3.6717538e-05 0.00015203323 0.00013654276 0.00033584595
3.3526398e-05 0.0008471643 0.00020808606 0.00010590229 7.254681e-05 0.0013873273 0.00011058462 1.0099502e-05
0.0009773638 3.6827263e-05 0.0013494594 0.0012161534 0.00011995925 8.8327826e-05 0.00085746055 9.625869e-09
0.0007698937 9.772548e-05 1.6037673e-05 7.7212644e-05 2.8583392e-05 0.0014279425 0.0011598915 0.0010033054
0.00043376032 0.0008727547 0.00028513098 0.0005185835 0.0005429465 0.00017915895 0.0012324161 0.0011289385
0.0005775381 6.737147e-05 0.0001030473 2.7581405e-06 0.0003557992 7.374009e-06 0.00068898697 0.00081702345
1.862096e-07 1.1330487e-05

exp_avg f4 [50, 1]
00000000: c289 4dbd 4549 c13b 75e4 27bd 32a7 f0bb
00000010: 4012 fcbb d8e1 ad3c 95fb a03c 9a94 0ebd
00000020: 8b48 c13b 0cd6 753d fcca d2bc aa59 7d3c
00000030: bdde 4dbc 5f46 a2bd f0a5 84bc 4411 04bb
00000040: e4b6 823d 91ad edbb 50b2 9c3d c169 95bd
00000050: 1b4b 93bc 9e74 71bc 204e 773d 601c d0b4
00000060: 3f78 69bd dd3d 85bc 2d25 4e3b f972 513c
00000070: 4b21 b0bb 2072 a4bd 8541 90bd d659 85bd
00000080: 9f14 273d d39a 773d 90b3 fe3c a17d 393d
00000090: be3d 41bd 4eb2 c2bc ab6d 95bd 8eb6 90bd
000000a0: b9a0 3fbd e577 43bc 40d1 843c 81ca 8039
000000b0: 5c7e 13bd 562b 89ba ae1c 5bbd 8cef 6b3d
000000c0: 8c03 9837 fccb 1bbb
-0.050180204 0.005898627 -0.040989358 -0.00734415 -0.0076926053 0.021225855 0.019651214 -0.034809686
0.0058985404 0.060018584 -0.025731556 0.015463272 -0.012565312 -0.079235785 -0.016192406 -0.0020151893
0.0638254 -0.0072533567 0.07651198 -0.072955616 -0.017980149 -0.014737276 0.06037724 -3.8763665e-07
-0.05699944 -0.01626485 0.0031455264 0.012783759 -0.0053750626 -0.0802958 -0.07043747 -0.065112755
0.04079115 0.060450386 0.031091481 0.045285825 -0.047178023 -0.023766663 -0.07296308 -0.070660695
-0.046784136 -0.011930441 0.01621306 0.0002456494 -0.036009178 -0.0010465186 -0.053494148 0.057601497
1.8121464e-05 -0.0023772707

exp_avg_sq f4 [1, 50]
00000000: ade1 7538 2826 5b37 d6bb 0f38 2271 e137
00000010: e070 8b38 8d27 3238 516a 5b38 2171 a337
00000020: b948 5538 cf8a 4338 1132 2b38 c85c 5538
00000030: dc63 ae37 cbc0 3138 4d6c 7f38 0f70 2838
00000040: f376 f838 8c7c 6237 1178 2c39 e0cd 2938
00000050: 01fa 9137 629b 1e38 251b 4338 2d55 2238
00000060: fe50 1938 9146 6938 e049 9138 79f3 6738
00000070: b974 3338 480d 0b38 76ef b038 fb5f 8338
00000080: de00 5338 b219 8138 2b75 7c38 a0b0 3f38
00000090: 1f9d 6738 69ed 0938 8cad ad38 80b0 2d38
000000a0: b100 ad38 9461 ed37 e65c 4438 0604 d937
000000b0: a3be e937 01b6 3038 0d14 1538 a0d1 af38
000000c0: faa2 1b38 d58d 2638
5.862273e-05 1.3062301e-05 3.4268793e-05 2.6874772e-05 6.649061e-05 4.247534e-05 5.2312684e-05 1.9483794e-05
5.0850886e-05 4.66209e-05 4.0816205e-05 5.0869567e-05 2.0788917e-05 4.237964e-05 6.08976e-05 4.0158684e-05
0.000118477175 1.3499648e-05 0.00016447926 4.0484476e-05 1.7401764e-05 3.7814847e-05 4.6516903e-05 3.8703136e-05
3.6553472e-05 5.561725e-05 6.927899e-05 5.5301443e-05 4.2785632e-05 3.315255e-05 8.436937e-05 6.2644445e-05
5.0307128e-05 6.1559855e-05 6.0190603e-05 4.5702443e-05 5.5221022e-05 3.288445e-05 8.2816085e-05 4.1410793e-05
8.2494116e-05 2.829804e-05 4.681656e-05 2.587029e-05 2.7864537e-05 4.2131174e-05 3.5543042e-05 8.383696e-05
3.7106664e-05 3.9709576e-05

exp_avg f4 [1, 50]
00000000: b0dd 69bb 4a63 293b 7d65 3a3a 8fae d93a
00000010: ec2a 83bb 9572 013b a9bc 8c3a e592 9339
00000020: 53aa b7bb 1be3 a83b 581c fa39 1ece aabb
00000030: c3a3 18bb 8bc5 4abb 74c9 8b3b 9903 39bb
00000040: 9b21 1bbc 35ea ad38 102e 5cbc 4c3b 943b
00000050: 8614 52ba d46a a0bb 18a5 4e3b 3f91 18b9
00000060: 0fec 12bb 0af8 c9bb 0157 e7ba 14de 4dbb
00000070: 8b0f 3c3b 3ae8 f5ba 052f 033c 4ae2 d13b
00000080: 0ea8 db3b 9ad5 28bb 27ab 5cbb d6e9 8e3b
00000090: dba2 86bb c883 34bb a0f6 153c 371a 17bb
000000a0: cf85 f73b 0073 6cba b724 6c3a c39d 2d3b
000000b0: c684 8c3b a58d 973a b2bf 7ebb 443a d8bb
000000c0: e27d 953b 1602 85bb
-0.0035685115 0.0025846534 0.000711046 0.0016607809 -0.0040029194 0.0019752134 0.0010737377 0.0002814747
-0.005605021 0.005154026 0.00047704834 -0.0052125594 -0.002329097 -0.0030940499 0.0042659584 -0.0028230904
-0.009468461 8.292907e-05 -0.0134387165 0.0045236703 -0.00080139225 -0.0048955474 0.003153151 -0.00014549958
-0.0022418534 -0.0061636018 -0.001764983 -0.0031412886 0.0028695788 -0.0018761226 0.008006816 0.0064051496
0.0067033833 -0.0025762082 -0.003367135 0.0043613715 -0.0041087694 -0.0027544368 0.009153038 -0.0023056397
0.007553793 -0.0009019822 0.00090081565 0.0026491738 0.0042882888 0.0011562599 -0.0038871584 -0.0065987427
0.0045621255 -0.0040590866

exp_avg_sq f4 [1, 50]
00000000: a121 3737 44c3 eb37 40a4 2f38 510d 7737
00000010: 2a66 5837 0d7d 4e35 31e5 9436 5169 7e36
00000020: 6030 2637 a933 6038 28b0 a137 b015 d336
00000030: 7e38 4036 3cfe 2136 92c9 3a36 17a8 df36
00000040: 438a 0335 cbce 2537 a176 dc36 2e54 5d38
00000050: b7b4 e636 25bf cd36 781e a237 4411 b835
00000060: 320f 8536 8924 ec37 fa0c 8337 685d 1235
00000070: 225c 1335 75c5 c936 cf9a 4c36 fa9a f536
00000080: de22 4338 5085 3a36 187b b036 6caf f036
00000090: e185 9835 fb76 7236 29e9 4536 a84a 0935
000000a0: f9ba f636 be69 3737 36a7 9e34 0f6c 8e36
000000b0: d76c 6437 a977 b437 cc86 3536 1e13 df34
000000c0: 4576 4236 c230 0b37
1.091548e-05 2.810511e-05 4.187622e-05 1.4725448e-05 1.289839e-05 7.6922953e-07 4.437425e-06 3.7910252e-06
9.905634e-06 5.3453874e-05 1.9274725e-05 6.290815e-06 2.8643112e-06 2.4138853e-06 2.783349e-06 6.665486e-06
4.90025e-07 9.882914e-06 6.570321e-06 5.2768904e-05 6.875572e-06 6.1317282e-06 1.9326093e-05 1.3714093e-06
3.965478e-06 2.8150405e-05 1.562246e-05 5.452516e-07 5.489584e-07 6.013254e-06 3.048848e-06 7.3196106e-06
4.6524096e-05 2.7793758e-06 5.2595387e-06 7.172979e-06 1.1363846e-06 3.6130066e-06 2.9491005e-06 5.1145116e-07
7.353138e-06 1.093227e-05 2.9551455e-07 4.2445095e-06 1.36152e-05 2.1513393e-05 2.7049564e-06 4.1550896e-07
2.8977095e-06 8.296398e-06

exp_avg f4 [1, 50]
00000000: 6318 c4b9 b0f1 a33b 39be 81bb 553a a4ba
00000010: 7b41 943a e992 3539 539e a93a b5d2 0a3a
00000020: 89f4 6539 dd68 9ebb 45a6 0ebb f32b d83a
00000030: 40cb e7b8 170a 8736 31c3 3eb9 e98c e8b9
00000040: 50af b639 98ee c9ba a535 e23a 52d8 9dbb
00000050: 77db a83a 1fa9 9c3a ff16 deba 3c42 0aba
00000060: 7649 c3b9 8893 00bb 3eab c3ba 926e e7b8
00000070: 4549 7839 6a57 95b8 d4c0 d6b9 1132 4c3a
00000080: 6327 99bb 7700 9d39 17f1 b63a aba9 9c3a
00000090: 42f2 80b8 3cda 54ba cc3e 1938 6d42 ca35
000000a0: d85e 7eba 9a02 633a 8ede 54b7 5299 1eb9
000000b0: 78eb f1b9 20a4 453b 6362 b039 1063 ddb7
000000c0: 9895 523a 7ddd 4aba
-0.00037402203 0.0050031766 -0.003959444 -0.0012529591 0.0011311019 0.00017316233 0.0012940861 0.000529568
0.00021930238 -0.004834278 -0.0021766585 0.001649259 -0.000110527966 4.024488e-06 -0.00018192526 -0.00044355475
0.00034844363 -0.001540619 0.0017258419 -0.004817047 0.0012882788 0.0011952257 -0.0016944109 -0.0005274152
-0.0003724803 -0.0019619185 -0.0014928353 -0.00011035534 0.00023678418 -7.121156e-05 -0.0004096093 0.0007789443
-0.0046738847 0.0002994572 0.0013957348 0.001195242 -6.14864e-05 -0.00081196777 3.6536527e-05 1.5069505e-06
-0.0009703464 0.00086597505 -1.2688002e-05 -0.0001512517 -0.0004614254 0.003015764 0.0003364264 -2.6391383e-05
0.00080331555 -0.0007738693
