experiments/rotation/checkpoints/checkpoints_weight_decay_mse/checkpoint_dim-2_ntrain-17_weightdecay-0.001_seed-1683best.pkl (torch_old, 17339 bytes, 36 tensors)

ffs.0.0.weight f4 [50, 1]
000000 2e 34 b8 bc 67 9b 14 bd 78 85 bd bf 91 33 38 bd
       -0.022485819 -0.036281016 -1.4806356 -0.044971053
000010 88 07 9b 3f 3a 97 19 bd f0 d6 3f bd 54 82 3b bd
       1.2111673 -0.037497737 -0.04683584 -0.045778587
000020 bf e6 0d bd 32 12 15 bd d4 7f 16 bd 07 c9 14 bd
       -0.034643885 -0.036394306 -0.036743 -0.036324527
000030 fa 5b 69 bd a5 7b 1b bd a2 11 17 bd cb 80 1a bd
       -0.05697248 -0.037959713 -0.03688205 -0.037720483
000040 88 7f 15 bd 3c 32 9d 3f 90 79 15 bd 87 c0 15 bd
       -0.036498576 1.2280955 -0.036492884 -0.03656056
000050 67 d1 12 bd fc 95 33 3c ff a5 c0 bf 51 00 16 bd
       -0.035844233 0.010961052 -1.5050658 -0.036621395
000060 19 b6 15 bd cc c6 10 bd 1a ac 15 bd cb da 60 bd
       -0.036550615 -0.035345837 -0.036541082 -0.054896157
000070 c6 a7 fe bd ef 93 15 bd 32 94 15 bd da 4b a8 bd
       -0.12434344 -0.036518034 -0.036518283 -0.082175925
000080 42 b9 15 bd ef ab 9a bd 43 28 b8 bd 84 5d ed bc
       -0.03655363 -0.07552325 -0.08992054 -0.028975256
000090 23 3a 18 bd 6c 50 16 bd 07 af 15 bd 45 97 18 bd
       -0.03716482 -0.03669779 -0.036543872 -0.037253637
0000a0 39 83 5c bd 49 00 18 bd 3d 71 1e bd 74 39 1b bd
       -0.05383608 -0.037109647 -0.03868221 -0.03789659
0000b0 08 9b 17 bd 10 6f 1c bd 85 db 18 bd a9 cb 23 bd
       -0.037013084 -0.038191855 -0.037318725 -0.039989147
0000c0 f3 5e 50 3f 2e 2d 1a bd
       0.8139488 -0.037640743

ffs.0.0.bias f4 [50]
000000 61 17 6e 3b 84 aa d1 3b 01 b4 c2 bf 34 c9 10 3c
       0.0036329853 0.006398501 -1.5211183 0.008837033
000010 f5 fd 91 bf 25 b8 d4 3b ea b1 02 3c f8 5c 0f 3c
       -1.1405627 0.0064916783 0.007976988 0.008750193
000020 0e c8 be 3b 22 71 d0 3b db 14 d2 3b e4 ba d1 3b
       0.005822188 0.0063611427 0.0064111776 0.006400453
000030 7d ec 1d 3c f5 6d d5 3b 9d 25 d3 3b 1c 2e d6 3b
       0.009638903 0.006513352 0.006443693 0.0065362584
000040 0d eb d2 3b ba 82 94 bf f1 ab d2 3b 27 2b d3 3b
       0.0064367116 -1.1602395 0.0064291884 0.006444353
000050 04 a4 c2 3b 5f a8 7f ba 83 b6 c7 bf 20 c4 d2 3b
       0.0059399623 -0.0009752567 -1.5602573 0.0064320713
000060 4f 6d d3 3b 1b b4 87 be ee dc d1 3b 7d c6 2e 3c
       0.0064522396 -0.26504597 0.0064045107 0.0106674405
000070 fe f7 2d 3d e9 5e d2 3b 59 3b d2 3b 4b b8 8c 3c
       0.042472832 0.0064200056 0.006415766 0.017177721
000080 b0 16 d3 3b 0d 04 50 3c 25 5d 08 be 63 a4 8a 3b
       0.0064419135 0.012696278 -0.13316782 0.004231022
000090 ad d8 d4 3b 9c 80 d3 3b 3d 72 d2 3b f7 09 d1 3b
       0.0064955563 0.0064545404 0.0064223097 0.0063793617
0000a0 1c 4b 19 3c 6a c7 d4 3b 22 56 d6 3b 89 c8 c8 3b
       0.009356286 0.0064934986 0.0065410296 0.0061274213
0000b0 17 a5 d0 3b 02 97 d6 3b 36 95 d4 3b bf 0b ef 3b
       0.0063673365 0.0065487633 0.006487514 0.0072951014
0000c0 89 27 2f bf 20 28 da 3b
       -0.684197 0.0066576153

ffs.0.2.weight f4 [1, 50]
000000 5d 0c 97 3d 14 5f ee 3d 41 4f e2 bf 8f 5f 0c 3e
       0.07375405 0.116392285 -1.7680436 0.13708328
000010 11 ba b2 bf 86 63 f1 3d 9c 16 0e 3e d7 78 10 3e
       -1.3963033 0.11786561 0.13875812 0.14108597
000020 61 f7 dd 3d 49 31 ee 3d b7 e2 ef 3d c3 07 ef 3d
       0.108381994 0.11630494 0.11713164 0.11671402
000030 8c a0 22 3e 81 a6 f1 3d b6 0e f0 3d 8b b5 f1 3d
       0.15881556 0.11799336 0.11721556 0.11802205
000040 78 29 f0 3d d1 e7 b6 bf 1c 27 f0 3d 38 56 f0 3d
       0.117266595 -1.4289495 0.117262095 0.11735195
000050 5c 69 e6 3d 25 4a 33 bc 12 37 ea bf 2e 65 f0 3d
       0.112505645 -0.01094297 -1.8298056 0.117380485
000060 9b 4d f0 3d 84 12 df be 22 a8 ef 3d 14 d4 2d 3e
       0.11733552 -0.43568814 0.11701991 0.16975433
000070 d8 d7 b2 3e 40 f1 ef 3d e6 f8 ef 3d 57 86 7c 3e
       0.349303 0.11715937 0.117173955 0.24660622
000080 c4 69 f0 3d 06 60 43 3e 7e 2b be be 6c 3b c1 3d
       0.11738923 0.19079599 -0.37142557 0.09435162
000090 5e 22 f1 3d b2 51 f0 3d 71 26 f0 3d c6 99 ed 3d
       0.11774133 0.11734332 0.11726082 0.116015956
0000a0 e8 e2 1e 3e b8 b5 f0 3d 17 93 f2 3d 5a 85 e6 3d
       0.15516245 0.1175341 0.118444614 0.112559035
0000b0 e1 56 ed 3d 21 eb f1 3d d6 d8 f0 3d 55 80 02 3e
       0.115888365 0.118124254 0.11760108 0.12744267
0000c0 89 e3 57 bf f7 0c f5 3d
       -0.84331566 0.119653635

ffs.1.0.weight f4 [50, 1]
000000 15 20 33 3e 20 5d 10 3e 8e 7d b3 bd 21 e4 a9 3d
       0.17492707 0.14098024 -0.08764182 0.08295465
000010 72 9f 21 3e 23 fc 09 bd a8 d0 64 3c c1 a0 03 3e
       0.1578348 -0.033687722 0.013965763 0.12854291
000020 b3 56 d2 bd b9 4b da 3d 64 be fc 3d 18 8e dd 3d
       -0.10270443 0.10658974 0.12341002 0.10818118
000030 3d b9 b0 3d e7 6e 25 3e 87 dd c2 3c 74 40 f0 3f
       0.086290814 0.16155587 0.023787273 1.876967
000040 ba 26 26 be 0f ff c9 bd fe 7d 2d 3e 93 d4 2b 3e
       -0.1622571 -0.09863102 0.16942593 0.1678031
000050 f4 59 fb bd ce 12 81 bd 6d 9e 15 3e b0 c1 ba 3d
       -0.122730166 -0.06302415 0.14611216 0.09118974
000060 57 f6 f9 bd c3 3b 11 3e a9 f3 d1 bd b4 d1 f0 3d
       -0.12205189 0.14182954 -0.102515526 0.11758748
000070 a5 1c 30 bd d4 7a c9 3f 13 5a f7 3d 30 db f8 3d
       -0.042996068 1.5740609 0.12077727 0.12151182
000080 ea 2c 37 3e e5 23 26 3e 6e 3b d1 3d 18 98 25 3e
       0.17888227 0.1622463 0.102164134 0.161713
000090 ec 19 02 3e e4 67 19 3e ec 86 e9 bd 74 39 d1 3d
       0.12705201 0.14981037 -0.114026874 0.102160364
0000a0 1d 07 85 bc 0e 51 d3 3d ab 7d 03 3e 8d bf 05 3e
       -0.016238743 0.10318194 0.12840907 0.13061352
0000b0 ab dc 52 bd f0 b5 0c be db a8 5d bd aa a8 e8 bd
       -0.051479977 -0.13741279 -0.05411611 -0.11360295
0000c0 d7 d6 00 3e 93 b9 fd bb
       0.12581955 -0.0077430694

ffs.1.0.bias f4 [50]
000000 0c ea 61 3c c6 42 e4 3b e5 b3 ea ba 65 b0 c1 3a
       0.013788711 0.006965968 -0.0017906396 0.0014777301
000010 d0 1f 20 3c 04 87 36 b9 3e d8 35 38 93 37 ad 3b
       0.00977321 -0.0001740717 4.3355154e-05 0.005286166
000020 93 ad 63 bb 56 cb 47 3b 0b 47 98 3b 06 21 4d 3b
       -0.003474091 0.0030486188 0.004647141 0.00313002
000030 e1 3f d7 3a 6d 72 2b 3c 5b 12 c3 38 05 2d 73 3d
       0.0016422236 0.010464293 9.3017436e-05 0.059369106
000040 0d 71 32 bc bd b1 1c bb 2f 46 4b 3c f0 ee 44 3c
       -0.010891211 -0.0023909651 0.01240687 0.012019858
000050 a1 9a 94 bb d0 7e 3a ba 5b a6 fc 3b 60 25 00 3b
       -0.0045350348 -0.00071142334 0.007710261 0.0019553527
000060 d1 af 92 bb 26 4d e7 3b b0 77 30 bb a7 f4 83 3b
       -0.0044765254 0.0070587574 -0.0026926808 0.0040269676
000070 a6 27 95 b9 29 aa c1 bd 09 89 8e 3b 87 2a 91 3b
       -0.00028449035 -0.094562836 0.004349832 0.0044301185
000080 0b 56 6d 3c 57 f5 30 3c dc 5d 2d 3b 2a 22 2d 3c
       0.014485846 0.010800681 0.002645365 0.010567227
000090 30 e7 a5 3b 5f c9 08 3c cc f2 6f bb 6c 42 30 3b
       0.00506296 0.008348792 -0.0036613224 0.002689506
0000a0 9b 86 61 b8 83 75 32 3b db d6 aa 3b b3 b6 b4 3b
       -5.376954e-05 0.0027230687 0.005213601 0.0055149435
0000b0 b9 64 e4 b9 00 cb d1 bb e4 92 02 ba 51 ea 73 bb
       -0.00043562593 -0.0064023733 -0.0004980995 -0.003721852
0000c0 20 d4 a0 3b f2 19 a5 b7
       0.0049081 -1.9681615e-05

ffs.1.2.weight f4 [1, 50]
000000 00 f5 4f 3e e5 de 1b 3e 83 e3 b2 bd f3 06 a9 3d
       0.20308304 0.15221746 -0.08734801 0.082532786
000010 a7 52 33 3e 3c 82 02 bd d9 79 5d 3c 23 e5 0b 3e
       0.17511998 -0.031862482 0.01351782 0.13661627
000020 7d b3 22 be 2b cd e2 3d 7d 84 05 3e 9f f3 e3 3d
       -0.15888782 0.11074289 0.13038822 0.111304514
000030 48 60 b0 3d db 7c 38 3e 7b a0 bb 3c 73 96 b6 bf
       0.08612114 0.18016379 0.022903671 -1.4264663
000040 1e 1c 3a be 71 97 cb bd 91 f3 44 3e a5 c1 42 3e
       -0.18174788 -0.099409945 0.19233538 0.19019182
000050 66 7a 01 be f2 5f 7b bd a6 20 23 3e 5e 15 be 3d
       -0.12644348 -0.061370797 0.15930423 0.09281419
000060 ec 8a 02 be 50 61 1d 3e 50 49 d4 bd 4d e5 fb 3d
       -0.12748307 0.15369153 -0.10365546 0.12299595
000070 57 e2 28 bd 9b 1a 8f bf d9 f2 01 3e 29 56 02 3e
       -0.04123148 -1.1179994 0.12690295 0.1272818
000080 a1 32 50 3e d1 8a 38 3e e6 d9 d4 3d 74 1f 38 3e
       0.20331813 0.18021704 0.10393123 0.17980748
000090 98 e3 09 3e a5 82 28 3e 8c 1c f1 bd 0c 88 d7 3d
       0.13465726 0.16456087 -0.11773023 0.10523996
0000a0 1c 4a 78 bc 92 42 d7 3d 96 8a 0b 3e 7b d9 0e 3e
       -0.015154388 0.10510744 0.13627085 0.1395015
0000b0 58 82 4b bd 21 b9 16 be 92 3d 55 bd 2e 51 ef bd
       -0.049684852 -0.14719059 -0.05206067 -0.11685406
0000c0 14 59 08 3e 45 60 d2 bb
       0.1331523 -0.0064201676

ffs.2.0.weight f4 [50, 1]
000000 29 77 93 bf 99 a0 26 3e 87 f0 6e be 52 37 70 be
       -1.152074 0.162722 -0.23333941 -0.23458603
000010 90 1f 31 3e 7a 7e 6d be 6d 2a 6b be 20 50 70 be
       0.17297196 -0.23192778 -0.22965403 -0.23468065
000020 ac 94 4a 3e 04 f1 d7 3d f7 db 6d be 7d 4c 4a 3e
       0.19783276 0.10544017 -0.23228441 0.1975574
000030 59 aa 46 3e a5 e2 bc bf c3 7b 6e be 07 96 44 3e
       0.1940092 -1.4756666 -0.23289399 0.19197856
000040 b3 6a 3d 3e 95 d2 6f be 16 6d 3d 3e ed 39 72 be
       0.18497734 -0.23420174 0.18498644 -0.2365491
000050 ed b1 6f be 5f fc 48 3e 86 1b 3b 3e b6 b8 6d be
       -0.23407717 0.19627522 0.18272218 -0.23214993
000060 a3 f5 b3 bf 92 74 39 3e 30 04 0c 3e 1e 9e 48 3e
       -1.4059337 0.18110874 0.13673472 0.19591567
000070 86 94 6f be 9c 5c 3c 3e ae 6a 6d be 82 cb 70 be
       -0.23396501 0.18394703 -0.23185226 -0.23515132
000080 cc 1d 6c be 83 2d 6f be 24 ea 47 3e e4 e9 67 be
       -0.23058242 -0.23357205 0.19522911 -0.22647816
000090 57 18 8e bf fe d8 37 3e 7f 06 71 be 61 b1 ba bf
       -1.1101178 0.1795387 -0.23537634 -1.4585382
0000a0 fc 9c 6d be 4c f1 6d be 1f b7 6c be 4a 02 70 be
       -0.23204416 -0.23236579 -0.2311673 -0.23438373
0000b0 f8 fe 71 be c4 57 6e be d8 5f 6e be 14 19 4c be
       -0.23632419 -0.23275667 -0.23278749 -0.19931442
0000c0 a9 84 70 be 27 40 49 3e
       -0.23488106 0.19653378

ffs.2.0.bias f4 [50]
000000 b1 48 ee 3d bd 32 79 3b 2f 39 9b bc b5 10 9f bc
       0.116349585 0.0038024627 -0.018948166 -0.019417146
000010 39 d7 a6 3b 3c 02 97 bc 7f 4c 90 bc 8f 91 9f bc
       0.0050915745 -0.018433683 -0.017614601 -0.019478587
000020 de 20 18 3c 62 71 d8 38 00 18 98 bc e8 56 17 3c
       0.00928518 0.00010320802 -0.018566132 0.009237029
000030 27 21 0c 3c 1c ca fb 3d 98 da 99 bc 70 c3 04 3c
       0.008552826 0.12294409 -0.018780991 0.008103237
000040 f4 8a e1 3b 36 34 9e bc fd 87 e1 3b 93 57 a5 bc
       0.0068830196 -0.019312005 0.006882666 -0.02018336
000050 b7 c3 9d bc 61 ee 12 3c 08 95 d4 3b 56 b5 97 bc
       -0.019258363 0.008967967 0.0064874925 -0.018519085
000060 6d f5 f9 3d c0 3d cd 3b 48 6e ce 3a de 06 11 3c
       0.122050144 0.0062634647 0.0015749419 0.008851735
000070 b8 22 9d bc 27 e1 da 3b 6f b4 96 bc dc ba a0 bc
       -0.019181594 0.0066796723 -0.018396584 -0.019620351
000080 b8 a6 92 bc 71 dd 9b bc ab b4 0e 3c ee c1 86 bc
       -0.017901763 -0.01902649 0.008710067 -0.016449895
000090 3c bb eb 3d 0d 6a c5 3b b8 7a a1 bc 52 77 fb 3d
       0.115103215 0.006024605 -0.019711837 0.12278618
0000a0 db 34 97 bc cd 56 98 bc 9e ca 94 bc 6a 6f 9e bc
       -0.01845782 -0.018596077 -0.018163022 -0.019340236
0000b0 61 dc a4 bc 52 7f 99 bc 58 90 99 bc 7b a9 17 bc
       -0.020124616 -0.018737469 -0.018745586 -0.009256716
0000c0 15 fc 9f bc d1 4d 13 3c
       -0.019529382 0.008990721

ffs.2.2.weight f4 [1, 50]
000000 42 ed 30 bf f7 a2 20 be dc e2 9a 3e 8a c7 9c 3e
       -0.69112027 -0.15687166 0.30251205 0.30620986
000010 48 fd 2e be 88 c8 98 3e a9 73 95 3e ec ed 9c 3e
       -0.17088807 0.29840493 0.29189804 0.3065027
000020 7c 7c 5b be 87 8e b3 bd da 50 99 3e c9 c5 5a be
       -0.21434206 -0.08767419 0.29944497 -0.21364512
000030 0e 39 54 be 12 40 8f bf 5b 2d 9a 3e 7b 77 50 be
       -0.2072489 -1.1191428 0.30112728 -0.20358078
000040 e4 7b 43 be a3 33 9c 3e 5a 81 43 be 4f a7 9f 3e
       -0.1909023 0.30508146 -0.19092312 0.31182334
000050 94 00 9c 3e 46 9a 58 be e8 73 3f be 95 1f 99 3e
       0.3046919 -0.211526 -0.18696558 0.29906908
000060 31 58 80 bf 98 bb 3c be 54 10 f7 bd a9 29 58 be
       -1.0026914 -0.18430936 -0.12063661 -0.21109642
000070 e0 d1 9b 3e d5 9d 41 be 19 a2 98 3e d1 76 9d 3e
       0.3043356 -0.18907864 0.2981117 0.30754712
000080 63 d3 96 3e fd 2f 9b 3e b8 b7 56 be af 0e 91 3e
       0.2945815 0.3031005 -0.2096852 0.28331515
000090 3e ee 26 bf 5d e8 39 be ff b7 9d 3e af 68 8b bf
       -0.6520728 -0.18155046 0.3080444 -1.0891322
0000a0 fd e5 98 3e 35 72 99 3e 2c a9 97 3e c8 72 9c 3e
       0.29862967 0.29969946 0.29621255 0.3055632
0000b0 33 5f 9f 3e c1 06 9a 3e e2 0c 9a 3e 3e 52 62 3e
       0.3112732 0.30083278 0.30087954 0.22101685
0000c0 8b 2d 9d 3e 00 4f 59 be
       0.3069881 -0.21221542

ffs.3.0.weight f4 [50, 1]
000000 b2 0a 1d bd 4e b7 3d 39 63 75 a0 3c 56 ac 48 3c
       -0.038340278 0.00018092731 0.019587224 0.012248119
000010 ef c1 87 3d e4 74 aa 3c 4b 74 79 3d 1e 01 98 bf
       0.06628787 0.02080769 0.06090192 -1.1875341
000020 52 24 81 3c 1c 38 1b 3d 60 68 a4 3c cc 22 a5 3d
       0.01576439 0.037895307 0.020069301 0.080632776
000030 be 40 96 3f 53 3d aa 3c a3 17 a5 3c a2 bc ac bc
       1.1738508 0.020781195 0.020152872 -0.02108604
000040 66 32 ad 3d 08 b9 aa 3c 5a a7 08 3d 1b 31 07 3d
       0.08456878 0.020840183 0.033362724 0.033005815
000050 db 59 aa 3c ec 21 aa 3c ed f1 a2 3c dd 34 ed bd
       0.0207948 0.020768128 0.01989075 -0.115823485
000060 3a 7a 73 3f 72 e7 97 3c 17 49 a6 3c f3 98 1d 3c
       0.9510838 0.018542979 0.020298524 0.0096189855
000070 3a c6 ae 3d 01 00 4f bd c2 aa 52 bc 66 4f a7 3c
       0.085339025 -0.050537113 -0.012858095 0.020423602
000080 cf a4 9a 3c 58 c4 a8 3c aa 5a 71 3d 65 83 aa 3c
       0.018877415 0.020601436 0.058924355 0.020814607
000090 da 6e a9 3c 6e 0b 1c bd 99 b9 a9 3c cf 0b aa 3c
       0.020682741 -0.038096838 0.020718383 0.020757584
0000a0 d5 06 aa 3c b3 60 af 3c 10 09 a3 bf ec 73 aa 3c
       0.02075521 0.021408414 -1.2737141 0.020807229
0000b0 39 d4 a3 3c 88 3e 9c 3c 59 00 a9 3c de 89 a2 bf
       0.019998657 0.019072786 0.020630049 -1.2698324
0000c0 da b9 6d bf b7 bb aa 3c
       -0.9286171 0.020841463

ffs.3.0.bias f4 [50]
000000 cd 4c 7b ba 95 3b 43 37 07 60 a1 39 45 a3 30 39
       -0.00095863343 1.1636778e-05 0.0003077986 0.0001684549
000010 5e 0f 33 3b 62 87 ae 39 a5 18 01 3b af 88 84 3f
       0.0027322392 0.00033288734 0.0019698527 1.0354213
000020 54 aa 76 39 3f e2 59 3a 22 22 a6 39 37 29 80 3b
       0.0002352384 0.00083116064 0.00031687418 0.003911163
000030 86 65 82 bf 45 84 ac 39 32 c2 a6 39 ac 20 c0 b9
       -1.0187232 0.00032904945 0.00031806674 -0.00036645436
000040 1e 7a bc 3b e7 52 ac 39 65 7b 40 3a 19 b0 2b 3a
       0.005751862 0.00032868164 0.0007342606 0.0006549373
000050 10 cd ae 39 cc e2 ad 39 2e 1a a4 39 01 2e 71 bc
       0.0003334065 0.00033166108 0.00031300023 -0.014720441
000060 15 b3 44 bf a9 4f 96 39 27 36 a8 39 f5 f1 05 39
       -0.7683576 0.0002866958 0.00032083804 0.00012774004
000070 80 db aa 3b 95 92 ad ba 14 fa 2b b9 de d0 a9 39
       0.0052141547 -0.0013242537 -0.00016400992 0.0003238981
000080 40 f9 99 39 d4 1c ac 39 8b 0b fb 3a 13 f5 ad 39
       0.0002936814 0.00032827875 0.001915322 0.00033179726
000090 8b 14 ae 39 70 28 77 ba d9 47 ac 39 49 2d ae 39
       0.00033203172 -0.0009428328 0.00032859927 0.00033221606
0000a0 18 c6 ad 39 4d 12 b5 39 19 1a cd bf 02 70 ac 39
       0.00033144723 0.00034536645 -1.6023589 0.0003288985
0000b0 87 2f a5 39 f5 da 9b 39 f8 b1 ab 39 cf 3c cc bf
       0.00031506663 0.0002972704 0.0003274826 -1.5956057
0000c0 21 d5 40 3f 64 ba ae 39
       0.7532521 0.00033326738

ffs.3.2.weight f4 [1, 50]
000000 24 59 6a bd 19 43 60 3b 0a 71 f8 3c 1c 78 a2 3c
       -0.057213917 0.003421968 0.030327339 0.019832663
000010 dc 28 d1 3d c7 2f 03 3d 89 94 af 3d 88 00 9d 3f
       0.102128714 0.032027986 0.08573253 1.2265787
000020 8a 0f ca 3c 66 0e 6e 3d 51 11 fe 3c d9 90 e0 3d
       0.024665613 0.0581192 0.031014116 0.109651275
000030 d1 3c 99 bf 90 36 03 3d 3f 36 ff 3c 9a 93 d5 bc
       -1.1971685 0.032034457 0.031153796 -0.026071358
000040 8c c9 45 3e a0 df 02 3d cb fe 52 3d fe 17 4f 3d
       0.19315165 0.031951547 0.05151252 0.05055999
000050 01 22 03 3d ef 12 03 3d 9d d6 fb 3c f1 83 3c be
       0.03201485 0.03200048 0.030741984 -0.18409707
000060 94 e2 5a bf bc dd eb 3c 06 5e 00 3d 01 8a 7d 3c
       -0.8550198 0.028792255 0.031339668 0.015474797
000070 f2 b3 f9 3d 03 4a 8a bd 5b f8 63 bc 04 b7 00 3d
       0.12192525 -0.06752398 -0.013914193 0.031424537
000080 68 35 f0 3c 52 3e 02 3d 3f cf af 3d d2 e3 02 3d
       0.029322341 0.031797715 0.08584451 0.031955548
000090 b9 21 03 3d 33 04 62 bd 50 0f 03 3d e1 3a 03 3d
       0.032014582 -0.055179786 0.031997025 0.032038573
0000a0 ac 0f 03 3d 48 51 07 3d 99 6c 02 c0 0f 34 03 3d
       0.031997368 0.0330365 -2.0378783 0.03203207
0000b0 ad 12 fd 3c 99 3a f3 3c f7 0b 02 3d 48 91 01 c0
       0.030892694 0.029691027 0.03174969 -2.0244923
0000c0 a5 0c 57 3f 89 a3 02 3d
       0.8400367 0.03189424

exp_avg_sq f4 [50, 1]
000000 71 5f ca 31 4d 10 3e 2f 27 28 40 31 1b cd 50 31
       5.889824e-09 1.728619e-10 2.7962501e-09 3.0384573e-09
000010 f3 c4 56 32 15 22 08 31 98 2b be 31 8a d8 24 31
       1.25012205e-08 1.9809978e-09 5.534684e-09 2.398823e-09
000020 4b 3a 7d 31 f9 89 3a 2e f1 01 91 2d 5e 13 11 30
       3.6849481e-09 4.2414048e-11 1.6485454e-11 5.2778215e-10
000030 e6 b4 49 32 bd 93 3e 31 93 1e c3 30 69 66 1d 31
       1.1740871e-08 2.7732618e-09 1.4196807e-09 2.290472e-09
000040 25 9d cf 2f 17 ae 6b 32 c4 f6 bc 2f 14 2b 02 30
       3.7764739e-10 1.3718384e-08 3.4372338e-10 4.735494e-10
000050 b5 df 48 31 e3 f1 2c 32 9f 99 88 31 d2 a2 02 2f
       2.9230993e-09 1.0066716e-08 3.9755856e-09 1.1881277e-10
000060 b5 93 73 2f e1 a4 a8 31 b5 94 ba 2e 4c cc 29 31
       2.2153197e-10 4.908188e-09 8.4847164e-11 2.4708866e-09
000070 06 46 5c 32 21 86 3f 2f 35 23 2d 2f a8 f3 5b 33
       1.2821607e-08 1.7419001e-10 1.5746766e-10 5.1211515e-08
000080 e6 31 96 2f df 2c 0d 33 47 19 ee 32 a0 fb 96 30
       2.7320296e-10 3.286993e-08 2.7718341e-08 1.0985453e-09
000090 18 8a c9 30 92 35 61 30 c5 c5 41 2f 59 55 50 31
       1.4663923e-09 8.193065e-10 1.762351e-10 3.0316498e-09
0000a0 bc 7c fe 31 eb 64 c7 30 ef a8 86 31 36 f8 2e 32
       7.4065536e-09 1.4507838e-09 3.919119e-09 1.018457e-08
0000b0 f0 45 35 31 e1 83 53 31 11 d5 04 31 78 bf 76 30
       2.6378721e-09 3.0779506e-09 1.9329642e-09 8.976637e-10
0000c0 d1 ae d8 32 45 e1 a6 30
       2.5225207e-08 1.2142115e-09

exp_avg f4 [50, 1]
000000 a3 22 09 35 1e 11 81 34 3b 82 83 35 a0 a0 33 b6
       5.108688e-07 2.4040577e-07 9.798163e-07 -2.6766575e-06
000010 a7 05 01 36 1d ae 75 b5 7c cc 8c b6 08 0c 15 b6
       1.9225788e-06 -9.152298e-07 -4.1961302e-06 -2.2209733e-06
000020 d9 00 8a b5 07 5a 48 34 ea f0 00 34 1b c5 2d 34
       -1.0282048e-06 1.8659203e-07 1.2008573e-07 1.6183587e-07
000030 fa 2a 10 b7 7d 63 bc b5 72 7f e3 b4 5d 2f 96 b5
       -8.593075e-06 -1.4036046e-06 -4.2374774e-07 -1.1189655e-06
000040 88 6a 5d 34 e2 7f 84 36 e9 08 70 34 1c d1 10 34
       2.0620985e-07 3.948794e-06 2.2354983e-07 1.3487119e-07
000050 9c 81 7d b5 fb 85 02 37 cf 8f 22 b4 73 34 7f 34
       -9.443845e-07 7.779799e-06 -1.5139743e-07 2.3767807e-07
000060 a6 a0 80 34 d2 ef 28 b9 4f 98 75 34 31 f3 38 b6
       2.3958745e-07 -0.00016111069 2.2872813e-07 -2.7559693e-06
000070 f0 de b6 b7 94 36 81 34 de 23 89 34 37 2d f0 b6
       -2.1799904e-05 2.4067833e-07 2.5544335e-07 -7.157821e-06
000080 43 76 76 34 6e bb 99 b7 9e cc 43 b9 82 bc 0a 35
       2.2953559e-07 -1.83263e-05 -0.00018672875 5.168332e-07
000090 47 07 16 b5 4f eb d7 b3 b5 e8 83 34 d2 24 af b5
       -5.5889944e-07 -1.005452e-07 2.4569968e-07 -1.3049232e-06
0000a0 b0 51 d7 b6 6b 38 18 b5 04 e3 09 b6 63 98 51 b6
       -6.417009e-06 -5.670651e-07 -2.0546731e-06 -3.1232128e-06
0000b0 9d 55 90 b5 3a 33 d9 b5 91 6c 58 b5 4b 18 aa b4
       -1.0753753e-06 -1.6182669e-06 -8.0624255e-07 -3.1682643e-07
0000c0 c6 09 94 38 80 fd dc b4
       7.0590104e-05 -4.116264e-07

exp_avg_sq f4 [1, 50]
000000 94 8a 90 34 51 a2 32 34 56 c9 e6 33 ff d0 a4 33
       2.692292e-07 1.6636592e-07 1.07468324e-07 7.674861e-08
000010 f8 db 96 34 1a 0f 8a 32 3f 93 0c 34 69 07 be 33
       2.8099726e-07 1.6072182e-08 1.3092084e-07 8.8489124e-08
000020 ba 4e 94 33 69 a3 a0 34 f9 01 10 33 c4 df 82 33
       6.906107e-08 2.992122e-07 3.3529407e-08 6.0942995e-08
000030 f5 82 7e 33 e2 b5 90 32 62 7b 09 33 c1 fb 26 34
       5.9258088e-08 1.6846517e-08 3.2010014e-08 1.5551542e-07
000040 db 59 ef 34 43 87 97 32 31 bb 0b 34 10 e0 8c 34
       4.4582598e-07 1.7640224e-08 1.3013484e-07 2.624006e-07
000050 db d7 83 32 aa 4d aa 32 07 29 18 33 19 21 8b 34
       1.5348567e-08 1.9825922e-08 3.5427572e-08 2.591485e-07
000060 63 84 ce 33 49 13 b6 33 76 c5 01 33 5a 8c 68 33
       9.6167035e-08 8.4785434e-08 3.0214743e-08 5.414436e-08
000070 ac c7 39 34 04 45 ac 34 34 03 1a 34 af 82 d9 32
       1.7302108e-07 3.2087712e-07 1.4343533e-07 2.5321553e-08
000080 23 d7 e6 33 c7 b1 d7 32 d0 96 23 34 4a 22 a1 32
       1.0749343e-07 2.5110138e-08 1.5235423e-07 1.875846e-08
000090 8d e5 b4 32 b4 79 3f 34 37 07 b4 32 66 64 9a 32
       2.1059146e-08 1.7832537e-07 2.0958039e-08 1.7973615e-08
0000a0 7f d7 ab 32 e7 e5 bc 33 31 17 3d 33 5e af 92 32
       2.0005016e-08 8.796251e-08 4.4026084e-08 1.7076385e-08
0000b0 fe cb 11 33 a6 fa 18 33 6b fb 27 33 0e 82 61 33
       3.3945973e-08 3.561822e-08 3.911138e-08 5.250518e-08
0000c0 d4 15 96 34 92 ca 92 32
       2.795556e-07 1.7088755e-08

exp_avg f4 [1, 50]
000000 a0 37 54 b8 8f 5a 72 b7 1c 91 cc 33 10 b2 c1 b6
       -5.0596544e-05 -1.4445409e-05 9.5258855e-08 -5.7725774e-06
000010 d9 24 32 38 f5 f7 8c 35 60 36 f7 37 9b db 60 b8
       4.2472824e-05 1.0502978e-06 2.9470015e-05 -5.3610285e-05
000020 f2 ba 54 b6 73 65 88 37 e4 0e 01 35 15 b2 2d 38
       -3.1699278e-06 1.6259704e-05 4.8077914e-07 4.1412266e-05
000030 77 db aa 37 e9 1f 90 35 26 c4 18 35 fc 19 ff b7
       2.0367776e-05 1.0738123e-06 5.6909846e-07 -3.0410469e-05
000040 7e 84 02 39 cd 6d 7e 35 e5 52 53 37 20 08 46 37
       0.00012447123 9.4782155e-07 1.259588e-05 1.1803611e-05
000050 3b 72 8c 35 13 06 8c 35 86 0a ac 34 58 ee 07 b9
       1.0464058e-06 1.0432581e-06 3.2045153e-07 -0.00012963393
000060 7a ea b6 b8 2d 9e 52 b5 e2 93 32 35 8b 12 0f b7
       -8.722111e-05 -7.846127e-07 6.6525365e-07 -8.527782e-06
000070 8d ef 53 38 c7 8d 5e b8 21 fa c4 b7 86 71 35 35
       5.052942e-05 -5.3060965e-05 -2.3481496e-05 6.759295e-07
000080 3e 23 f7 b4 3c 21 7c 35 67 54 01 38 27 e0 81 35
       -4.6032977e-07 9.392568e-07 3.0834603e-05 9.676486e-07
000090 1b 53 95 35 4c c0 4c b8 d1 da 8f 35 d7 a2 92 35
       1.1125552e-06 -4.881648e-05 1.0718014e-06 1.092524e-06
0000a0 c7 b5 8c 35 ef 12 de 35 58 83 96 36 d7 61 8d 35
       1.0483717e-06 1.6545799e-06 4.485639e-06 1.0533794e-06
0000b0 6f 19 d9 34 88 a0 61 b4 4b b8 68 35 b1 6d 2b 37
       4.0437905e-07 -2.1013159e-07 8.6694916e-07 1.0217934e-05
0000c0 98 4b 9e 38 f9 c0 6e 35
       7.5481075e-05 8.894272e-07

exp_avg_sq f4 [1, 50]
000000 ad 24 d0 34 a4 26 af 33 1d 50 25 34 8a 7e 0d 34
       3.8769704e-07 8.156101e-08 1.5395968e-07 1.3177683e-07
000010 2e 9b 84 34 de c5 6b 34 e7 9a 87 34 04 ca dd 33
       2.4699824e-07 2.1958064e-07 2.5258416e-07 1.0327861e-07
000020 43 0b bb 33 ec df 84 34 9c 56 4a 34 27 8f b8 33
       8.7099146e-08 2.474984e-07 1.8844224e-07 8.594207e-08
000030 bd dd 83 33 24 8e e7 34 e4 8f 90 34 3e 29 1b 34
       6.140497e-08 4.3130524e-07 2.6926784e-07 1.4450504e-07
000040 3c 79 96 34 3f d9 98 33 70 f8 b7 34 5d f8 23 34
       2.8027887e-07 7.1175684e-08 3.4267168e-07 1.5270912e-07
000050 70 08 ac 33 81 1c c7 33 04 50 83 34 26 17 40 34
       8.010909e-08 9.2718444e-08 2.445887e-07 1.7889815e-07
000060 a4 89 74 34 ca c4 28 34 d6 70 95 34 84 ab 3a 34
       2.2774344e-07 1.571781e-07 2.7835512e-07 1.7384997e-07
000070 ad da 5d 34 fe 9f 16 34 f6 0c 81 34 a7 15 3a 34
       2.0661783e-07 1.4028043e-07 2.4037553e-07 1.7330477e-07
000080 61 11 87 34 41 a4 ad 34 c1 cb 42 34 07 8f 84 34
       2.5158354e-07 3.2343272e-07 1.8141783e-07 2.4690982e-07
000090 43 4c b5 34 07 f7 03 34 a5 e9 49 34 09 5e d1 34
       3.3769365e-07 1.2290194e-07 1.8804583e-07 3.8997703e-07
0000a0 b9 7d 8e 34 94 bf 09 34 c2 a9 71 34 98 a2 13 34
       2.6541036e-07 1.2828815e-07 2.2506632e-07 1.3749593e-07
0000b0 64 87 fe 33 52 0b 60 34 44 63 09 34 35 39 8d 34
       1.1852424e-07 2.0865744e-07 1.2795232e-07 2.630492e-07
0000c0 b2 ca 40 34 ba 2d fa 33
       1.7955134e-07 1.164985e-07

exp_avg f4 [1, 50]
000000 83 b7 1d b8 eb 98 74 37 60 a6 c7 35 f1 d5 8e 36
       -3.7602626e-05 1.4579137e-05 1.4875077e-06 4.256836e-06
000010 e4 f4 3a 37 24 96 cf b5 38 15 d3 b6 74 aa 96 36
       1.1143482e-05 -1.5466399e-06 -6.29076e-06 4.4901917e-06
000020 50 b0 0b b7 b6 07 98 37 d8 97 51 b5 f0 23 04 b7
       -8.326097e-06 1.8123403e-05 -7.807953e-07 -7.8761805e-06
000030 c6 9c 9f b6 50 d1 b0 37 93 ff e9 34 e7 35 46 b6
       -4.75682e-06 2.1078304e-05 4.3585587e-07 -2.9535674e-06
000040 70 6b 4c 36 92 b9 66 36 f8 69 4b 36 ad ee 0c 37
       3.0460906e-06 3.4380687e-06 3.031104e-06 8.400221e-06
000050 b2 4c 52 36 11 89 e8 b6 16 b5 a0 36 dd 91 8d b5
       3.133708e-06 -6.9300954e-06 4.7894528e-06 -1.054777e-06
000060 19 30 32 38 e9 17 c5 36 5e 70 ba 37 42 54 e4 b6
       4.24833e-05 5.873841e-06 2.2225253e-05 -6.8047384e-06
000070 8b 1e 3e 36 d0 47 82 36 7f e7 ee b5 6d ef ac 36
       2.8329985e-06 3.882662e-06 -1.7799756e-06 5.1538723e-06
000080 6e 1c 91 b6 ee 85 fd 35 12 27 ca b6 e0 77 4f b7
       -4.3246464e-06 1.8888948e-06 -6.0246175e-06 -1.2366072e-05
000090 2e 63 8f b8 aa 1c ee 36 a3 b9 b7 36 d5 7b ed 37
       -6.837245e-05 7.0962897e-06 5.475436e-06 2.8310265e-05
0000a0 29 07 bd b5 05 8b 1e b5 ea ad 53 b6 9e 33 7c 36
       -1.4083681e-06 -5.9061887e-07 -3.1542681e-06 3.7580971e-06
0000b0 4d dd 06 37 90 e9 84 34 47 ca 91 34 72 64 57 b8
       8.038548e-06 2.4756855e-07 2.715553e-07 -5.135354e-05
0000c0 cd 09 a1 36 83 6d f7 b6
       4.799315e-06 -7.3739225e-06

exp_avg_sq f4 [50]
000000 7d c7 78 31 34 3c 1e 31 5d 7b c0 30 da ee 02 33
       3.6202146e-09 2.3026248e-09 1.4004901e-09 3.0485218e-08
000010 56 bf 45 30 c9 f3 6f 2f 8c df 54 30 1f c2 94 32
       7.1940087e-10 2.1823533e-10 7.744283e-10 1.7317744e-08
000020 ba 78 48 31 1b 17 cc 30 f0 3d ed 2d 53 f1 82 30
       2.9172456e-09 1.484952e-09 2.6971286e-11 9.527333e-10
000030 0e 3e f9 30 0a 27 ad 2f 89 b8 0a 30 e3 8b 8e 31
       1.8134771e-09 3.1496256e-10 5.046635e-10 4.148647e-09
000040 eb 0e 1b 30 4d 06 0a 30 58 f4 91 2f dd e3 c9 2f
       5.640987e-10 5.021306e-10 2.6548963e-10 3.6723594e-10
000050 d7 48 5e 32 68 f9 07 31 98 38 8c 30 12 41 22 2f
       1.2938663e-08 1.9786857e-09 1.0202426e-09 1.4756932e-10
000060 b9 56 11 31 0b 60 67 33 2d 5e 9a 2e cb 7d 03 32
       2.1149573e-09 5.387123e-08 7.019838e-11 7.653806e-09
000070 b9 ce b4 32 13 52 20 2f f7 f4 df 2e 24 5d 19 32
       2.1048765e-08 1.4581074e-10 1.01843804e-10 8.92695e-09
000080 ee 2b c1 2f 9e 6f e6 30 f9 86 f7 32 33 4c c9 32
       3.513771e-10 1.6766426e-09 2.8815963e-08 2.3434131e-08
000090 55 24 62 30 e6 24 04 30 95 01 ce 2e df a3 e6 30
       8.226995e-10 4.8073756e-10 9.3680765e-11 1.6781277e-09
0000a0 e9 81 22 31 72 d9 c5 30 81 d7 92 32 8a 34 64 31
       2.3647948e-09 1.4395438e-09 1.7094637e-08 3.3208232e-09
0000b0 e7 ce c2 30 b4 f2 c1 30 58 c1 e9 30 a5 45 5a 32
       1.4174163e-09 1.4111579e-09 1.7007933e-09 1.2705105e-08
0000c0 2f 5b 97 30 0b eb 66 32
       1.1012612e-09 1.3441205e-08

exp_avg f4 [50]
000000 44 4e 98 b4 01 fa 18 33 f1 57 20 37 e5 26 9b 35
       -2.8369152e-07 3.5617635e-08 9.557219e-06 1.155972e-06
000010 c7 0f a9 b6 1e 3e f5 32 4a 28 0f 34 23 59 5a 35
       -5.038429e-06 2.8550001e-08 1.333257e-07 8.134104e-07
000020 09 e7 bd b3 2d 91 63 b0 86 54 b3 31 b3 92 9a 32
       -8.8430234e-08 -8.2788426e-10 5.219195e-09 1.799467e-08
000030 8e 9a a2 34 2b c7 0d 33 e2 ff d6 32 32 34 51 33
       3.0287305e-07 3.3010263e-08 2.5029241e-08 4.8709076e-08
000040 b5 12 c8 32 7e fd 9a b6 bb 4a 9a 32 fa 17 e4 32
       2.3291571e-08 -4.619068e-06 1.7961943e-08 2.6553597e-08
000050 57 cc 6f b4 77 a9 da b4 ba 53 ec 36 7d db 62 32
       -2.2332948e-07 -4.0728966e-07 7.043095e-06 1.3204837e-08
000060 e0 89 06 33 03 64 82 b9 d2 20 02 32 ee b0 53 35
       3.1324703e-08 -0.00024870047 7.574458e-09 7.886109e-07
000070 be e3 60 37 6a ac 83 32 7b f1 33 32 2d 20 58 35
       1.3404466e-05 1.5328812e-08 1.0474078e-08 8.051309e-07
000080 33 ec bf 32 1a 39 02 35 de cf e9 b8 fd 7c 66 b5
       2.2342737e-08 4.851187e-07 -0.00011149024 -8.586356e-07
000090 fd e4 32 33 6f fc 10 33 60 6e 4f 32 4c 68 58 32
       4.1652118e-08 3.37572e-08 1.2074082e-08 1.2596569e-08
0000a0 09 e3 bc 34 4d 83 57 33 f8 ec 8b 31 c8 f3 95 b3
       3.518292e-07 5.0178006e-08 4.0723727e-09 -6.982697e-08
0000b0 4a bc 5c 32 d2 43 59 33 6f d7 12 33 55 f9 85 34
       1.2848497e-08 5.0585932e-08 3.418921e-08 2.4954593e-07
0000c0 e8 5d aa b7 18 4d b1 33
       -2.0309308e-05 8.256228e-08

exp_avg_sq f4 [50, 1]
000000 e5 8c c7 32 3d cc c8 31 0a 34 b8 32 d2 64 b0 30
       2.323072e-08 5.8439853e-09 2.1444084e-08 1.283434e-09
000010 32 bb 0f 32 8c 4c ca 31 ff 93 4c 31 61 eb 5e 32
       8.366259e-09 5.887676e-09 2.9770033e-09 1.297562e-08
000020 e6 ad 71 33 71 5e 45 33 c5 f4 ae 32 c8 5d 08 31
       5.6270345e-08 4.595353e-08 2.0367574e-08 1.9843913e-09
000030 5b dd 74 30 ce a2 c4 31 2e ea d6 30 97 10 ed 31
       8.908125e-10 5.7228595e-09 1.5637107e-09 6.899494e-09
000040 c3 d9 c5 32 5c da 45 31 0c c5 0e 32 0c 43 d4 32
       2.3032845e-08 2.8791396e-09 8.310291e-09 2.4710538e-08
000050 c3 d4 2e 33 ca b4 c8 31 4b eb 6e 32 cb 67 c3 32
       4.0706038e-08 5.8413194e-09 1.3906923e-08 2.2748187e-08
000060 1b fd 92 32 ea fc 46 32 ef 1e cd 32 34 9b 3f 32
       1.7111736e-08 1.1582623e-08 2.3879208e-08 1.1152952e-08
000070 ca 35 a7 31 65 91 8c 32 e1 c5 4b 32 51 f2 5f 31
       4.866455e-09 1.6364263e-08 1.1861148e-08 3.2588512e-09
000080 41 60 78 33 bc c6 cc 32 3a b2 2e 30 25 87 89 33
       5.7829542e-08 2.38391e-08 6.3554106e-10 6.404142e-08
000090 c2 86 44 32 34 fb 99 32 ce 34 6c 32 77 72 b9 32
       1.1439342e-08 1.7925778e-08 1.3749014e-08 2.1588887e-08
0000a0 6c 40 59 31 08 b6 7e 30 23 df 1e 32 78 07 b1 32
       3.1614276e-09 9.2663344e-10 9.247546e-09 2.0608908e-08
0000b0 8a b2 b1 31 5c 27 cc 32 da 70 5c 31 3a 3b ad 32
       5.1716755e-09 2.3766624e-08 3.2078362e-09 2.0166784e-08
0000c0 6a 61 54 32 c9 a0 3c 32
       1.23621735e-08 1.0979599e-08

exp_avg f4 [50, 1]
000000 4b 3d 91 b4 14 d3 7e 33 0b 3b 8d b2 97 30 95 b4
       -2.705295e-07 5.9330958e-08 -1.644141e-08 -2.7788766e-07
000010 c4 fd 8a 35 89 cd b2 b4 a3 2f 96 b4 cf f9 53 b5
       1.0355657e-06 -3.330463e-07 -2.7974338e-07 -7.8967145e-07
000020 b5 de 71 38 2b 7e fa b5 1c 83 91 b5 77 f8 17 b5
       5.766629e-05 -1.8663171e-06 -1.08415e-06 -5.661345e-07
000030 a2 7e 7f b4 02 df cc 35 67 7a 9a b4 46 d6 7a b6
       -2.3794794e-07 1.5264088e-06 -2.8773795e-07 -3.7377627e-06
000040 a3 69 85 b5 43 14 86 b4 e1 c5 c3 35 55 75 91 35
       -9.940017e-07 -2.4974187e-07 1.4586223e-06 1.083749e-06
000050 22 d9 01 b6 39 65 7e 33 77 20 5a 33 c3 ed d0 b5
       -1.9348886e-06 5.9231045e-08 5.0786607e-08 -1.5566405e-06
000060 c6 24 ae b3 8c 73 82 b4 22 d2 f4 b4 d0 f4 7a b5
       -8.1091954e-08 -2.4298458e-07 -4.5601433e-07 -9.3488507e-07
000070 a8 68 bd b2 18 3b 38 37 5e 24 71 b5 f0 2d c4 b4
       -2.2050088e-08 1.09810135e-05 -8.983242e-07 -3.654127e-07
000080 c9 16 af 36 9f 4b 1f 36 33 08 71 b4 b3 e6 08 36
       5.218059e-06 2.3736864e-06 -2.2447857e-07 2.0399864e-06
000090 f6 6c 46 b5 d8 fe 30 32 59 0b f3 32 99 87 cf b5
       -7.3919307e-07 1.0302493e-08 2.8294084e-08 -1.5462166e-06
0000a0 7e a1 98 b4 77 02 70 b4 24 8b 24 b5 d2 10 84 b5
       -2.8429707e-07 -2.2352638e-07 -6.1297237e-07 -9.839662e-07
0000b0 6b b5 19 33 7e 7b 81 b4 2e e4 89 b4 8b e4 b0 b4
       3.5788087e-08 -2.4117975e-07 -2.568426e-07 -3.2948842e-07
0000c0 df fc 57 b5 0b 5e 84 b5
       -8.046172e-07 -9.862136e-07

exp_avg_sq f4 [50, 1]
000000 29 df 05 32 97 fd 83 31 6f 70 49 30 49 3e 1c 30
       7.79236e-09 3.8414316e-09 7.328315e-10 5.684098e-10
000010 84 2c 75 30 3c 2b 2b 30 2f e9 0c 30 9c 96 e0 2f
       8.919374e-10 6.227088e-10 5.1263077e-10 4.0852377e-10
000020 77 cf 1b 31 89 72 19 31 8f 3e 12 30 8f 8c 63 31
       2.2673399e-09 2.2329536e-09 5.320339e-10 3.3112746e-09
000030 d0 41 55 30 d9 83 13 31 f9 c7 3b 31 10 11 c9 2f
       7.7582474e-10 2.1466262e-09 2.7325753e-09 3.657381e-10
000040 21 ad ae 31 21 ff a0 2f 39 73 10 32 94 9a 2a 31
       5.083749e-09 2.928511e-10 8.408102e-09 2.4826123e-09
000050 3e 3b e8 2f de ba b8 30 e2 a6 cd 30 1d ff 8c 2f
       4.2242648e-10 1.3440873e-09 1.4963144e-09 2.564712e-10
000060 25 39 96 2f 5d 2c eb 30 5d 69 ad 2e d8 82 19 30
       2.7325445e-10 1.7111109e-09 7.8858454e-11 5.5847016e-10
000070 e3 65 8c 30 76 6d 41 30 0b ee e0 31 eb 98 9e 31
       1.0215299e-09 7.0368544e-10 6.5463204e-09 4.61579e-09
000080 92 6e 8d 31 fa 5c 3a 31 c2 a3 8b 30 33 64 11 31
       4.1162105e-09 2.7119413e-09 1.0160124e-09 2.1157234e-09
000090 d0 97 e4 31 9b c6 ee 2f c2 6e 06 32 48 52 b4 30
       6.6529324e-09 4.3433065e-10 7.82501e-09 1.3120109e-09
0000a0 4e 3e 0b 32 ec 11 9f 2f 05 a2 d7 2f f2 93 79 30
       8.105031e-09 2.8934666e-10 3.9223394e-10 9.0795915e-10
0000b0 b8 1d ab 30 20 c1 df 2f 9f 60 93 30 33 f5 3e 31
       1.2450334e-09 4.0700687e-10 1.0723119e-09 2.7788019e-09
0000c0 36 8a d1 30 20 50 40 30
       1.5246033e-09 6.996306e-10

exp_avg f4 [50, 1]
000000 79 26 b5 b6 a8 34 11 b6 38 0e eb b3 41 bc 2c b4
       -5.398699e-06 -2.1637334e-06 -1.09456266e-07 -1.6087235e-07
000010 2c 7e c4 b4 ad 9b 2f b3 bc 7d 1f 33 a6 f8 23 b4
       -3.6599647e-07 -4.088695e-08 3.7134427e-08 -1.5271016e-07
000020 08 6c 55 35 98 ec df b5 e8 17 59 b3 f2 8d 78 35
       7.950589e-07 -1.6683653e-06 -5.0545992e-08 9.2593757e-07
000030 2c 61 b9 34 14 da 5c 35 cb 16 21 b4 17 6d 05 34
       3.4529637e-07 8.227373e-07 -1.5002585e-07 1.2426277e-07
000040 82 30 dc b3 40 05 06 b4 0b cb e6 b3 c6 ec 02 b5
       -1.0253372e-07 -1.2481632e-07 -1.0747143e-07 -4.8773325e-07
000050 14 97 11 b4 59 d4 09 35 23 ad 16 b4 c7 7b 13 b3
       -1.3559139e-07 5.1345484e-07 -1.4032825e-07 -3.433868e-08
000060 03 a9 80 35 40 de 98 b4 cf 3b 9e b4 f8 d5 87 34
       9.585932e-07 -2.8473914e-07 -2.947331e-07 2.5301392e-07
000070 7f b4 25 b4 1c 68 db b3 5f b8 ca b3 05 18 f7 b4
       -1.5432487e-07 -1.02169196e-07 -9.439895e-08 -4.6024812e-07
000080 8f d4 27 33 62 07 51 b4 94 ef a3 34 e7 af a7 34
       3.907604e-08 -1.9467328e-07 3.0535432e-07 3.123416e-07
000090 fb b7 31 b7 0d 02 5f b4 99 e7 22 b5 aa b9 7f 35
       -1.0592858e-05 -2.076924e-07 -6.068672e-07 9.526508e-07
0000a0 69 e1 0e b4 47 67 2e b3 4d c0 40 b2 96 15 47 b4
       -1.3306784e-07 -4.0606462e-08 -1.1219595e-08 -1.8541172e-07
0000b0 6e 1d c6 b4 4d c9 84 b3 32 26 ce b3 11 e7 2b 36
       -3.6901787e-07 -6.1833454e-08 -9.59957e-08 2.5615484e-06
0000c0 f0 e6 87 b4 5a da bd 34
       -2.531374e-07 3.5362865e-07

exp_avg_sq f4 [50, 1]
000000 79 1c 39 30 46 3c d3 31 19 14 34 31 5b 97 db 30
       6.734307e-10 6.1477605e-09 2.6204872e-09 1.5977365e-09
000010 09 ba bf 30 ac 43 11 30 18 3d 68 32 42 92 59 32
       1.3949953e-09 5.284686e-10 1.3518068e-08 1.2664318e-08
000020 2d 16 0b 30 73 aa 82 30 d0 b1 14 30 70 64 33 32
       5.059942e-10 9.50719e-10 5.4094773e-10 1.0442008e-08
000030 51 58 78 32 44 eb b0 2f 53 e8 a0 2f 8e 13 cb 31
       1.4455581e-08 3.218138e-10 2.9268907e-10 5.9103007e-09
000040 a6 a1 70 33 3a ff fe 30 bd 68 08 2f 56 cd 8f 30
       5.6026373e-08 1.8553472e-09 1.2406338e-10 1.0462979e-09
000050 e7 2f 03 30 11 02 fe 2f 32 e4 9f 30 79 d4 80 30
       4.7725596e-10 4.62038e-10 1.163363e-09 9.373614e-10
000060 3e 49 ad 32 35 08 8c 30 ca 61 1b 30 ff a4 92 2f
       2.0173157e-08 1.0188673e-09 5.652764e-10 2.6674482e-10
000070 de fe 83 32 e7 af 68 32 bf 62 f5 31 7a c1 2c 31
       1.5366307e-08 1.3544173e-08 7.1416646e-09 2.5139273e-09
000080 40 36 3f 31 c5 cc b2 2f 4f 25 f6 31 1e 7e c2 30
       2.7824996e-09 3.252351e-10 7.163784e-09 1.4151202e-09
000090 16 2b 9e 2d ad 56 ac 30 92 47 30 2f 86 64 4f 2f
       1.7981654e-11 1.2539282e-09 1.6032534e-10 1.8862253e-10
0000a0 12 41 d0 2f 39 38 05 30 fb 48 3a 32 47 4a 12 30
       3.7881215e-10 4.8465015e-10 1.0843219e-08 5.3220045e-10
0000b0 a3 41 9c 30 2c e8 88 31 6c 93 0e 31 35 fb 35 32
       1.1369149e-09 3.984516e-09 2.074752e-09 1.05927045e-08
0000c0 8b b4 98 32 1d 76 4e 31
       1.777723e-08 3.0044085e-09

exp_avg f4 [50, 1]
000000 fe 5c e0 b5 7e e6 0a b6 19 74 84 31 26 7d 1e b5
       -1.6716365e-06 -2.0697767e-06 3.8549044e-09 -5.90417e-07
000010 5c 51 01 36 7a 91 17 34 e1 c6 e1 36 24 62 4e 37
       1.9269855e-06 1.4115895e-07 6.728675e-06 1.2301407e-05
000020 e6 68 3d b4 08 d6 27 35 40 64 58 33 45 3a 53 37
       -1.7640158e-07 6.2523804e-07 5.0382596e-08 1.2590147e-05
000030 1f e7 d8 b6 3f e9 ec 33 dc b7 42 33 04 3d 91 b6
       -6.4642077e-06 1.10320336e-07 4.5336364e-08 -4.32844e-06
000040 70 e1 21 b8 0e 73 6c 34 7d 52 8e 34 9d 12 0a 35
       -3.8595346e-05 2.202107e-07 2.650958e-07 5.143609e-07
000050 e2 df 12 34 c4 c8 fe 33 c2 eb 3a 33 46 43 98 b6
       1.3678758e-07 1.1864316e-07 4.352092e-08 -4.5377847e-06
000060 4c bd f7 37 63 3a 5d b3 df 9b 98 33 46 57 d6 b4
       2.9532843e-05 -5.1508675e-08 7.106404e-08 -3.9924106e-07
000070 70 61 23 37 cd 6b fe b6 1e d2 83 b6 83 0b 12 34
       9.7382435e-06 -7.5823395e-06 -3.928565e-06 1.3601498e-07
000080 69 e6 84 b3 5b eb ae 33 17 8d 99 36 6e a8 4e 34
       -6.1886404e-08 8.145317e-08 4.5761803e-06 1.924652e-07
000090 73 51 dc 32 cc 5d 38 b6 9f 7f 98 33 5e e8 b3 33
       2.564841e-08 -2.7472734e-06 7.101266e-08 8.3776044e-08
0000a0 13 58 e7 33 fb f6 c8 33 ec d2 c4 b4 ab 1e 14 34
       1.0772796e-07 9.358151e-08 -3.666131e-07 1.3794731e-07
0000b0 f9 76 6c 33 14 65 f2 b3 3e fa 11 34 2b 56 af 34
       5.5056237e-08 -1.1287389e-07 1.3595215e-07 3.2658986e-07
0000c0 1b 4c 74 b7 8b 6d 89 34
       -1.4561253e-05 2.5597942e-07

exp_avg_sq f4 [50]
000000 5c f7 79 30 b6 ee c1 30 24 95 d3 2e e5 d7 6b 2f
       9.093719e-10 1.4110444e-09 9.621662e-11 2.1449827e-10
000010 eb 85 76 30 f0 bc df 2f c3 fa 52 30 de 32 51 30
       8.968459e-10 4.0697712e-10 7.675391e-10 7.6106044e-10
000020 33 cf a8 30 96 53 b8 31 9e c1 08 2f 3e 46 e8 30
       1.2282498e-09 5.3646074e-09 1.2437915e-10 1.6900186e-09
000030 34 25 1e 31 0b 0c 7a 31 40 0a d2 30 9b 25 4e 2f
       2.3013174e-09 3.6386634e-09 1.5282424e-09 1.8748951e-10
000040 68 47 44 30 b4 85 a8 30 26 15 97 30 76 bd 56 30
       7.140586e-10 1.226161e-09 1.0992707e-09 7.8121987e-10
000050 4a b7 b0 30 e3 2c a8 30 d3 dd 67 31 33 b7 e2 2e
       1.2857779e-09 1.2236366e-09 3.3741017e-09 1.0309833e-10
000060 fe 58 ee 30 e3 8b 2e 30 d4 09 ac 30 56 f1 59 2f
       1.7342072e-09 6.349962e-10 1.251744e-09 1.9821775e-10
000070 16 37 bc 2f 77 f5 3a 31 e8 2c 6a 30 eb bb 2c 30
       3.4236142e-10 2.7206093e-09 8.519252e-10 6.2840283e-10
000080 6a 53 8e 31 44 25 40 2f 54 93 14 2f 1b b6 4e 31
       4.142227e-09 1.7475538e-10 1.3512863e-10 3.008046e-09
000090 01 fd 1a 30 4d 09 d6 2f 69 cd b6 30 1a d9 02 31
       5.6384414e-10 3.8932982e-10 1.3300624e-09 1.9040898e-09
0000a0 9c 6d 0f 31 ba cb 15 2f ed a1 9c 2f cf ca 9d 2f
       2.0871544e-09 1.3623849e-10 2.849129e-10 2.8702238e-10
0000b0 b4 6f 89 30 8c 4b 4c 2f a4 f2 2a 31 10 87 bc 30
       9.99981e-10 1.8580532e-10 2.4876181e-09 1.3717187e-09
0000c0 21 56 0d 30 cf b9 f2 2f
       5.14179e-10 4.4151569e-10

exp_avg f4 [50]
000000 a2 5d 24 b1 e4 2a 28 b4 33 5a 32 31 b0 05 73 b2
       -2.3918365e-09 -1.5661823e-07 2.5953681e-09 -1.4145755e-08
000010 05 59 81 b3 c1 3e 89 32 f7 09 5b 33 40 ee 31 b3
       -6.023223e-08 1.5977436e-08 5.0998974e-08 -4.142771e-08
000020 98 e6 d7 33 c7 45 a1 b3 21 dd 25 32 22 83 f4 33
       1.00536624e-07 -7.509839e-08 9.654543e-09 1.1385988e-07
000030 c1 7b c4 33 b0 3c 02 b4 d3 69 a6 31 fe ae da 31
       9.149472e-08 -1.2129271e-07 4.8432667e-09 6.3645293e-09
000040 6e 14 a2 b2 9d 7f 58 b3 f1 00 b3 b2 4e 7d 96 b3
       -1.8868572e-08 -5.0407483e-08 -2.083877e-08 -7.007712e-08
000050 6f a6 38 b3 ee 38 a8 33 75 1f 7a b3 ee 1d 30 32
       -4.299221e-08 7.833465e-08 -5.823627e-08 1.02513535e-08
000060 55 ea f2 b3 fe 00 25 b3 93 36 b1 b3 76 c0 a2 32
       -1.1311628e-07 -3.841796e-08 -8.252132e-08 1.8946803e-08
000070 ea 15 eb b1 0d dd 79 b3 1e ce bc 32 6c 03 09 b3
       -6.8418915e-09 -5.8175875e-08 2.1979812e-08 -3.190091e-08
000080 11 92 b5 33 a3 35 fb 30 87 38 51 32 11 a8 45 34
       8.4550386e-08 1.8277898e-09 1.2178254e-08 1.8408197e-07
000090 b8 c1 53 33 90 31 2a b3 04 13 5f b3 51 08 cb b3
       4.9303452e-08 -3.9626286e-08 -5.1938528e-08 -9.454437e-08
0000a0 2f f6 de 32 d9 9a 26 32 a4 4b b6 32 14 7c 71 b2
       2.5956153e-08 9.69768e-09 2.1221986e-08 -1.4056258e-08
0000b0 59 92 be b3 08 fd da 31 8d 35 dd 31 50 a8 d5 34
       -8.874185e-08 6.3734014e-09 6.4380345e-09 3.9796805e-07
0000c0 86 77 d4 b2 8c df 34 33
       -2.4734401e-08 4.211283e-08

exp_avg_sq f4 [1, 50]
000000 11 7b 9a 34 68 ef 0f 32 c0 96 c3 33 ee 56 f5 33
       2.8774278e-07 8.37813e-09 9.1078164e-08 1.1424514e-07
000010 ef be e3 33 ac a0 c8 32 38 4c 5a 34 a5 76 0e 34
       1.0605242e-07 2.335613e-08 2.033056e-07 1.3267943e-07
000020 b4 00 e8 33 ee 32 6f 33 cc 5c 01 33 cc 0c 58 33
       1.080347e-07 5.5692844e-08 3.011955e-08 5.0303058e-08
000030 41 51 bd 34 02 c8 e5 32 f2 fa 82 33 a3 3f de 32
       3.5263113e-07 2.6750062e-08 6.0992434e-08 2.587314e-08
000040 9e bf 13 33 4b 41 ae 33 46 c9 27 33 39 18 b3 32
       3.440038e-08 8.114383e-08 3.9065775e-08 2.0849358e-08
000050 1c de 95 33 9c f0 f1 34 b4 4d cb 33 a5 ea 15 33
       6.9787546e-08 4.5064814e-07 9.467058e-08 3.4905174e-08
000060 cf 8a d6 32 ed df 16 35 cc 80 5e 33 24 25 b1 34
       2.4976002e-08 5.620521e-07 5.1805543e-08 3.2995843e-07
000070 c6 c3 17 35 0b 30 b2 32 77 d3 3a 33 0f 1f 06 35
       5.653677e-07 2.0743775e-08 4.3498826e-08 4.9964086e-07
000080 96 cf e2 32 b7 a3 19 35 04 d7 76 35 15 4f fe 33
       2.6404262e-08 5.723518e-07 9.195503e-07 1.18421816e-07
000090 da 99 c0 32 07 32 8c 32 17 07 e9 32 d7 6f eb 33
       2.2421705e-08 1.6320895e-08 2.7127994e-08 1.0963384e-07
0000a0 3f 7f 86 34 03 b1 86 32 0e a6 14 33 48 5b a8 33
       2.505203e-07 1.5680149e-08 3.460996e-08 7.8397136e-08
0000b0 4c 53 9c 33 b0 99 c7 32 9c f8 2d 33 47 e6 02 34
       7.279468e-08 2.3236538e-08 4.050581e-08 1.2190968e-07
0000c0 ec 81 6b 34 dc 62 6b 33
       2.1933346e-07 5.4805113e-08

exp_avg f4 [1, 50]
000000 24 5d 1f b8 e5 5b 87 35 10 83 15 39 36 2a a0 37
       -3.7995298e-05 1.0085029e-06 0.00014258572 1.9093142e-05
000010 3e 57 68 b8 27 84 05 36 35 94 a8 37 c6 46 c0 37
       -5.539436e-05 1.9895467e-06 2.0096175e-05 2.292114e-05
000020 17 25 e7 b6 32 fc 61 35 37 84 d9 35 94 41 a3 35
       -6.8886543e-06 8.4186024e-07 1.620624e-06 1.2163532e-06
000030 05 4c 1b 38 15 5c 02 36 46 2e c8 35 42 89 0a 36
       3.702568e-05 1.9425108e-06 1.4914629e-06 2.0643497e-06
000040 52 07 ed 35 d0 59 71 b8 3a 82 ec 35 22 96 f8 35
       1.7660007e-06 -5.7542522e-05 1.7621271e-06 1.8521134e-06
000050 72 33 4d b6 3b 37 ec b8 cf 99 0d 39 c7 22 fd 35
       -3.0577326e-06 -0.000112636444 0.00013504106 1.886009e-06
000060 ce bb f9 35 35 bc 0f ba 35 eb cc 35 e8 ca 4c 38
       1.8606604e-06 -0.0005483062 1.5267639e-06 4.882636e-05
000070 4d 7f 58 39 02 d1 e4 35 08 54 e2 35 f9 23 f7 38
       0.00020646788 1.7048153e-06 1.6862768e-06 0.00011784578
000080 f2 c4 ff 35 75 b6 84 38 12 53 03 ba 75 ff a1 b7
       1.9056299e-06 6.328236e-05 -0.0005009632 -1.9311652e-05
000090 a2 84 05 36 a0 05 ef 35 26 f9 ef 35 15 bc bc 33
       1.9895747e-06 1.7808525e-06 1.7879399e-06 8.788644e-08
0000a0 29 6e 10 38 54 20 f3 35 f9 1d 10 36 a2 9e 78 b6
       3.443487e-05 1.811432e-06 2.1475119e-06 -3.7047216e-06
0000b0 8d e0 33 33 4e 91 06 36 01 0f ea 35 72 ca 37 37
       4.1880913e-08 2.0052134e-06 1.7438725e-06 1.09547855e-05
0000c0 6a 17 7a b9 2f c0 7d 36
       -0.0002385058 3.7811803e-06

exp_avg_sq f4 [50]
000000 ca a4 a9 31 7f e9 05 31 37 1d 2e 32 9f c7 8b 30
       4.9372817e-09 1.9486774e-09 1.0134776e-08 1.0170317e-09
000010 58 89 b7 2f 28 24 a1 30 b0 75 14 2f c0 5e b5 31
       3.3385095e-10 1.1724568e-09 1.3502333e-10 5.278565e-09
000020 f3 7b c4 30 88 43 c7 30 2a 89 07 30 21 dc e3 30
       1.4296105e-09 1.4498349e-09 4.9307636e-10 1.6578988e-09
000030 1b 77 2e 2f 81 74 00 2f 24 a9 4a 30 7e 08 6a 30
       1.5867523e-10 1.1682923e-10 7.3727535e-10 8.514077e-10
000040 20 9c 9b 31 0a ff 00 2f b4 74 05 31 e0 8b 3a 31
       4.528843e-09 1.173214e-10 1.9420385e-09 2.7146072e-09
000050 15 23 ad 30 76 11 9f 2f cc 11 ce 2f ea c6 bb 31
       1.2597378e-09 2.8934338e-10 3.7483827e-10 5.46503e-09
000060 69 da 1d 30 b6 a7 51 30 36 85 a1 30 78 f2 ce 30
       5.7426647e-10 7.627209e-10 1.1752153e-09 1.5057386e-09
000070 73 92 32 2f 93 0b 3d 32 05 2b 00 30 57 7a 04 31
       1.6241035e-10 1.100388e-08 4.6627263e-10 1.927807e-09
000080 e6 6e e4 30 ef ca 2c 31 d7 6d 14 2d 70 13 c2 30
       1.6620703e-09 2.5144649e-09 8.437215e-12 1.4120882e-09
000090 d2 97 6c 30 8b de 3b 30 b3 4b 16 30 60 00 50 31
       8.607205e-10 6.8346456e-10 5.4677257e-10 3.0268197e-09
0000a0 31 d3 cb 30 d2 b7 17 2e a0 cd c0 2f 91 20 88 30
       1.4830218e-09 3.449669e-11 3.5070702e-10 9.904558e-10
0000b0 69 88 8f 30 29 dc 55 30 25 d0 0f 31 03 2f f5 31
       1.044339e-09 7.7801815e-10 2.0927555e-09 7.135783e-09
0000c0 43 5c 89 2f 81 18 19 30
       2.498571e-10 5.56959e-10

exp_avg f4 [50]
000000 5b 1e 98 34 f1 74 d9 33 86 24 b8 b3 60 49 f0 31
       2.8334293e-07 1.01261215e-07 -8.574811e-08 6.993261e-09
000010 bc f2 c3 33 fd 35 e2 b1 ad 79 df 2f 19 33 8f 33
       9.124548e-08 -6.5836034e-09 4.064992e-10 6.668251e-08
000020 43 fe 28 35 d6 78 81 32 6a 09 82 32 88 e6 60 af
       6.2954877e-07 1.5072526e-08 1.5138273e-08 -2.0454582e-10
000030 57 b7 24 31 b7 66 a0 33 71 00 c2 30 52 24 4c b5
       2.3969358e-09 7.469264e-08 1.4115483e-09 -7.6048775e-07
000040 e3 f4 b4 b4 da de 4e b2 5c e9 b1 34 c2 2f 98 34
       -3.370579e-07 -1.2041449e-08 3.313861e-07 2.8346955e-07
000050 7b 7e bf b3 32 4f c1 b1 4d b5 46 33 0b 98 85 32
       -8.917137e-08 -5.6260427e-09 4.626536e-08 1.5552379e-08
000060 eb 29 1d b3 f2 68 5b 33 80 81 2f b3 2d 4f 9d 32
       -3.6592535e-08 5.1085358e-08 -4.0863142e-08 1.831321e-08
000070 93 04 2f b1 84 76 46 36 fa 38 48 32 3e e2 08 33
       -2.5468452e-09 2.9573284e-06 1.1654487e-08 3.1870734e-08
000080 88 d6 dc 34 f5 cd b4 34 b1 3a 13 30 e7 95 46 34
       4.1134285e-07 3.3677466e-07 5.3561694e-10 1.8494721e-07
000090 f8 49 ce 32 fa d0 91 33 eb ae f1 b2 84 26 5f 32
       2.4015193e-08 6.790101e-08 -2.8135636e-08 1.2989066e-08
0000a0 41 73 68 b1 bf 8f f7 30 dd 2f 88 32 57 77 00 33
       -3.3825958e-09 1.801247e-09 1.585425e-08 2.991086e-08
0000b0 92 75 0e b2 f1 56 87 b3 5a 4d a3 b2 c3 78 19 b4
       -8.29222e-09 -6.302242e-08 -1.9010873e-08 -1.4293168e-07
0000c0 68 f0 3d 32 23 93 ab b0
       1.105591e-08 -1.2483706e-09

exp_avg_sq f4 [1, 50]
000000 dd bf 2e 36 eb 68 51 34 0e 8d 1e 35 21 f9 33 36
       2.60397e-06 1.9502811e-07 5.906485e-07 2.681809e-06
000010 d7 79 47 34 62 7b 82 34 84 af 28 36 d7 e3 0f 36
       1.8577644e-07 2.430416e-07 2.5136114e-06 2.144128e-06
000020 4b 14 18 35 29 fc 85 35 dc 87 fc 35 97 fc 97 34
       5.665394e-07 9.98266e-07 1.8815003e-06 2.8309725e-07
000030 1b 1a 1f 36 24 ab f4 33 20 95 ce 35 5b ea 84 35
       2.3708042e-06 1.1393266e-07 1.5391597e-06 9.902973e-07
000040 10 b8 a5 35 b7 6c 34 34 61 eb 84 34 9c 38 05 35
       1.2347027e-06 1.6803357e-07 2.4758177e-07 4.962874e-07
000050 b7 fd 74 34 de 2e a1 35 00 c5 b6 34 84 ef b7 35
       2.2816572e-07 1.2009075e-06 3.4043478e-07 1.3704271e-06
000060 2a 9a a5 35 0a dd 01 35 83 0f b6 34 bc 34 42 35
       1.2338326e-06 4.83779e-07 3.3911428e-07 7.234737e-07
000070 ce ce db 35 02 e3 5a 35 4c 73 47 35 94 5a d1 35
       1.637696e-06 8.154167e-07 7.4301056e-07 1.5598075e-06
000080 7e 5a 66 34 06 d3 1c 34 16 83 9c 35 20 35 b5 34
       2.145334e-07 1.4605402e-07 1.1661057e-06 3.375253e-07
000090 a4 48 2a 35 5a 38 07 35 8d f1 ac 35 15 dd 7b 35
       6.343564e-07 5.037342e-07 1.2885299e-06 9.3826503e-07
0000a0 a4 4f 1d 35 1f 40 12 36 42 a4 0e 35 7f 2e 07 36
       5.860295e-07 2.1793019e-06 5.313815e-07 2.0143632e-06
0000b0 91 da 09 36 4f 9e cb 35 30 72 5b 33 d0 be 21 35
       2.0541813e-06 1.5170752e-06 5.1093764e-08 6.025484e-07
0000c0 b3 22 4e 35 cf a5 7d 34
       7.6791474e-07 2.3622782e-07

exp_avg f4 [1, 50]
000000 34 ab cb 37 54 e0 88 36 aa cb 06 b6 f2 ab 1a b7
       2.4279208e-05 4.079231e-06 -2.0086104e-06 -9.219149e-06
000010 67 47 42 37 a0 c6 04 b6 73 c1 e2 b6 11 ec 35 34
       1.1579926e-05 -1.9785148e-06 -6.7578453e-06 1.6942819e-07
000020 83 da 81 b8 78 b3 97 b6 39 eb 9b b5 fa cb b9 b6
       -6.1919e-05 -4.5210436e-06 -1.1616859e-06 -5.5371756e-06
000030 c0 d9 16 b7 3d 64 5f 37 31 3c 01 b7 de a9 36 38
       -8.991396e-06 1.3315174e-05 -7.703014e-06 4.3550383e-05
000040 0a 86 d4 b7 75 fa 50 b6 e7 d3 9a 37 2d 9e 94 37
       -2.5334786e-05 -3.11402e-06 1.8456905e-05 1.7716631e-05
000050 fc 5d df b6 e1 cb 8c b5 e1 aa d7 36 d2 42 f1 b6
       -6.656859e-06 -1.0490149e-06 6.4273922e-06 -7.1901386e-06
000060 21 6b 0c b7 da 03 a0 36 62 3d 6c b6 3b ef 46 b6
       -8.369593e-06 4.76882e-06 -3.520247e-06 -2.964355e-06
000070 14 00 dc b5 8a 67 6e b8 61 d5 0e b6 b8 b7 25 b6
       -1.63913e-06 -5.684005e-05 -2.1283852e-06 -2.4693854e-06
000080 95 a2 b1 37 03 5b 55 37 75 ae ea b6 4a d0 55 37
       2.1175752e-05 1.271698e-05 -6.994053e-06 1.2744285e-05
000090 09 4e c9 b4 80 03 0b 37 e3 3d d5 b6 6f e2 bd b6
       -3.7495946e-07 8.2858605e-06 -6.3550992e-06 -5.6589993e-06
0000a0 30 42 71 b6 28 c8 e4 b6 03 c8 67 b3 e3 06 93 35
       -3.5950325e-06 -6.8182308e-06 -5.396579e-08 1.0954358e-06
0000b0 75 90 ab b5 ab f0 62 b7 4c 01 72 b5 2b 60 c5 b6
       -1.2782535e-06 -1.3526685e-05 -9.015391e-07 -5.882253e-06
0000c0 cc fd 3c b5 c1 d6 7e b6
       -7.040478e-07 -3.7973953e-06
