experiments/rotation/checkpoints/checkpoints_weight_decay_mse/checkpoint_dim-2_ntrain-12_weightdecay-0.9_seed-1683best.pkl (torch_old, 13838 bytes, 36 tensors)

ffs.0.0.weight f4 [50, 1]
000000 5d 19 eb be 7a dc 6f bb 31 99 08 bf 57 ea ca bd
       -0.45917788 -0.003659992 -0.5335875 -0.09907978
000010 0f 00 4f bd 03 b5 29 3f 86 08 49 3f bf 61 3f 3f
       -0.050537165 0.66291827 0.7852863 0.74758524
000020 68 61 fe 3e 88 56 12 3a 0c 4d aa 3e 29 83 19 3e
       0.4968369 0.0005582352 0.33261907 0.1499144
000030 cf c5 32 3f 45 d5 8b be dc 13 04 3f 87 d4 11 3f
       0.6983308 -0.2731115 0.51592803 0.56964916
000040 fb 1d 9b 3e 97 42 cb 3d 32 10 4d bd de d0 19 be
       0.3029631 0.099248104 -0.050064273 -0.15021083
000050 e5 a3 76 b9 47 f1 2e 3f e8 35 2e ba 67 e9 ba be
       -0.00023521444 0.6833691 -0.0006645606 -0.36506197
000060 1a 6d a9 be bc 2d 78 39 e6 2a 02 bf 56 63 1d 39
       -0.3309105 0.0002366816 -0.5084671 0.00015009692
000070 d3 68 e1 38 af 0c 88 3d 42 3d 03 3f 9f b0 96 3d
       0.00010748361 0.06643044 0.51265347 0.073579066
000080 ac fc e9 3e d2 36 a5 be c3 0b 02 3f df 3e ff 3e
       0.45700586 -0.32268387 0.50799197 0.49852654
000090 6c 76 82 3e d9 40 d1 3e 3d 87 f5 3e e5 e4 b2 3c
       0.25480974 0.40869787 0.4795474 0.021837661
0000a0 83 8e 77 3c 67 05 3d bf ef f9 db 3c 59 99 b7 3d
       0.015109661 -0.7383637 0.026852576 0.089647956
0000b0 cf d2 1c bf 1e 1a b7 3d 63 40 d0 bc 8b 4a 45 3e
       -0.6125917 0.08940528 -0.025421327 0.19266717
0000c0 78 5a 10 3f 89 cd a8 be
       0.56388044 -0.3296931

ffs.0.0.bias f4 [50]
000000 81 af da be a8 63 1c 3f 80 70 92 bd 3a 07 ec be
       -0.42712024 0.61089563 -0.07150364 -0.46099263
000010 ed 54 df 3e 6c 38 a5 be bd 9b 9a 3a c7 7f 38 be
       0.4361948 -0.3226961 0.0011795681 -0.18017493
000020 13 b8 00 3f 16 43 45 bf 17 cc 56 bd b8 06 84 3e
       0.50280875 -0.7705549 -0.05244073 0.25786376
000030 49 15 a3 be 27 6f 0a 3f b3 8a 30 3f 08 0a 04 3f
       -0.31852177 0.54075855 0.6896164 0.51577806
000040 7c 42 fc 3e bc 26 3a 3f 11 ca af be a1 37 0c be
       0.49269474 0.72715354 -0.34333852 -0.13693096
000050 b4 25 0f bf 54 de 9e 3e 13 52 4b bf 62 74 e3 be
       -0.55916905 0.31028998 -0.7942211 -0.4442473
000060 78 46 7e b9 1f 3b b2 3e 36 b8 1a bf 9e ba e2 bc
       -0.0002424958 0.3481073 -0.60437334 -0.027676877
000070 06 f9 93 be 28 13 09 bd 1a 77 f5 3e c4 f0 44 3f
       -0.28900927 -0.033465534 0.4794243 0.7692988
000080 65 ac 9e 3e 3c 74 c7 bd 33 d1 fe be 9e a6 44 3f
       0.30990902 -0.09738967 -0.4976898 0.7681674
000090 bb 29 bf bc fe ce 8c be 48 6f 30 bf 8e 64 03 bf
       -0.023335328 -0.27501673 -0.689198 -0.5132531
0000a0 a6 bb b5 be 6d 65 32 3f 10 16 52 3e bd 04 ee bb
       -0.35494727 0.69686013 0.20516229 -0.0072637484
0000b0 fb 27 c4 be 7f fb c1 be 5c 25 fb 3e dc e6 bb 3e
       -0.38311753 -0.3788719 0.4905194 0.3669957
0000c0 24 6e 49 3f 29 53 24 b9
       0.78683686 -0.00015671238

ffs.0.2.weight f4 [1, 50]
000000 7d 16 e1 bc a8 e1 e6 3b 71 62 f0 bb a4 42 bf bc
       -0.027476544 0.0070459433 -0.007335954 -0.023347206
000010 62 41 11 bc d4 16 73 3c ab 1b fb 3c e1 1a 98 bc
       -0.008865686 0.014836986 0.030652842 -0.018567504
000020 f0 65 ba 3a d6 5b 43 3a 1a 04 9b 3c 7b 7c 6d 3c
       0.0014221054 0.0007452344 0.018922854 0.0144950105
000030 94 93 27 bc f2 83 52 bb 2b 1b 2e 3d e2 31 34 3d
       -0.010228056 -0.0032122103 0.04250638 0.043992884
000040 91 e8 38 bc e2 ef f3 3b 66 88 31 bb ba 38 cc bc
       -0.011285917 0.0074443677 -0.0027089356 -0.024929393
000050 50 d1 39 bb 40 fe 9c 3b da 99 6c bc a2 d7 a9 bc
       -0.002835352 0.004791051 -0.014440978 -0.020732705
000060 18 36 b0 bc da 7c 8a 3b 74 96 97 bc fc 99 45 3b
       -0.021510169 0.0042263092 -0.018504359 0.0030151596
000070 1e 92 17 3b f2 48 28 3c 37 d3 08 bc 60 b1 23 3c
       0.0023127864 0.010271298 -0.008351139 0.00999102
000080 ae 64 0a 3d c3 e7 9e bb 62 ec 82 bc 05 53 fe 3c
       0.033787422 -0.0048494055 -0.015981857 0.031045446
000090 0e 24 a8 bc 1c cf 83 3c 44 6c c2 3b d9 6b b0 bc
       -0.020525005 0.016089968 0.0059333164 -0.0215358
0000a0 12 8a 47 3b e5 15 61 3b 7f 72 e9 3b fb f8 62 bb
       0.0030447287 0.0034345326 0.0071242447 -0.0034633267
0000b0 3e bd 03 bd dc c7 ad 3b fc af 2c 3b ca 67 11 ba
       -0.032162897 0.005303366 0.0026350012 -0.0005546777
0000c0 c8 27 ed 3c 21 31 6c bc
       0.028949633 -0.01441601

ffs.1.0.weight f4 [50, 1]
000000 e4 9e b5 3e 24 c4 4e 3f 76 a4 2c bf c7 1d 70 be
       0.35472786 0.80768037 -0.6743845 -0.23448859
000010 11 07 09 3b bf a7 92 3e 96 8d 00 bd 49 ce 68 3e
       0.0020908753 0.28643605 -0.031385027 0.22734942
000020 14 78 10 3b 04 0e 20 bf 41 73 44 3c af 61 b2 3d
       0.0022044228 -0.62521386 0.011990369 0.08710038
000030 fb b1 98 be 10 23 70 be 73 25 a8 ba f6 5f 7a 3e
       -0.29823288 -0.23450875 -0.0012828544 0.24450669
000040 31 03 59 bb 4a 37 03 3e 01 2c db 3e 0b 00 c2 3e
       -0.0033113474 0.1281406 0.4280701 0.37890658
000050 39 d5 be bd 4b 81 2c 3d 81 04 0b be 57 e0 f6 3d
       -0.09318013 0.04211549 -0.13575937 0.12054508
000060 b2 04 29 3f f5 55 42 bf 21 ce 72 bd bf 52 0c ba
       0.6602279 -0.7591241 -0.05927861 -0.00053529063
000070 27 37 4b bf f7 f0 35 bb 83 a9 17 bf a7 e5 e3 3e
       -0.7938103 -0.0027762034 -0.5924303 0.44511148
000080 db ac 01 3d eb 34 fa ba 4b f2 90 be 78 2f d7 bd
       0.03165899 -0.0019089257 -0.28309855 -0.10507101
000090 a0 ce 67 ba 5f bc 1d bb 27 ea ac 3e 81 d0 15 be
       -0.000884274 -0.0024068577 0.33772394 -0.14630319
0000a0 bd c5 03 3f 45 43 ba be e7 eb d2 3e 10 ad 34 3f
       0.514736 -0.36379448 0.41195604 0.7057657
0000b0 54 4a 97 3a 6f 8e 82 bb 9d e7 7e be ef d5 09 bf
       0.0011542537 -0.0039842646 -0.24893041 -0.5384206
0000c0 8f 6e c4 3e 8c 52 09 bf
       0.383656 -0.5364158

ffs.1.0.bias f4 [50]
000000 b1 11 e2 be 4f 1a 0f bf 0c d1 44 bf bf 01 c6 3e
       -0.44154122 -0.5589952 -0.7688148 0.38673207
000010 98 41 01 bd d8 30 d4 3c cc 15 a3 be 83 28 01 bf
       -0.031556696 0.025902197 -0.31852567 -0.5045244
000020 e5 25 83 3c 55 34 27 3f 99 db 43 bf 79 2e 41 bf
       0.01600928 0.6531423 -0.76506954 -0.75461537
000030 f1 ad 21 3f a7 2d 43 3f d3 0b 3c bf 39 18 f0 be
       0.6315604 0.76241535 -0.7345554 -0.4689348
000040 48 b7 28 bf 6b ab fd be 39 9f e9 bd 31 be b5 be
       -0.65904665 -0.49544844 -0.114073224 -0.35496667
000050 5a 6b e5 be 71 d8 24 bf cc ad 97 3e a3 d3 4b be
       -0.44808465 -0.64392763 0.29624784 -0.19904952
000060 d7 2c 22 be 70 2b 99 be 2b 24 cd 3e 28 27 24 bf
       -0.15837418 -0.29915953 0.40066656 -0.6412225
000070 42 03 82 bd 45 30 74 3e 7c cf e5 be 58 28 15 bf
       -0.06348278 0.23846538 -0.4488486 -0.58264685
000080 03 5a f8 be e1 92 a5 be a0 73 13 3f 8d 05 e4 be
       -0.48506173 -0.32338622 0.57598305 -0.44535485
000090 82 3a ab be 1e 12 68 bb d7 86 0d bf d5 27 01 3a
       -0.33443075 -0.003541119 -0.55283874 0.0004926895
0000a0 e9 a7 cb 3d 91 05 df 39 cf af ec bc 70 e8 0b bf
       0.09944136 0.00042538022 -0.028892426 -0.54651546
0000b0 43 c3 a7 3e 15 bf 29 bf 82 56 18 3e c8 42 06 3d
       0.3276616 -0.66307193 0.1487675 0.03277853
0000c0 3e 24 f1 bd e2 42 37 3d
       -0.11774491 0.04474152

ffs.1.2.weight f4 [1, 50]
000000 dd d8 c5 bc 73 fd 71 bd 5d 03 93 3d 75 23 23 3c
       -0.02415126 -0.0590796 0.07178376 0.009957184
000010 8f c1 97 3c bc 16 72 bc 7c 8d 0a 3c ca 41 3a bc
       0.018524913 -0.014775928 0.008456584 -0.011368224
000020 bd ca 9d 3c 9e b8 bd 3d 50 79 15 3c 49 ad 88 bb
       0.019261712 0.092637286 0.009123161 -0.004171048
000030 38 5e b0 3b b9 3e 71 3d 8b 96 48 3c 13 e8 61 bc
       0.0053823255 0.058897708 0.0122429235 -0.013788241
000040 0e b3 5b 3c 37 5a 8d bc ad 77 f7 bc 1f 5d f8 bc
       0.013409389 -0.017254932 -0.030208433 -0.030317841
000050 ee 11 da 3c 2e 94 04 3c 36 35 3e 3d 86 09 11 3b
       0.026619878 0.008091969 0.046437465 0.002213092
000060 44 e6 31 bd 35 28 81 3d 8c 91 10 3d 4b cd c0 3b
       -0.04343249 0.06306497 0.035295054 0.005883848
000070 34 cf b6 3b 8a 60 bd 3c a7 32 a7 3d 2c c8 06 bd
       0.0055788998 0.023117322 0.08163958 -0.032905743
000080 30 f7 2a 3c 0d 57 85 3c 69 4b 83 3d 69 3e 02 3d
       0.010434911 0.01627686 0.06410868 0.0317978
000090 f1 27 0e 3c ba d5 a3 3c 4c 0e bc bc 4a 28 39 3d
       0.008676515 0.019999374 -0.022956036 0.04520444
0000a0 66 45 14 bd 8e bc 54 3d 20 17 e9 bc d5 ea 58 bd
       -0.036198996 0.051937632 -0.02845341 -0.05295833
0000b0 c9 a3 bb bb 74 9c 30 bb fd b4 74 3d 41 ef b1 3d
       -0.005726312 -0.0026948722 0.059742916 0.08688212
0000c0 41 e9 d4 bc 73 8c 8a 3b
       -0.02599013 0.0042281686

ffs.2.0.weight f4 [50, 1]
000000 d9 60 aa 39 73 a1 f3 3e 7b d5 13 bf 0c ed 40 3f
       0.00032497084 0.47584113 -0.5774762 0.75361705
000010 ae b4 0d 3f 1d e5 a9 be 64 0b c3 3e 76 e0 b4 be
       0.5535382 -0.33182612 0.38094628 -0.353275
000020 03 8c eb be 33 bc 1a be 58 3e d7 bd 66 86 f2 b8
       -0.46005258 -0.15110855 -0.10509938 -0.00011564493
000030 87 e3 4b 3e fa 4d 13 bf 62 50 4a 3e de a0 2d be
       0.19911014 -0.5754086 0.19757226 -0.16955897
000040 de 70 47 3f 2c 7b 8b bd 61 f5 d7 3d dc cf bc be
       0.77906597 -0.068106025 0.10544849 -0.36877334
000050 cd 38 10 3f 0a 83 dd 3e c3 11 e9 3e 25 d5 0b 3f
       0.5633667 0.43264037 0.45521364 0.5462211
000060 e9 5d 1f 3e 5a a7 df be ec 65 58 3b 86 21 1c 39
       0.15563168 -0.43682367 0.0033019735 0.00014889808
000070 8a 7a d3 3d 73 e0 2f be b0 61 f2 3e a1 98 a7 3e
       0.10326107 -0.17175464 0.47340155 0.32733634
000080 6d 81 d9 3e 58 97 f5 3e 5e 75 46 bf d0 e4 15 be
       0.42481557 0.4796703 -0.7752284 -0.14638066
000090 a9 3b ae 3d 2a 3d 3b bf b3 db 3b be b2 f3 3f bf
       0.08507473 -0.73140204 -0.18345527 -0.74981225
0000a0 28 8f de 3e b8 08 99 ba 87 91 05 3f 29 c3 48 bd
       0.43468595 -0.0011675572 0.5217518 -0.049014244
0000b0 7d d0 a5 be 88 f8 ad 3e e6 19 3b 3f 4f 29 af 3c
       -0.32385626 0.33978677 0.7308639 0.021382002
0000c0 c9 c0 e9 be 10 b2 02 3e
       -0.45654896 0.12763238

ffs.2.0.bias f4 [50]
000000 f3 bd fb 3e 16 e6 b3 3e 55 3a 4e 3f d1 fe 1c 3f
       0.49168357 0.3513648 0.8055776 0.6132632
000010 92 99 f8 bb a3 89 9a be 89 1d 94 3e 76 04 2b bf
       -0.0075866664 -0.30183133 0.28928784 -0.6680368
000020 b8 44 39 39 fb 78 9f 3e 7d 07 2d bf fc 28 02 3f
       0.00017668575 0.31146988 -0.6758955 0.5084379
000030 d2 2c 22 bf 07 6c 16 3c 49 b3 0e bf 2c 4d 22 bd
       -0.6334964 0.009181029 -0.5574232 -0.039624378
000040 e3 a5 c1 3a d2 d5 f6 3e 23 c1 b9 b8 93 21 eb be
       0.001477417 0.48210007 -8.857462e-05 -0.45924053
000050 36 dc 22 3f 9f e7 e7 3e ff bf a8 be ff 13 15 3f
       0.63617265 0.452939 -0.3295898 0.58233637
000060 ab 42 30 3f 67 4c 88 3e 26 d0 3a bf 71 16 3c 37
       0.6885173 0.2662079 -0.7297386 1.1210898e-05
000070 c4 78 fb 3e fb 1c 3a b9 32 2f 22 3f 6c 5a 42 bf
       0.49115574 -0.00017749138 0.63353264 -0.7591922
000080 d4 fb 5d 3d 5f ec 00 3f b2 c6 9b be e8 3d 35 bf
       0.05419524 0.50360674 -0.3042503 -0.70797586
000090 f0 b3 88 b6 46 c0 71 be 6b cb 6d bd 36 d8 ef bd
       -4.0740633e-06 -0.23608503 -0.058055323 -0.11711161
0000a0 76 9c 24 3e 65 4e 93 3e f2 94 6c b7 a3 a5 20 3d
       0.1607531 0.28770748 -1.4101375e-05 0.039220463
0000b0 be 89 f9 be 61 51 a1 39 ad 1a 4e bf cc 21 55 be
       -0.487379 0.00030768945 -0.80509454 -0.20813674
0000c0 e4 b2 01 3f cc 3f 5f be
       0.5066359 -0.2180168

ffs.2.2.weight f4 [1, 50]
000000 18 65 3f 3c 07 a0 86 3b e3 75 06 bd e8 42 06 3b
       0.0116818175 0.004108432 -0.03282727 0.0020486657
000010 ed 24 1d 3c e0 b0 2c 3b 16 a6 a1 3c 71 6e 43 bc
       0.009591323 0.0026350543 0.019732516 -0.011928187
000020 14 e3 aa bc 99 57 74 bc 7c cd 28 bc b0 9e b1 bb
       -0.020860232 -0.014913463 -0.010302898 -0.0054205284
000030 bb 46 58 3a 6f 07 b5 bc e2 76 aa 3b 2c 71 87 bc
       0.0008250286 -0.022098271 0.00520216 -0.016533457
000040 4f 5d 56 3c d3 99 98 bc 49 6d 8e 3c b1 64 00 bc
       0.01308377 -0.018628037 0.017386096 -0.007836507
000050 0a 7e a8 39 12 78 0e 39 88 d7 00 3c cf d4 49 3c
       0.00032137363 0.00013586905 0.007863887 0.012318804
000060 eb 49 e8 bb 3e d2 bc bc d4 0f 93 bb 5f 19 6c bb
       -0.00708889 -0.02304947 -0.004487971 -0.0036025865
000070 b1 5b 8e 3c fc 1d 4e bc c5 75 b4 bb a0 cd ad 3b
       0.017377706 -0.012580391 -0.0055072033 0.0053040534
000080 bb c9 73 3b 36 88 95 39 d2 37 c1 bc 7d 9c 02 bc
       0.0037199098 0.0002852098 -0.023586188 -0.00797188
000090 de 34 93 bb c8 cb bf bc c3 c7 3b bc 03 3d 8d bb
       -0.0044923862 -0.0234126 -0.011461201 -0.0043102517
0000a0 af dd 3a 3b 96 2c 20 bc cc ad 56 3b 47 a6 23 bc
       0.0028513481 -0.009776255 0.00327574 -0.009988374
0000b0 26 a3 51 bc 6c 59 0d 3b 9c 3e b3 3c 65 36 bd bb
       -0.012795245 0.0021568192 0.02188044 -0.0057743066
0000c0 ce 98 c9 bc 56 2d 2e bb
       -0.024608996 -0.0026577315

ffs.3.0.weight f4 [50, 1]
000000 ed 17 1b bf 2b 1c cb be b3 20 8b be 39 5a b0 3e
       -0.6058338 -0.39669928 -0.27173385 0.34443834
000010 f9 b8 1b bf 98 0b 9e 3e 4a 0c 1f b6 ed 12 3c 3e
       -0.6082912 0.3086822 -2.37e-06 0.18366595
000020 0b 22 4a 3f d1 76 3e 3e 40 59 d7 3e 2c a4 07 bf
       0.78958195 0.18600012 0.4206028 -0.5298488
000030 f3 7e 61 be 65 4a 1a 3f a5 18 09 3f 1c d8 e0 3c
       -0.22021084 0.6026977 0.5355323 0.027446799
000040 aa fc b0 3e 80 72 bc 3e 0c 0b 52 3e 58 c7 c8 bd
       0.34567767 0.36806107 0.20512027 -0.09803647
000050 6c 68 60 3e ba b4 33 3f d2 97 ea 3e 18 32 09 3f
       0.21914834 0.7019764 0.45818955 0.5359206
000060 69 2f 25 3e 4c 2a 23 3f 7e cb e0 be 62 b0 99 3e
       0.16131367 0.63736415 -0.43905252 0.30017382
000070 26 0e d5 be 1f 37 32 37 1b fb e8 37 c1 38 db 3e
       -0.41612357 1.0622461e-05 2.7773485e-05 0.42816737
000080 8e a1 a6 3e 3f a4 41 bf 73 5d 00 37 a2 e3 45 3f
       0.3254513 -0.75641245 7.651152e-06 0.77300465
000090 c0 b9 fb 3e b9 6c 2f 3f 58 1d 3b be ab 74 80 3c
       0.49165154 0.6852527 -0.18272913 0.015680632
0000a0 ef 2d de 3e 41 9f dd bc 80 2e d9 bc c0 01 09 3f
       0.4339442 -0.027053477 -0.02651143 0.53518295
0000b0 70 4b f2 be 68 12 6c be 02 0b eb be 61 79 ba 3c
       -0.4732318 -0.23053896 -0.45906836 0.022762956
0000c0 8f 40 34 3f c7 f2 21 bd
       0.7041101 -0.03953817

ffs.3.0.bias f4 [50]
000000 6e 5f 3f 3f ce cd fd 3e 66 14 1c 3e 84 6c 2c 3e
       0.7475499 0.4957108 0.15242156 0.1683827
000010 ec c1 04 bf c3 64 89 bd 61 23 1e 3e ce d5 f5 bd
       -0.518584 -0.06708672 0.15443183 -0.12003671
000020 84 df 33 bf e3 d4 27 3f 76 df 8d 37 9a 9c 57 bd
       -0.7026293 0.65559214 1.6912567e-05 -0.05263958
000030 4f 84 13 3f 98 53 7c 3e f3 0e 19 bf d6 d1 8f bc
       0.5762376 0.24641263 -0.59788436 -0.017556112
000040 05 3c 36 bc 0a bb f1 3e 3b d1 ac be 9e 4d c2 3d
       -0.011122708 0.47213012 -0.3375338 0.094874606
000050 1e f3 c9 b7 a9 dc 29 3a 10 86 1c bf 5f 8a b9 3d
       -2.4074277e-05 0.00064797193 -0.61142063 0.09059595
000060 00 00 29 bf 2b b8 c0 3d 0d 8f a3 be a0 16 3d 3f
       -0.66015625 0.09410127 -0.31945077 0.7386265
000070 e7 61 0d 3f 6b 4f 8a 3d bc b6 5f 3e d1 f5 da 3e
       0.5522751 0.06753429 0.21847051 0.42765668
000080 e8 2e 69 3d 2f 0b f8 be c0 58 d4 b3 7c 5f 83 b9
       0.0569295 -0.48446032 -9.888163e-08 -0.00025057408
000090 7f 25 98 bd 40 99 47 bc 97 d7 bd be 22 17 b1 3e
       -0.07429027 -0.012182534 -0.37078544 0.3458796
0000a0 96 0b 81 3c a0 66 01 b7 de 08 83 be dc 08 a2 3e
       0.015752595 -7.712893e-06 -0.25592703 0.31647384
0000b0 c2 4c 5a 38 79 2f 30 bb 4e 03 51 39 75 c1 b8 3e
       5.2046737e-05 -0.0026883765 0.00019933024 0.36085096
0000c0 34 58 ee 3e 5f f7 7b 3e
       0.4655167 0.24606083

ffs.3.2.weight f4 [1, 50]
000000 5c ff 6f 3c ff c9 68 bb a1 9c 86 3b ac 03 ad bb
       0.014648285 -0.003552079 0.004108027 -0.0052799787
000010 d7 bd c7 3b 0f 8e c1 bb 14 0c 4b ba f5 92 99 bb
       0.0060956287 -0.0059068273 -0.0007745635 -0.004686708
000020 2f c8 a7 bc c9 30 24 bb 00 dd 48 3b 1c 99 f1 3b
       -0.020481197 -0.0025053492 0.0030649304 0.0073729884
000030 fb 0f 61 3b 09 11 a0 ba 2a c4 57 bc ac 28 80 ba
       0.00343418 -0.0012212108 -0.013169328 -0.0009777746
000040 fb d7 ed 3a 73 cb 09 3c 0d f4 3d bc 7b a0 86 3a
       0.0018146032 0.0084103225 -0.011593831 0.0010271216
000050 1f d7 75 bc 9c ea 59 bc f7 37 be 3b 9b ab 0f bc
       -0.015004902 -0.013300564 0.0058050114 -0.008768941
000060 94 d9 33 3c 7e 72 2e bc e5 99 e1 3b 93 4d 4b bb
       0.010977168 -0.010647414 0.0068848007 -0.003102158
000070 d4 21 07 3c e7 a2 1f ba f4 08 8b ba ca 4a a8 bb
       0.008247811 -0.0006089643 -0.0010607527 -0.0051358687
000080 4a f2 b3 bb ff 08 c3 3b 79 f8 09 ba 91 71 66 bc
       -0.0054915296 0.005952 -0.00052631606 -0.014065162
000090 d4 5e 06 bc 93 b3 96 bc 0a ec a1 3a 37 36 58 ba
       -0.00820132 -0.018396175 0.001235367 -0.0008247825
0000a0 92 d6 ea ba 66 27 d7 3b 9b 8a 40 b8 95 f8 78 bc
       -0.001791673 0.006565976 -4.5905454e-05 -0.015195985
0000b0 5f f8 f0 3b b0 b7 da bb 5c c4 1c 3c 22 0c a8 ba
       0.007353827 -0.0066747293 0.0095683 -0.0012820999
0000c0 94 9e ba bb c8 d1 9f 34
       -0.0056951735 2.9768694e-07

exp_avg_sq f4 [1, 50]
000000 0b d8 83 39 33 3d a1 39 92 ee 3f 3a 07 9f 8b 3a
       0.00025147232 0.0003075391 0.00073216215 0.0010652252
000010 36 ac 83 3a a7 6a e4 39 ab a0 c0 39 6d fc 17 3b
       0.001004583 0.0004356701 0.000367408 0.002319123
000020 46 a3 2e 3b d2 42 43 38 37 22 ec 39 74 b3 77 39
       0.0026647612 4.6553854e-05 0.0004503892 0.00023622607
000030 45 a5 d8 3a dd 76 ac 39 37 b1 69 3a 56 13 a3 39
       0.0016528746 0.00032894957 0.00089146517 0.0003110419
000040 57 55 2c 3b 7b 53 8b 3a 70 b8 ab 39 25 7b 8f 3a
       0.0026295984 0.0010629738 0.00032753078 0.0010946734
000050 a6 c6 1b 3a 90 65 2a 3b 8b ca 83 3a 6b c9 bd 38
       0.00059423817 0.0026000477 0.0010054869 9.049739e-05
000060 ae 31 3c 3a da 73 5c 39 02 26 4a 3a 3e cf 72 39
       0.0007179034 0.00021023993 0.0007711352 0.00023156122
000070 ac 4c 2a 39 d9 2f 91 39 84 ef 50 3b 8d 87 59 3a
       0.00016241026 0.00027692204 0.0031881044 0.00082980917
000080 e2 a8 95 39 40 5e 15 3a 5d 2c da 3a 1e 84 c5 3a
       0.00028545322 0.0005697943 0.0016645301 0.0015069281
000090 d6 0b 16 3b ff ff 7d 39 4c ce 71 38 cb 5d c7 3a
       0.0022895238 0.00024223326 5.7651007e-05 0.0015210448
0000a0 cd 57 d1 39 e5 cf 0d 3a ed 68 09 3a e7 35 96 3a
       0.00039929003 0.0005409702 0.00052417704 0.0011460156
0000b0 53 6b 9a 38 7b 54 93 38 d4 7c f4 39 38 7c d6 3a
       7.363283e-05 7.025242e-05 0.0004663231 0.0016363924
0000c0 6c 94 f3 3a a3 b1 b7 39
       0.0018583662 0.0003503683

exp_avg f4 [1, 50]
000000 61 eb 38 bb 2b 0c f6 3b 98 8c 74 3c 67 f9 9e bc
       -0.0028216469 0.0075087748 0.014926098 -0.019406034
000010 48 f1 00 bc 11 c0 0e 3b 99 1c e3 3b a1 27 11 bd
       -0.007870026 0.002178196 0.0069308993 -0.035438184
000020 88 a0 e5 bc a4 91 01 3a 50 c1 97 3b 40 a6 ee 3b
       -0.028030649 0.00049426616 0.004631199 0.007283002
000030 20 5c bd bc 88 60 82 3b a4 30 11 3c bb 8e 3e 3c
       -0.023115218 0.0039787926 0.0088616945 0.011630709
000040 82 c7 ed bc c7 f9 97 3a d7 8a 80 ba 0d cd 98 bc
       -0.029025797 0.0011594825 -0.0009807002 -0.018652463
000050 28 25 7b bb f8 6e e8 bc 6a 74 7e bc d8 18 79 ba
       -0.0038321707 -0.028373227 -0.015530685 -0.0009502298
000060 cf eb 09 bc 14 74 8c 3b 99 79 54 3c ed 40 34 3b
       -0.008418038 0.0042862985 0.012968444 0.002750452
000070 1e 9c 18 3b a0 1c f7 3b 51 99 1a bd 68 80 af 3b
       0.0023286412 0.007541254 -0.03774387 0.0053558834
000080 8f 80 30 3c a3 79 2f 3c 43 7c ce bc 6d da 2f bb
       0.010772838 0.010710153 -0.025205737 -0.0026833073
000090 83 61 04 bd 6d eb 71 3b a0 1c db 39 ab da bf bc
       -0.032319557 0.0036914006 0.00041792262 -0.023419699
0000a0 3a 2e dd 3a 8d bc 24 3b 15 76 a9 3b 08 b7 14 bc
       0.0016874739 0.00251368 0.005171547 -0.009076841
0000b0 96 2f 81 ba 44 b6 af 3a c5 fb 4d 3b b5 8e 44 bc
       -0.0009856101 0.001340576 0.0031430584 -0.011996915
0000c0 c6 8f 1a bc da f1 79 ba
       -0.009433692 -0.0009534635

exp_avg_sq f4 [50, 1]
000000 35 73 95 36 ce d6 41 3d 90 95 86 3d b0 27 d9 3d
       4.453958e-06 0.047323994 0.065714955 0.10603273
000010 f4 15 7b 3d b0 67 d7 3c fa 14 05 3d d9 16 ed 3c
       0.061300233 0.02629456 0.032490708 0.028941559
000020 2d e3 36 3d 3d ce 03 3c c9 ca a2 3b 72 03 cd 37
       0.044650245 0.0080447765 0.0049680215 2.4439509e-05
000030 a6 09 44 3c bc a0 86 3d d2 c5 3f 3c a4 2e 19 3c
       0.011965191 0.065736264 0.011704879 0.009349499
000040 36 ba e5 3d f4 4d 40 3b fb f8 a1 3b 80 d9 fe 3c
       0.112171575 0.0029343339 0.004943011 0.031109571
000050 d8 f4 81 3d 75 e0 25 3d 88 73 34 3d f0 38 75 3d
       0.06345528 0.040497262 0.04405549 0.059868753
000060 71 59 0a 3c 20 72 27 3d 3a 72 bd 39 02 58 1a 39
       0.008444176 0.040880322 0.00036133995 0.0001471937
000070 41 80 9e 3b 93 21 1d 3c 76 6f 41 3d 68 13 d1 3c
       0.0048370664 0.009590524 0.047225438 0.025521949
000080 a2 f9 20 3d b9 16 45 3d 2f e6 e3 3d 10 f3 fc 3b
       0.03930057 0.048117373 0.111278884 0.007719405
000090 76 2c 7e 3b 4e 61 cd 3d 51 2c 2e 3c 21 42 d7 3d
       0.0038783825 0.10028325 0.010630683 0.1051066
0000a0 13 c5 26 3d 51 62 6a 39 6a 38 64 3d 16 f7 0a 3b
       0.04071529 0.00022352605 0.055717863 0.0021204404
0000b0 13 15 cd 3c d4 96 de 3c b5 7d cc 3d 19 4c 87 3a
       0.025034463 0.02717153 0.09984914 0.0010322361
0000c0 55 df 34 3d db a1 d3 3b
       0.0441583 0.0064585037

exp_avg f4 [50, 1]
000000 c7 7f fa 37 d9 32 df 3e 3f d1 06 bf bb b6 2f 3f
       2.9861823e-05 0.4359348 -0.52663034 0.686382
000010 7d 7f 01 3f f9 b6 9c be ff 2b b3 3e 29 82 a6 be
       0.50585157 -0.30608347 0.34994504 -0.3252118
000020 99 ae d7 be 0f 37 11 be 32 d7 cc bd 85 c6 d7 37
       -0.42125395 -0.1418116 -0.10001983 2.572244e-05
000030 fd 49 3e 3e fa 78 06 bf d4 bb 3c 3e 90 6b 22 be
       0.18582912 -0.52528346 0.18431026 -0.15861344
000040 52 85 35 3f 7f 79 86 bd 66 ef cc 3d ac b2 ad be
       0.70906556 -0.06566142 0.10006599 -0.33925378
000050 4a d3 03 3f c7 47 cb 3e 0f 98 d5 3e 17 a2 ff 3e
       0.51494277 0.397032 0.41717574 0.49928352
000060 5d fb 15 3e 0b e1 cc be 71 38 86 3b 44 ad ce 39
       0.14646669 -0.40015444 0.004096084 0.00039420475
000070 9f fc c8 3d f2 8f 24 be e7 27 de 3e 28 84 9a 3e
       0.09813809 -0.16070536 0.43389818 0.30178952
000080 b1 9e c7 3e 18 02 e1 3e 9d 97 34 bf 16 18 0d be
       0.3898826 0.4394691 -0.70543844 -0.1377872
000090 36 ca a7 3d b6 7a 2a bf 0b 7a 2f be da d4 2e bf
       0.081928656 -0.6659349 -0.171364 -0.68293536
0000a0 2c 33 cc 3e f9 b2 a4 ba b2 68 f4 3e b8 0d 45 bd
       0.3988279 -0.0012565545 0.47736126 -0.048108786
0000b0 d1 e0 98 be 81 54 a0 3e d1 4f 2a 3f a6 d8 b6 3c
       -0.2985902 0.3131447 0.6652804 0.022320103
0000c0 bd f2 d5 be d9 91 f7 3d
       -0.41786757 0.12088365

exp_avg_sq f4 [50]
000000 a4 e6 4d 3d c5 80 eb 3c dd 0b f4 3d 08 26 96 3d
       0.050268784 0.028747926 0.11916325 0.07331473
000010 1d 0e 08 3a df 6e b7 3c 6d 3b ad 3c fe e0 ae 3d
       0.00051900913 0.022391735 0.0211465 0.085390076
000020 b6 07 52 36 73 77 c1 3c b2 ec b2 3d ed c8 59 3d
       3.1296927e-06 0.023616528 0.08736552 0.053170133
000030 3d 5d 9f 3d 3c 3d 19 3a bf 96 7e 3d dd f8 e7 3a
       0.07781456 0.00058456114 0.06215548 0.0017698068
000040 04 32 8f 39 38 3a 46 3d a2 36 18 38 de ad 36 3d
       0.0002731235 0.048395365 3.6290505e-05 0.044599406
000050 c6 56 a0 3d ae 80 32 3d 96 0a d4 3c 64 e7 89 3d
       0.07829051 0.04357975 0.025883954 0.067335874
000060 d9 71 b8 3d f2 fd 96 3c e3 ad cc 3d 4b 1c 05 36
       0.0900609 0.018431637 0.09994104 1.9835013e-06
000070 da ae 4d 3d 3d af 30 39 75 e1 9e 3d 99 8a db 3d
       0.05021558 0.0001684995 0.07757846 0.10719795
000080 e7 7d 1a 3b 06 f8 55 3d b4 a0 ba 3c 12 ff c1 3d
       0.0023573579 0.052238487 0.022781707 0.09472479
000090 99 0c b6 38 91 15 7c 3c b7 7d 26 3b f4 a6 bb 3b
       8.680783e-05 0.015386001 0.0025404522 0.0057266895
0000a0 cd 65 10 3c ac ca aa 3c 8f bd e5 37 e9 f4 e1 3a
       0.008813334 0.020848595 2.7387197e-05 0.0017239127
0000b0 0e e0 4a 3d c4 45 36 39 0a d3 f3 3d 82 88 50 3c
       0.04953008 0.00017382862 0.11905487 0.0127278585
0000c0 bb 37 58 3d 98 a1 5f 3c
       0.052787524 0.013649367

exp_avg f4 [50]
000000 d5 92 e6 3e c0 ba a5 3e 99 af 3b 3f c0 58 0f 3f
       0.450339 0.3236904 0.73314816 0.55994797
000010 b8 9c 09 bc c8 c7 8e be 05 10 89 3e 8f 00 1c bf
       -0.008399181 -0.27886796 0.26770034 -0.6093835
000020 8d 81 93 36 64 3a 93 3e 16 cd 1d bf 72 48 ee 3e
       4.396023e-06 0.28755486 -0.6164106 0.46539646
000030 34 02 14 bf ee f0 21 3c 7d 73 02 bf 20 36 22 bd
       -0.5781586 0.009884102 -0.5095747 -0.0396024
000040 bc 2c 0b 3b c1 1a e2 3e 8a d1 f0 b7 d0 99 d7 be
       0.002123638 0.44161037 -2.8707804e-05 -0.42109537
000050 a4 a0 14 3f 6e a9 d4 3e 64 9d 9b be a8 3d 08 3f
       0.5805762 0.41535515 -0.30393517 0.5321908
000060 eb b1 20 3f 0e 73 7c 3e 14 37 2a bf 78 f8 33 b5
       0.6277148 0.24653265 -0.6649029 -6.7044266e-07
000070 ca 58 e6 3e 8e d4 d8 b9 bc 00 14 3f f1 00 31 bf
       0.44989616 -0.00041357096 0.5781362 -0.6914206
000080 69 1d 5a 3d 97 0f ec 3e 17 12 90 be 64 33 25 bf
       0.053250704 0.46105644 -0.281388 -0.6453154
000090 d8 06 c3 b7 c5 f3 60 be 66 e9 68 bd f3 d1 e3 bd
       -2.3248998e-05 -0.2196799 -0.05686321 -0.11124029
0000a0 f8 a5 1a 3e fb 3b 88 3e b3 50 94 37 32 4e 20 3d
       0.15102375 0.2660826 1.7680553e-05 0.039137073
0000b0 44 9c e4 be 86 27 0b 3a 67 93 3b bf 58 bb 46 be
       -0.4465047 0.00053083187 -0.73271793 -0.19407403
0000c0 a9 68 ed 3e 88 e4 4f be
       0.46368912 -0.20302022

exp_avg_sq f4 [50]
000000 a6 9b d5 3d 9d 64 50 3d 92 13 06 3c b4 01 1a 3c
       0.10430078 0.050877202 0.008183377 0.00939982
000010 27 65 61 3d 2c b7 42 3b 29 85 08 3c b4 0e c3 3b
       0.055028107 0.002971123 0.008332529 0.0059526805
000020 30 3f bf 3d 53 38 a9 3d 29 ba 38 35 70 82 16 3b
       0.09338224 0.08262696 6.881624e-07 0.002296593
000030 60 00 87 3d ab 0a 86 3c 70 ee 8f 3d e0 dd 6a 3a
       0.065918684 0.016362509 0.070279 0.00089594536
000040 34 65 2e 3a 41 85 3f 3d 7b 1f dc 3c 0e 5a 91 3b
       0.00066526537 0.04675794 0.02687048 0.004435784
000050 c5 de c5 36 cb 0f 67 39 06 b9 95 3d 41 bc 89 3b
       5.8969913e-06 0.0002203576 0.07310681 0.00420335
000060 c1 43 ab 3d 58 59 90 3b 52 dd c9 3c e6 24 d1 3d
       0.083625324 0.004405182 0.024641667 0.10212116
000070 c4 d1 7a 3d fa 4f 44 3b b6 47 60 3c 22 43 22 3d
       0.061235204 0.0029954896 0.013688972 0.039614804
000080 6b a5 23 3b 9a 32 48 3d 44 6e a0 37 c7 e0 0e 39
       0.0024970423 0.048876382 1.9124833e-05 0.00013625911
000090 ea ab 5a 3b 16 4e 33 3a 83 2d 00 3d 24 00 e5 3c
       0.003336663 0.0006839944 0.031293403 0.027954169
0000a0 02 24 58 3a fa 4a 58 38 7f 6d 8e 3c 23 25 c7 3c
       0.00082451117 5.156824e-05 0.017386196 0.0243097
0000b0 40 73 26 38 94 52 a9 39 2a 97 17 39 cc 51 f5 3c
       3.968482e-05 0.00032295717 0.00014456795 0.02994623
0000c0 25 05 3b 3d af 1d 86 3c
       0.045659203 0.016371576

exp_avg f4 [50]
000000 1a 50 2e 3f 98 6b e8 3e f4 da 12 3e e5 c1 21 3e
       0.68090975 0.45394588 0.14341336 0.15796621
000010 fa 01 f3 be 08 7b 85 bd b1 bc 14 3e 46 35 e9 bd
       -0.47462445 -0.06517607 0.14525105 -0.11387114
000020 e8 ef 23 bf c0 1b 19 3f 54 16 07 36 ee 3c 54 bd
       -0.6403794 0.5980797 2.0129564e-06 -0.05181592
000030 e3 cb 06 3f c4 3c 6a 3e 6f c8 0b bf ad 00 97 bc
       0.52654856 0.22874743 -0.5460271 -0.01843294
000040 82 e3 45 bc a8 80 dd 3e 79 4f 9f be c7 fe b9 3d
       -0.012078168 0.4326222 -0.3111532 0.09081798
000050 9c 3d 0e b6 f0 a0 94 3a 5f eb 0e bf 0b 13 b2 3d
       -2.119551e-06 0.0011339467 -0.558279 0.086950384
000060 d5 28 1a bf f8 bd b8 3d ac f7 96 be ae 43 2c 3f
       -0.60218555 0.09020609 -0.29485834 0.6729077
000070 19 43 01 3f 00 5c 86 3d 05 4e 50 3e d8 fe c8 3e
       0.5049301 0.06560516 0.20342262 0.3925693
000080 0a 73 64 3d 12 42 e3 be d4 25 fa b5 7a 8e 3c b9
       0.055773772 -0.44386345 -1.8637461e-06 -0.00017982154
000090 84 0e 93 bd 8f e7 53 bc 9e b1 ae be a9 2c a3 3e
       -0.07180503 -0.012933626 -0.34119886 0.3187001
0000a0 5b 9c 88 3c 20 8c 1a b6 cc 0d 73 be 83 a2 95 3e
       0.016676119 -2.3029352e-06 -0.23735732 0.2922555
0000b0 55 52 0a 37 47 1f 58 bb 7b 86 8d 39 41 19 aa 3e
       8.24461e-06 -0.0032977627 0.00026993811 0.33222392
0000c0 b9 80 da 3e e5 e7 69 3e
       0.42676333 0.22842367

exp_avg_sq f4 [1, 50]
000000 a1 e4 ca 38 bd c3 39 3a 52 fe 61 37 0a 5e 0a 32
       9.674696e-05 0.0007086357 1.3470259e-05 8.054039e-09
000010 89 48 8f 39 66 4a 3e 38 18 16 ab 38 aa fb 36 39
       0.00027329128 4.536882e-05 8.158031e-05 0.00017450625
000020 06 27 93 33 d1 d8 dc 35 90 a5 3d 3a c0 fd 63 39
       6.852319e-08 1.6454379e-06 0.00072344486 0.00021742936
000030 61 ea c0 37 a7 fd 16 3a 40 12 28 38 25 d0 15 37
       2.2997325e-05 0.0005759843 4.0071318e-05 8.9295545e-06
000040 da 2e 24 3a fe f8 4a 3a 94 8e f1 39 69 38 20 38
       0.0006263085 0.0007742791 0.0004607333 3.819951e-05
000050 f2 e5 1a 3a 78 89 b6 38 2e bd 7d 3a ac 3d a3 36
       0.00059088983 8.704042e-05 0.0009679374 4.864958e-06
000060 d8 61 5c 3a d7 3e 04 38 5e 1c 9d 39 0e 25 c2 38
       0.0008406914 3.1529777e-05 0.0002996651 9.257543e-05
000070 c0 2f 4d 36 79 14 07 38 f3 6c 19 39 9f 42 4b 39
       3.0575175e-06 3.2205575e-05 0.00014631804 0.00019384407
000080 8f fe 97 36 d8 f8 2f 39 69 18 cf 36 49 9b a6 34
       4.529785e-06 0.00016782002 6.1719225e-06 3.1032894e-07
000090 38 2f b2 39 c4 54 c2 39 99 08 56 39 68 55 b0 35
       0.00033985986 0.0003706572 0.00020411833 1.3137878e-06
0000a0 7b b0 0b 3a 92 c6 02 3a 9f 00 92 36 43 c1 03 3a
       0.0005328727 0.0004988696 4.3512114e-06 0.00050260517
0000b0 1e a2 ef 37 41 5f 24 3a fc 43 98 39 79 c2 bc 38
       2.8566512e-05 0.00062702975 0.00029042352 9.000762e-05
0000c0 fc 58 a3 39 81 9f 7f 38
       0.0003115608 6.0945287e-05

exp_avg f4 [1, 50]
000000 b4 6f 04 3a 18 e0 46 bc 52 76 9c 38 05 f5 50 b6
       0.00050520455 -0.012138389 7.4606985e-05 -3.1137035e-06
000010 57 18 06 3b 1c 0f e8 b9 75 e5 99 b9 cc f6 cc ba
       0.0020461285 -0.00044261746 -0.00029353393 -0.0015637516
000020 5e fc b0 b7 d9 c7 16 b8 ac 6c 3a 3c 84 55 5e ba
       -2.1098353e-05 -3.594891e-05 0.011378448 -0.0008481371
000030 e6 9a b3 38 8f b8 03 3c bb b8 15 ba 0d fd bb b8
       8.564237e-05 0.008039608 -0.0005711426 -8.963989e-05
000040 4a 86 10 3c 82 54 5e 3c a6 a0 0a bc 18 c3 da 37
       0.0088210795 0.013569953 -0.008461153 2.6078473e-05
000050 24 0e 45 bc 4a 91 46 ba e7 d5 8d 3c dc 94 bd b8
       -0.012027297 -0.00075747503 0.01731391 -9.0399495e-05
000060 93 b9 76 3c 16 df 88 b9 53 b0 36 3b 03 0e c1 b9
       0.015058893 -0.00026106153 0.0027876094 -0.00036822268
000070 af 1c 87 38 96 92 00 b9 89 15 34 ba c4 e8 73 b8
       6.4426444e-05 -0.00012261639 -0.0006869664 -5.8152495e-05
000080 2a 58 c3 b8 6d 9f 1b ba 45 81 30 b8 16 e5 01 b8
       -9.3147464e-05 -0.0005936537 -4.208206e-05 -3.096935e-05
000090 44 8d c2 3a 6a 32 db bb ee b5 71 ba c4 a3 01 b8
       0.0014843126 -0.0066893594 -0.000922053 -3.0908515e-05
0000a0 1c 9e d7 3b 4f 20 f7 3b 25 e0 a9 b6 8e 43 18 bc
       0.0065801274 0.0075416933 -5.0626863e-06 -0.00929345
0000b0 46 c3 f1 38 d1 e1 2e bc 2c 1e 4e 3b 2d 63 e6 b9
       0.00011528148 -0.010673956 0.003145109 -0.0004394291
0000c0 b8 a9 f7 3a f5 1f 82 b8
       0.0018895185 -6.2048355e-05

exp_avg_sq f4 [1, 50]
000000 b1 4d b4 3a 38 62 e4 39 2c 45 8d 39 c7 61 54 39
       0.0013756064 0.00043560727 0.00026945153 0.0002025432
000010 59 50 af 39 da 25 92 3a ae 4f 98 3a ad 9f 72 39
       0.00033438465 0.0011150197 0.0011620426 0.00023138402
000020 5f b9 0a 39 11 5e 7b 39 bb 81 8d 39 62 d9 25 3a
       0.00013229762 0.00023972268 0.00026990272 0.0006326643
000030 25 f5 ba 37 83 ad 0b 3a bf a4 ec 39 6b 27 a1 39
       2.2287082e-05 0.00053282845 0.00045136173 0.00030737682
000040 bb 84 31 39 c5 eb c9 39 4f ea 9e 3a 51 c2 25 3a
       0.00016929481 0.0003851337 0.0012124273 0.0006323206
000050 bd 1b 9d 38 de c3 ad 38 5a 1c 5b 38 78 26 69 3a
       7.49151e-05 8.285766e-05 5.2240073e-05 0.0008893977
000060 d3 ca 18 39 76 8b 33 39 6f 80 a0 37 39 e8 08 3a
       0.00014571408 0.00017122724 1.9133293e-05 0.0005222592
000070 08 8e bb 3a 37 40 bf 38 23 a9 a5 39 60 44 c1 38
       0.0014309296 9.119551e-05 0.0003159727 9.215693e-05
000080 19 58 e5 38 b4 c6 d4 38 2a a7 ba 39 85 d9 25 38
       0.000109359804 0.00010145959 0.00035601232 3.9541646e-05
000090 c7 e8 93 39 64 6a c9 39 fa c3 de 39 1d 68 b2 3a
       0.00028211458 0.00038416975 0.00042489154 0.001361135
0000a0 bb 8a fd 38 7f 9f 8e 39 6f 4e aa 39 9f 6b 1e 39
       0.00012089821 0.00027203184 0.00032483364 0.00015108146
0000b0 b5 9b bc 38 49 66 8b 38 39 ff c2 39 ca 7d 67 39
       8.993541e-05 6.6470886e-05 0.0003719272 0.00022076737
0000c0 f6 7f f2 39 f9 ae 66 38
       0.00046253175 5.499923e-05

exp_avg f4 [1, 50]
000000 80 b6 aa 3c 44 1c 02 3b 33 06 c1 bb e0 d7 42 bb
       0.020838976 0.0019853273 -0.0058906316 -0.0029730722
000010 7b 89 f6 3a cd f4 8c 3c 0e a2 9d 3c 92 03 ff b9
       0.0018809283 0.017206574 0.019242313 -0.0004864005
000020 70 05 db ba c9 58 3b bb d6 b2 80 bb 77 7e 7e 3b
       -0.0016709995 -0.0028586856 -0.003927569 0.0038832703
000030 55 80 6e 38 78 59 82 3a aa f5 ae 3b a8 22 c3 bb
       5.686314e-05 0.0009944877 0.005339344 -0.005955059
000040 1e b8 1f ba b9 53 16 bc 9b 5c b4 3c 0a e3 cc 3b
       -0.0006092804 -0.0091752345 0.022016814 0.006252651
000050 03 a6 6a ba 25 fb 4f ba 57 c5 d6 37 a2 7f 40 3c
       -0.0008951129 -0.0007933847 2.5602681e-05 0.01174918
000060 ce 50 bb ba 4c 7d 2e bb 64 92 d7 b8 23 83 82 3b
       -0.001429105 -0.0026624976 -0.00010279266 0.003982918
000070 64 03 c4 3c bb 66 97 ba 51 03 c4 bb 38 37 cf 38
       0.023927398 -0.0011551002 -0.0059818407 9.8808145e-05
000080 d3 b6 28 ba 9c bb 87 ba 69 f3 a7 b6 5a c7 b7 b9
       -0.00064359343 -0.0010355595 -5.0053245e-06 -0.00035053008
000090 01 60 a0 39 fa bb 84 39 2a 59 29 3a 99 e2 b0 3c
       0.00030589107 0.00025317055 0.0006460125 0.021592425
0000a0 c2 f0 56 ba 63 42 f5 ba 9c 1f 9b bb bb b8 ec ba
       -0.0008199328 -0.0018711801 -0.0047339927 -0.0018060425
0000b0 e6 2f 26 ba 33 9d 7c b9 f2 31 6f 3b 77 9b 00 b8
       -0.0006339535 -0.00024091154 0.0036498276 -3.0662366e-05
0000c0 92 ed da ba 12 e2 a4 b8
       -0.0016702882 -7.862238e-05

exp_avg_sq f4 [50, 1]
000000 b4 19 35 3d 27 27 e1 39 22 83 6d 3d 9f ef 90 3b
       0.044213966 0.00042944515 0.057986386 0.0044230963
000010 ed 04 0d 3b b4 98 ac 3d f7 2b e9 3d e3 a1 d5 3d
       0.0021517829 0.08427563 0.11385339 0.10431268
000020 67 d4 52 3d 90 97 3f 39 d5 84 d6 3c 17 72 fd 3b
       0.051472094 0.00018271641 0.026186386 0.007734548
000030 39 24 bd 3d bd 7d 9d 3c 67 1a 5d 3d d3 77 82 3d
       0.092354245 0.019224996 0.053980257 0.06370511
000040 70 ee bc 3c a6 78 9a 3b 20 50 0c 3b c9 55 fd 3b
       0.023062915 0.0047140894 0.0021410063 0.0077311737
000050 e2 3a 13 39 d7 a0 b6 3d 11 73 76 37 06 c8 f9 3c
       0.00014040948 0.089173965 1.4689534e-05 0.030490886
000060 af 23 d3 3c 3a 30 36 37 5d 13 5b 3d ad e8 9b 35
       0.025773851 1.0859274e-05 0.053485263 1.1616117e-06
000070 fc 3b 67 33 cc 3e 37 3b 58 e9 5e 3d 15 f6 56 3b
       5.3838434e-08 0.0027961014 0.054421753 0.0032800485
000080 73 5d 32 3d b7 3e cf 3c fb 23 59 3d 1b d9 51 3d
       0.04354615 0.02529846 0.05301283 0.05123244
000090 c1 cc 8f 3c 0f 60 16 3d eb 09 45 3d 40 03 96 3a
       0.017553689 0.036712702 0.04810516 0.001144506
0000a0 69 d9 54 3a 02 f6 d0 3d 70 82 a0 3a 92 ec 8a 3b
       0.0008119555 0.10203172 0.0012245905 0.004239627
0000b0 0d d4 95 3d d2 28 85 3b c4 3d 9c 3a 36 98 3d 3c
       0.07315836 0.004063704 0.0011920263 0.011571934
0000c0 85 f7 81 3d da db d2 3c
       0.06346039 0.025739599

exp_avg f4 [50, 1]
000000 16 da d6 be bf d3 9a bb 59 d6 f9 be ed 7f bf bd
       -0.4196326 -0.004724949 -0.48796347 -0.09350572
000010 8e 9a 4a bd ec cf 1a 3f fd f7 36 3f fa 53 2e 3f
       -0.0494638 0.60473514 0.7147215 0.6809689
000020 cb f2 e8 3e b6 2a 51 3a 37 c0 9c 3e 98 ca 0f 3e
       0.45497736 0.0007979082 0.30615398 0.14042127
000030 c0 f3 22 3f 87 7a 81 be 00 6e f0 3e 16 b8 04 3f
       0.63653183 -0.25288793 0.46958923 0.5184339
000040 14 af 8f 3e a7 61 c1 3d 3e c1 49 bd 7d a1 0f be
       0.28063262 0.09442454 -0.049256556 -0.14026447
000050 ea b8 44 b8 36 7f 1f 3f 73 e8 bc b8 23 77 ab be
       -4.6902256e-05 0.62303483 -9.0078356e-05 -0.33489332
000060 16 e4 9b be 59 db 58 38 5e d4 ed be 49 88 26 37
       -0.30447453 5.1702697e-05 -0.46451086 9.926102e-06
000070 95 73 07 36 1c 65 83 3d 2b 81 f0 3e 32 be 90 3d
       2.0183845e-06 0.064157695 0.46973547 0.07067527
000080 d8 c4 d5 3e b0 5e 98 be f5 07 ee 3e 43 b6 e8 3e
       0.41751742 -0.2975974 0.46490446 0.45451555
000090 ef ce 72 3e 4d 1e c0 3e 6f fd e0 3e e7 6d c0 3c
       0.23711751 0.37523118 0.43943354 0.023489906
0000a0 78 f1 81 3c 84 2e 2c bf ac 8f dd 3c 84 74 b0 3d
       0.015862212 -0.6725848 0.027046047 0.086159736
0000b0 23 e1 0e bf 77 5b af 3d ee 7b d6 bc 4d 62 38 3e
       -0.5581228 0.085623674 -0.026182141 0.18006249
0000c0 c9 80 03 3f 86 74 9b be
       0.51368386 -0.30362338

exp_avg_sq f4 [50, 1]
000000 8e dc 92 3d a2 24 10 3d c9 28 9c 3c 93 55 e3 3c
       0.07170974 0.035191186 0.019062417 0.027750766
000010 bc 39 94 3d ad 64 be 3c f2 dc bd 38 89 36 2d 3c
       0.072375745 0.023241365 9.0533766e-05 0.010572084
000020 e8 38 eb 3d df 44 31 3c a8 82 1e 3d d7 bf 69 3d
       0.114854634 0.010819643 0.038698822 0.05706772
000030 a1 84 62 3c 06 38 92 3d be 36 6d 3d 19 91 a5 3a
       0.0138255665 0.07139592 0.057913534 0.0012631743
000040 fd c9 e5 3c ae d1 fd 3c 4c 6f 4a 3c e7 ed 96 3b
       0.028050417 0.030983772 0.012355637 0.004605997
000050 73 94 5f 3c 00 ab be 3d bb 72 37 3d 95 f6 6d 3d
       0.013646233 0.093099594 0.04478715 0.058096487
000060 d8 d5 12 3c 03 da a0 3d cc 5f 29 3d 5b 83 b6 3c
       0.008962117 0.078540824 0.041351125 0.022279432
000070 8c e3 1a 3d b2 93 24 37 ff ec 5e 38 26 c6 22 3d
       0.03781466 9.80955e-06 5.3149644e-05 0.03973975
000080 d7 6f cf 3c 4a 43 da 3d 90 56 1b 38 bb 9d e2 3d
       0.025321884 0.106573656 3.7035497e-05 0.11065241
000090 60 cf 4d 3d af 63 b6 3d bf 2c 2d 3c b2 97 58 3a
       0.050246596 0.08905732 0.01056975 0.00082623505
0000a0 dc cf 26 3d a1 9a a0 3a 74 ec a0 3a 19 0d 6d 3d
       0.040725574 0.0012253114 0.00122775 0.05787382
0000b0 fd 4b 40 3d 8d 7e 74 3c 7a 45 36 3d 7b c2 8d 3a
       0.046947468 0.01492275 0.04449985 0.0010815406
0000c0 ac 22 c0 3d b1 12 e5 3a
       0.09381613 0.0017476884

exp_avg f4 [50, 1]
000000 d0 85 0d bf 90 bb ba be 9c d0 80 be 41 79 a2 3e
       -0.55282307 -0.36471224 -0.25159156 0.31733134
000010 9d 2e 0e bf d7 e9 91 3e d7 48 4c b7 5a e4 2f 3e
       -0.55539876 0.28498718 -1.2176307e-05 0.17176953
000020 55 e0 37 3f 14 1e 32 3e 90 c1 c5 3e 2f 1e f8 be
       0.7182668 0.17394286 0.3862424 -0.48460528
000030 58 da 51 be 15 e7 0c 3f 71 9f fa 3e fa 29 e5 3c
       -0.20493448 0.55040103 0.4894977 0.027974118
000040 3e 1a a3 3e 28 77 ad 3e f1 ad 43 3e 8f ec bf bd
       0.3185596 0.33879972 0.19109322 -0.09371292
000050 1c b2 50 3e 18 bf 23 3f c7 2f d7 3e 6d e9 fa 3e
       0.20380443 0.6396346 0.4202864 0.49006215
000060 79 60 1b 3e ae db 14 3f 5e 35 ce be 51 05 8e 3e
       0.1517352 0.58147705 -0.4027509 0.2773843
000070 91 8b c3 be 0f 38 fd 34 89 66 28 37 be 31 c9 3e
       -0.38192418 4.716571e-07 1.0037454e-05 0.39295763
000080 b6 ae 99 3e 87 59 30 bf ed 1f 34 b6 28 20 34 3f
       0.30016106 -0.6888661 -2.6840673e-06 0.70361567
000090 b9 76 e6 3e fd db 1f 3f 35 13 2f be 89 d6 87 3c
       0.45012453 0.6244505 -0.1709717 0.01658179
0000a0 62 e0 cb 3e ba 79 e1 bc 8a f9 dd bc f4 8c fa 3e
       0.39819628 -0.027523864 -0.027096529 0.48935664
0000b0 a7 f8 dd be ba 9e 5b be 2f 68 d7 be 42 55 c0 3c
       -0.4335377 -0.21447268 -0.42071673 0.023478154
0000c0 8d 49 24 3f c0 a2 21 bd
       0.6417473 -0.03946185

exp_avg_sq f4 [1, 50]
000000 83 55 c9 36 31 f2 03 39 ef cf 83 3a fe 78 4f 3b
       6.0002217e-06 0.00012583357 0.0010056476 0.003165781
000010 7f 4f 05 38 6c ce e9 37 72 f4 9d 3a 4a e9 2c 37
       3.1783708e-05 2.7871887e-05 0.0012051 1.0306316e-05
000020 ad bf 6a 38 92 ff 57 3a ab 54 9c 39 54 9e 00 3a
       5.596846e-05 0.0008239682 0.0002981772 0.0004906405
000030 05 8c 7d 3b 45 15 87 39 11 31 b1 39 c1 be cc 38
       0.0038688194 0.00025765054 0.00033796628 9.763009e-05
000040 78 0f a9 37 5e 37 66 3a 78 e4 84 37 ca 63 ba 39
       2.0153573e-05 0.0008782054 1.5842015e-05 0.00035551033
000050 9d 62 11 38 d3 4c 50 37 a2 cf 2d 3a ba e8 55 37
       3.4662535e-05 1.2415653e-05 0.0006630366 1.2749975e-05
000060 24 16 f5 39 9d c4 13 3b 77 46 36 39 55 00 37 3a
       0.00046746538 0.002254761 0.00017383123 0.00069809455
000070 16 46 c1 3b 5e 06 cc 38 04 2a 07 3a 99 ec 86 38
       0.0058982475 9.728664e-05 0.0005156102 6.433688e-05
000080 0d 00 de 37 8d 5d cf 37 a0 b9 90 39 1e 67 db 39
       2.6464486e-05 2.4719886e-05 0.00027604122 0.00041847763
000090 5a ce 4b 3a 37 e9 90 38 83 45 38 38 07 33 ec 39
       0.0007774584 6.909895e-05 4.3933756e-05 0.00045051446
0000a0 a3 5b b9 37 b0 25 c8 3a a3 d8 ad 38 74 bf cb 38
       2.209639e-05 0.0015270021 8.2896346e-05 9.715455e-05
0000b0 9e 13 05 3b 82 e3 9d 3a 75 b4 cb 39 5d 3d 0d 3a
       0.0020305882 0.0012045952 0.00038853628 0.0005387867
0000c0 cd e1 49 39 ee 94 a4 3b
       0.00019252971 0.0050226366

exp_avg f4 [1, 50]
000000 6d 52 70 b9 d5 c8 5a 38 64 88 99 bb 92 9a 1f bd
       -0.0002291889 5.216229e-05 -0.0046854485 -0.03896577
000010 1e e3 e3 39 3d 62 b6 b9 11 a0 45 bc cf 6e aa b9
       0.0004346603 -0.00034786938 -0.012062089 -0.00032507486
000020 30 24 48 3a 9a 4e 00 3c 01 30 ef ba b5 47 f6 bb
       0.0007634787 0.00783124 -0.0018248559 -0.0075158724
000030 4c c9 4b bd cc 6c 24 3c b4 19 c8 b9 51 22 6f ba
       -0.04975252 0.010035705 -0.00038166123 -0.000912224
000040 41 2b c9 39 52 c3 8e bc 10 78 a5 b9 21 8d 93 bb
       0.00038369934 -0.01742712 -0.00031560706 -0.004502908
000050 bf 97 be 3a 33 d0 33 b9 fe 1e 07 3c b2 80 9f b9
       0.0014541073 -0.0001714833 0.008247135 -0.0003042273
000060 9a 30 e7 3b 0a b9 dc bc 48 1f d8 3b bc 89 01 bc
       0.0070553543 -0.026943702 0.006595526 -0.007906374
000070 40 0d ae bd 61 45 0f 3b 70 9a c4 3b e7 07 17 ba
       -0.08498621 0.0021861421 0.0059998557 -0.00057613704
000080 f2 df 2a b9 1c 2d e2 39 11 3f 29 3c 90 7c 98 3b
       -0.0001629589 0.00043139688 0.010329978 0.004653521
000090 4e 65 00 bc 58 a4 9d 3a 81 4d 1e ba 2e ad 0d 3c
       -0.007836653 0.0012027128 -0.00060387707 0.008647246
0000a0 2c 88 0e b9 d7 36 1c bc bc b2 22 ba cd bd 61 b9
       -0.00013592903 -0.009534559 -0.0006206443 -0.00021528378
0000b0 35 6f e2 bc a2 3e 88 bc d8 e8 2d 3c 8e 86 22 3c
       -0.027640918 -0.016631428 0.010614596 0.009919776
0000c0 24 13 0a 39 55 6b 8f bd
       0.00013167836 -0.07002894

exp_avg_sq f4 [50]
000000 68 2c 21 3d 95 1a 95 3d e6 9d 56 3b bf 93 37 3d
       0.03934899 0.07280461 0.0032747923 0.044818636
000010 d5 42 28 3d c2 f2 cc 3c eb ed 0b 36 6c 44 25 3c
       0.04107936 0.0250181 2.08511e-06 0.010087114
000020 d8 60 56 3d b6 d2 e1 3d 54 f6 16 3b b3 5a 8f 3c
       0.05233845 0.11026518 0.0023035007 0.017499303
000030 7f 2c c6 3c d8 ce 71 3d 84 be b8 3d 91 15 5d 3d
       0.02419114 0.059035152 0.09020713 0.053975645
000040 d6 f3 4e 3d bc 72 cb 3d 9a e3 e1 3c 91 91 e5 3b
       0.05052551 0.09933993 0.02757435 0.0070058783
000050 da d7 7f 3d ce 10 c2 3c b8 b7 ed 3d 98 33 2d 3d
       0.06246171 0.023689654 0.11607307 0.04228553
000060 2e c7 c0 35 b1 df e6 3c 37 2b 93 3d 81 d2 a6 3a
       1.4363084e-06 0.028182836 0.07185977 0.001272753
000070 11 bb ac 3c b7 5a c8 3a 92 04 46 3d 9c f0 e0 3d
       0.021085294 0.0015285824 0.048344202 0.109833926
000080 42 6f bd 3c 9c 71 98 3b 69 24 50 3d d0 4f e0 3d
       0.02312434 0.004652215 0.050815973 0.10952723
000090 44 15 8c 3a c9 b0 9f 3c 58 72 b9 3d 85 4f 5c 3d
       0.001068749 0.019493477 0.090550125 0.053786773
0000a0 b0 7b ee 3c 20 a8 bc 3d 33 8a 4c 3c 02 16 05 3a
       0.029111713 0.09211755 0.012484121 0.0005076827
0000b0 ed fe 06 3d 2e 3e 05 3d 9d b8 4c 3d d1 e5 fc 3c
       0.03295796 0.032530002 0.04998075 0.030871304
0000c0 6b 45 ea 3d b7 45 5e 33
       0.11439022 5.1751808e-08

exp_avg f4 [50]
000000 31 8c c8 be d4 cb 0e 3f 9b 87 8d bd 12 62 d8 be
       -0.39169458 0.5577977 -0.0691063 -0.42262322
000010 bc ec cc 3e 40 ab 98 be 5a 9f e0 37 44 0b 2c be
       0.40024364 -0.29818153 2.6777085e-05 -0.16801172
000020 54 b1 eb 3e 04 a0 33 bf 19 26 54 bd 15 d6 74 3e
       0.46033728 -0.7016604 -0.051794145 0.23909791
000030 bb 57 96 be 6c 39 fd 3e 4d d4 20 3f db 43 f1 3e
       -0.29363808 0.49457872 0.62823945 0.47122082
000040 13 0d e7 3e b2 9d 29 3f 96 00 a2 be 46 5f 04 be
       0.45127162 0.6625625 -0.31641072 -0.12926969
000050 c6 db 02 bf dc a8 92 3e c3 15 39 bf 71 8d d0 be
       -0.511166 0.28644454 -0.7229883 -0.4073291
000060 c2 dd 0a b7 52 35 a4 3e 9f 3b 0d bf f9 1d e7 bc
       -8.277073e-06 0.3207193 -0.551691 -0.028212534
000070 b3 d8 88 be c8 02 0a bd e9 f8 e0 3e 66 56 33 3f
       -0.26727828 -0.03369406 0.43939903 0.7005371
000080 e9 45 92 3e d6 93 be bd f6 28 e9 be 2b 01 33 3f
       0.28568962 -0.09305541 -0.45539063 0.6992366
000090 29 fa c3 bc fb 80 82 be e0 e1 20 bf ca 83 f0 be
       -0.023922997 -0.2548903 -0.6284466 -0.46975547
0000a0 55 5f a7 be 1b 9a 22 3f 96 f0 43 3e 98 d8 05 bc
       -0.3268992 0.63516396 0.19134745 -0.008169316
0000b0 41 04 b4 be 63 6e b2 be fd 03 e6 3e e5 ef ac 3e
       -0.35159495 -0.34849843 0.44924918 0.33776775
0000c0 14 4c 37 3f ec 59 1e b5
       0.7160046 -5.899044e-07

exp_avg_sq f4 [50, 1]
000000 70 62 ec 3c ca 41 f4 3d ad 4e b0 3d b9 92 7f 3c
       0.028855532 0.11926611 0.08608756 0.015598946
000010 eb b4 e8 39 ea 25 a9 3c eb 1d c6 3a 70 77 6c 3c
       0.00044385283 0.020647962 0.0015115117 0.014432773
000020 97 ef f6 39 6c 04 99 3d 6f 5e 32 3a e6 bd 79 3b
       0.00047099285 0.074715465 0.0006804233 0.0038107573
000030 41 c1 b8 3c 43 03 6b 3c 6d 1c 13 37 d2 c7 82 3c
       0.022553088 0.014344039 8.768501e-06 0.015964422
000040 76 0e 85 39 9b 6e c6 3b 9b fd 20 3d 50 92 01 3d
       0.0002537851 0.0060556657 0.039304357 0.031633675
000050 2c 53 82 3b cb c0 f8 3a c2 44 da 3b 83 91 c6 3b
       0.0039772 0.0018978355 0.0066610286 0.006059827
000060 fd 52 ab 3d b6 f3 da 3d fc 2d 13 3b 60 b4 1b 37
       0.08365438 0.106910154 0.0022457829 9.280717e-06
000070 d4 ce ef 3d 1b 59 33 36 d6 0b 8b 3d d4 47 2b 3d
       0.11709371 2.6724945e-06 0.06789367 0.041816548
000080 86 45 c6 3a d7 4a eb 33 67 f0 9d 3c 33 3d 9f 3b
       0.0015126921 1.09566535e-07 0.019279672 0.0048595904
000090 a1 7e 64 37 9d 13 47 33 be 86 d9 3c b5 0d f0 3b
       1.3619342e-05 4.6351136e-08 0.026553508 0.0073258528
0000a0 9e 89 5c 3d 2f 40 f6 3c f5 05 18 3d 2c c7 be 3d
       0.05384218 0.030059902 0.037115056 0.09315333
0000b0 fc c7 0d 38 5b 27 02 3a 79 cf 81 3c 9d 4e 6a 3d
       3.380327e-05 0.0004964971 0.015846001 0.057203878
0000c0 28 d0 07 3d ee e9 71 3d
       0.033157498 0.059060983

exp_avg f4 [50, 1]
000000 46 29 a6 3e 15 67 3b 3f 02 3a 1c bf 1a 65 5e be
       0.32453364 0.73204166 -0.6102601 -0.21718255
000010 7b f4 a4 3b 73 e7 86 3e da 9c fc bc 28 65 57 3e
       0.005034027 0.26348457 -0.030836511 0.21034682
000020 49 9b ab 3b 88 86 10 bf a4 ea 63 3c 69 78 aa 3d
       0.0052370173 -0.5645528 0.013910923 0.08323748
000030 a6 00 8d be 8b ad 59 be c4 67 7c 37 13 1e 67 3e
       -0.27539557 -0.21257608 1.504453e-05 0.22570066
000040 9a db 1c bb 85 90 f4 3d b3 d7 c7 3e 9b 11 b1 3e
       -0.0023934604 0.119416274 0.39031753 0.34583744
000050 b9 29 b1 bd e2 cb 2e 3d 33 6b fc bd 29 81 ea 3d
       -0.08650536 0.042674907 -0.12325134 0.114504166
000060 fc 7b 19 3f 2a 16 30 bf 72 8d 5d bd b3 e1 f2 38
       0.5995481 -0.6878382 -0.05408997 0.00011581499
000070 aa f8 38 bf e1 d3 34 b8 3c 02 09 bf 6a b3 cf 3e
       -0.7225443 -4.3112672e-05 -0.53519034 0.4056657
000080 77 61 07 3d 75 b8 4a b6 af 0c 83 be de 22 c6 bd
       0.033051934 -3.0207714e-06 -0.25595614 -0.09674619
000090 26 67 17 39 6d 05 73 b6 49 5d 9e 3e 3d 0f 08 be
       0.00014438908 -3.621298e-06 0.30930546 -0.13287063
0000a0 5f bf ef 3e 52 13 a9 be 6a 6f c0 3e 4d e0 23 3f
       0.46825692 -0.33022553 0.37585002 0.6401413
0000b0 84 69 ff 39 c1 85 a9 bb f5 4c 66 be 79 b7 f8 be
       0.00048716005 -0.0051734154 -0.22490294 -0.4857748
0000c0 e1 72 b3 3e 09 30 fb be
       0.35048583 -0.49060085

exp_avg_sq f4 [50]
000000 0d 43 2b 3d e0 20 80 3d bc 32 e1 3d 38 b0 09 3d
       0.04181199 0.062562704 0.10996005 0.03361532
000010 f1 df bd 3a 2f 42 9e 3a 16 be c7 3c 16 b0 56 3d
       0.0014486295 0.0012074168 0.024382632 0.052414022
000020 4e cb 55 3a 29 3f a8 3d a1 7b de 3d b6 fd d8 3d
       0.00081556 0.08215172 0.10863424 0.105952665
000030 97 92 9e 3d d8 27 dd 3d 38 df ce 3d a5 69 3d 3d
       0.077428035 0.10798615 0.10101169 0.04624333
000040 57 25 ab 3d 6d 93 4f 3d da 40 b6 3b c1 4b ee 3c
       0.083567314 0.050677706 0.00556193 0.029088857
000050 62 a4 30 3d 50 06 a4 3d aa 72 b2 3c 75 ea 43 3c
       0.043125518 0.080090165 0.021783192 0.011957754
000060 30 80 0d 3c b0 c8 b5 3c 4a 08 11 3d e4 69 a2 3d
       0.008636519 0.022190422 0.035408296 0.07930353
000070 a5 07 35 3b 73 fd 7d 3c c2 41 31 3d 79 97 89 3d
       0.0027622965 0.0155023215 0.043275602 0.06718344
000080 e1 1f 49 3d e2 79 ce 3c fc be 86 3d e8 f8 2d 3d
       0.049102668 0.025204603 0.06579396 0.042473704
000090 50 2f d8 3c f0 23 cb 39 0c 2d 7b 3d f5 08 ea 38
       0.026389748 0.00038745953 0.061322257 0.00011159658
0000a0 ec a9 9a 3b dc 88 ab 38 f9 80 ac 3a ac 55 76 3d
       0.0047199633 8.1794075e-05 0.0013160995 0.060140297
0000b0 14 11 d3 3c 17 1d ac 3d f4 bd 00 3c ee 05 bc 3a
       0.02576498 0.08403986 0.007857788 0.0014345029
0000c0 e2 b4 be 3b f8 f5 01 3b
       0.0058199028 0.0019830447
